android/src/main/ml/feedback_model.tflite (tflite, 124672 bytes, 8 tensors)

unknown_0 f4 [34]
000000 58 90 84 3e 04 37 e9 be 0a be 3c bd 85 93 dd bd
       0.25891376 -0.45549786 -0.046079673 -0.10819153
000010 9c 28 88 3e f8 d8 f5 3d c0 5d 03 bf a5 f1 92 3e
       0.26593482 0.12004274 -0.51314926 0.28699985
000020 75 60 0b bf 92 d3 3f 3e 5f d3 cc be 7f 6e 68 be
       -0.54444057 0.18733051 -0.40005013 -0.22698401
000030 c2 fc 94 3e e6 7e 56 bd 4a e5 1e be 46 55 12 bf
       0.2909909 -0.052367114 -0.15517154 -0.57161367
000040 f0 e3 04 3f f0 28 a4 3d 0a 1b 8d 3e 7b 9d 84 be
       0.51910305 0.08015621 0.27559692 -0.25901398
000050 63 95 86 bd f8 94 a2 bd 44 8c 6c 3e 66 c0 43 be
       -0.06571462 -0.0793857 0.23100382 -0.19116363
000060 de e3 4a be 8f 82 50 3e f5 02 03 3e e9 98 d9 be
       -0.19813487 0.20362304 0.12794097 -0.42499474
000070 9c 23 a9 be f7 71 82 3b b0 90 07 3e e1 ec 30 bd
       -0.3303498 0.003980871 0.13238788 -0.043194655
000080 51 a3 74 3e 1c 2b 27 3e
       0.23890425 0.16325039

unknown_2 f4 [204]
000000 a1 71 f0 3e 5a ec 04 be d6 1f 8e 3d a6 70 73 3e
       0.46961692 -0.12980786 0.06939666 0.2377344
000010 03 3b 54 3e f9 7a 28 3f 85 b2 53 bc 2d 5d 56 3e
       0.20725636 0.6581264 -0.01292098 0.20933981
000020 6d 2f bd 3e a9 05 e4 3e a5 ff 2b 3f be c5 56 bd
       0.36950245 0.44535568 0.6718696 -0.052434675
000030 ce bf 0b 3e e0 d3 13 be 58 f8 f1 3e dd 3a 0e 3f
       0.13647386 -0.14436293 0.47259784 0.5555857
000040 66 6a 71 3f d1 c4 4a 3e 79 d0 54 3e 2c 45 82 3e
       0.94302976 0.19801642 0.20782651 0.254434
000050 a8 58 0c 3f 3b b2 de be 4d 98 84 bd 5a cd b2 3e
       0.5482278 -0.43495354 -0.064743616 0.34922296
000060 1a 77 70 3f 97 56 3a 3e e8 94 6c be 2e 3f b2 3e
       0.93931735 0.18197094 -0.23103678 0.34813827
000070 4e 37 e9 3d 0c 70 08 3f bd c0 04 3f fe 6f b4 3e
       0.11387502 0.5329597 0.51856595 0.35241693
000080 ab 06 93 be db 91 c3 bd 91 43 e4 3e 01 54 30 3f
       -0.28716025 -0.09549304 0.445828 0.6887818
000090 96 d1 12 3f 92 88 82 3e ef 5b 33 bd f2 b9 45 3e
       0.5735105 0.2549482 -0.043788847 0.19309214
0000a0 88 73 4c 3e 2a e7 ed 3e 95 91 15 bf e2 a4 fc bc
       0.19965947 0.46465427 -0.58425266 -0.030840341
0000b0 ea 80 06 3f 21 fc 48 3e f7 0c 88 3e a8 28 ac 3e
       0.5254046 0.1962743 0.2657239 0.33624768
0000c0 df c8 ce 3d 5b 7d 4e be 61 88 8b 3e fd 3f bd 3e
       0.10096907 -0.20165007 0.27252486 0.36962882
0000d0 7c 52 3b 3f e2 d1 fd bd 6b 9a e1 bd a4 59 96 3f
       0.73172736 -0.123935476 -0.11015781 1.1746106
0000e0 6f c8 2c 3f ad 7a 68 3e 2a 1a 46 3f 0a d9 cb 3e
       0.6749334 0.22703047 0.77383673 0.39814025
0000f0 6c 04 80 bf f5 f4 37 3f 86 c0 be 3e af 2b 9b be
       -1.000135 0.7185815 0.3725626 -0.30306765
000100 14 d2 b7 3e 4c f5 9d 3e bb 9f 0c bb 03 39 c4 3e
       0.35902464 0.3085121 -0.0021457511 0.38324746
000110 3b fe c4 bd 81 b7 34 3e 66 64 27 3f 7f f9 fa 3e
       -0.09618803 0.17648126 0.6538757 0.49018475
000120 73 53 2b be 31 8a 2c be f9 51 cd 3e 78 2d 8d be
       -0.16731052 -0.16849591 0.40101603 -0.27573752
000130 b5 0e 36 bd f6 f5 85 3f aa c2 88 be 27 c3 12 3f
       -0.04444762 1.0465686 -0.26711017 0.5732903
000140 57 b8 ed 3e d1 78 d4 3e b4 a4 02 3e a6 8c 80 3e
       0.46429703 0.41498426 0.12758142 0.25107306
000150 6b 90 5d be a5 e1 b9 3e b1 d4 06 be 1c c4 d5 3e
       -0.21637122 0.36304966 -0.13167073 0.41751182
000160 68 6c 58 bb aa c8 a1 3e df b8 d2 3e ff 67 03 3f
       -0.00330236 0.31598407 0.4115667 0.5133056
000170 56 1c 1c be 30 b9 8e bd fe e6 da 3e 32 53 56 3d
       -0.15245184 -0.069689155 0.42754358 0.052325435
000180 42 27 3c 3f 85 ef 1b 3e af 30 31 3e 9b 80 ac 3e
       0.734974 0.15228088 0.17303728 0.33691868
000190 ce ec fc bd 18 8b 26 bd 25 23 3a 3e fe 1c 06 3f
       -0.123498544 -0.040659994 0.18177469 0.5238799
0001a0 3c 8c 01 be e8 50 3d 3e a9 46 6b 3e e5 09 31 3f
       -0.12651151 0.18487895 0.22976173 0.6915572
0001b0 eb 1e 88 bd 96 26 2c 3f 90 85 a5 3e 65 a6 01 be
       -0.06646522 0.6724638 0.32328463 -0.1266113
0001c0 44 b3 6b 3e 95 5e 59 bd f1 42 b5 3f 79 a6 0d 3f
       0.23017603 -0.053068716 1.4161054 0.5533214
0001d0 75 aa 0b 3f e1 8c 83 3e 5b f5 66 3e 7c ec 27 be
       0.5455697 0.2569342 0.22554533 -0.16398805
0001e0 58 b9 19 3f b8 c6 3a 3e 54 27 bc 3e b7 59 58 3d
       0.6004844 0.18239868 0.36748755 0.052819934
0001f0 0b f4 af 3d 07 86 86 3e ed d5 71 be 79 67 93 bf
       0.085914694 0.2627413 -0.23616762 -1.1515952
000200 0a 5b 65 3c 57 d1 3b be 9c 9c 9a 3f ee c7 fd 3b
       0.013998756 -0.18341576 1.2079043 0.0077447807
000210 29 f1 3b 3e 1e b6 fc 3e 6a 9f b0 3d bd f9 44 3e
       0.18353714 0.49357694 0.08624156 0.19235893
000220 cf 1f 34 be 26 e1 4c 3b 8f a6 d3 3e 76 b0 d7 bd
       -0.17590259 0.0031262129 0.41338012 -0.10531704
000230 3d 5a 61 3e 20 61 20 bd 88 47 f9 3e 1c 18 e1 3e
       0.2200708 -0.039155126 0.48687387 0.43963706
000240 85 29 59 3e a1 f0 55 3e fb c8 f4 3d 4a 98 76 bf
       0.21207245 0.20892574 0.119523965 -0.96326125
000250 d6 14 bb 3e dd ea 5b 3e 6c 4b 00 bd 73 d2 4d bd
       0.36539334 0.21476312 -0.031321928 -0.05024953
000260 8c 9e 3c 3e 00 25 ac 3e bc e4 b5 3e b5 ab 26 3e
       0.18419856 0.3362198 0.35526073 0.16276439
000270 1c 34 87 3d 08 24 24 bc ef 07 ba 3e 13 a2 5b 3e
       0.06601736 -0.010018356 0.36334178 0.21448545
000280 4f 3f 6b 3e 5f ff 61 3e 93 61 ec be 3c 7c 71 be
       0.22973369 0.22070073 -0.46168193 -0.23582548
000290 31 e6 34 3f 57 17 d5 3d ab 69 dc be a7 46 44 3f
       0.70663744 0.10404842 -0.43049368 0.76670307
0002a0 d5 0f a9 3d ec 63 19 3f 7f 82 9a 3e fe 66 8c 3e
       0.08254973 0.59918094 0.30177686 0.27422327
0002b0 78 36 e6 bd a0 1c 0c 3e 56 52 04 3f 7d b9 c1 3d
       -0.11240858 0.13682795 0.51688135 0.09459207
0002c0 b8 8d 07 3e c3 e5 cc be 1c 6b 60 3e 25 fc 82 3e
       0.13237655 -0.40019044 0.21915859 0.25582996
0002d0 b1 a0 46 3f 2a f7 19 3f 54 fe 90 bd 22 0e 0c 3f
       0.77588946 0.6014277 -0.07079759 0.54709065
0002e0 10 e0 27 3f 6d 96 0b be e6 3e 2f 3d 6d 24 d5 3e
       0.6557627 -0.13631602 0.042784594 0.41629353
0002f0 8a bc 1a 3c cb 8f 0a be b8 e7 81 3f 95 38 0e 3e
       0.009444365 -0.13531415 1.014884 0.13888772
000300 17 e8 ec 3e c9 e0 39 be 28 3d 89 3e d7 61 a0 3e
       0.4627082 -0.18152155 0.2680447 0.31324646
000310 46 88 26 be 6e 9a ec 3e 9f 50 09 3f 45 b5 33 3f
       -0.16262922 0.4621157 0.53638643 0.7019847
000320 c6 d1 96 be 2e 4f 69 bd 22 54 42 be ed fc 35 3e
       -0.2945692 -0.056960277 -0.18977407 0.17772265

unknown_4 f4 [102]
000000 8e d7 f1 bc 99 03 02 3f 82 4b 25 3c 3f 2b c1 3e
       -0.02952173 0.5078674 0.010088803 0.37728307
000010 62 c2 6c bd fe df 83 3e 81 d7 ac 3e 7c 1d 9c 3e
       -0.057802565 0.2575683 0.33758166 0.30491245
000020 e3 e6 ea 3d 34 31 4f be c2 77 eb be f4 e9 5b 3e
       0.114698194 -0.20233613 -0.45989805 0.21475965
000030 4d 3c 3d 3e 96 ca 23 3f 94 dc a4 3e e1 b7 7e 3e
       0.18480034 0.63980997 0.32199538 0.24874832
000040 cb c4 fc 3e b2 b1 8e be 70 b5 07 bd 8b aa 28 be
       0.4936889 -0.27869946 -0.033132017 -0.16471307
000050 1b c3 4d 3f 3b 45 c2 3d 74 89 01 bc 43 5a b4 3e
       0.8037583 0.09485861 -0.007906307 0.35225114
000060 0b c4 b0 3e dd d7 e4 bc 11 83 33 bf e1 6f 8d 3f
       0.3452457 -0.027934963 -0.70121866 1.1049768
000070 b5 41 a4 3c f9 5b 41 3e b9 f8 19 40 88 11 a4 3e
       0.020050863 0.18882741 2.4058058 0.32044625
000080 91 fb 01 3f c1 16 82 3e ac b1 16 bf d2 6a 06 3d
       0.50774485 0.25407985 -0.58864856 0.032816716
000090 b9 d4 ab 3f 15 bc c4 3d 14 44 d0 bd d8 96 71 be
       1.3424293 0.09606186 -0.10169235 -0.23592699
0000a0 2e 15 c5 bd e9 8c 90 bf 5a 69 a2 3e 8b bc f2 3e
       -0.0962318 -1.1293002 0.31721002 0.47409472
0000b0 b9 4b d9 3d a8 94 0e 3d c8 7c 86 3e d5 b7 a8 3e
       0.10610146 0.03480974 0.26267076 0.32952753
0000c0 52 af 89 3b 77 f3 fc bd 0b 0c 32 3e be ce 27 3f
       0.004201808 -0.12351125 0.17387407 0.6554984
0000d0 bf bd 1f bf 40 e1 42 3e 0b 9b 20 3e 25 cc fb 3c
       -0.62398905 0.19031239 0.15684144 0.030736992
0000e0 6e e7 0f be c3 82 ff 3d 07 7a 11 3e 37 cb 6e 3e
       -0.14053127 0.12476113 0.14206706 0.23319708
0000f0 f9 c9 61 3e 56 13 14 3f 57 60 f2 3e 5a 47 e0 3e
       0.22049703 0.57842004 0.47339126 0.43804437
000100 c0 77 43 bf 0a a1 a5 3e 84 d7 64 3f 98 5f 86 3d
       -0.763546 0.32349426 0.8939135 0.06561202
000110 19 11 10 bf f8 7a 12 3f bb 18 b3 3e 9d 9e a6 be
       -0.5627609 0.57218885 0.34979805 -0.32542887
000120 d8 a2 e8 3e 68 db 50 40 77 24 d7 be 30 14 ed bd
       0.4543674 3.2633915 -0.42020008 -0.11576116
000130 a7 a0 2f 3f fb bd b9 be de 10 86 3e 5d f6 34 3e
       0.6860451 -0.36277756 0.26184744 0.17672105
000140 22 4f 48 3e 8d e8 a3 3e 82 36 83 3d af b6 00 bf
       0.19561437 0.3201336 0.06406881 -0.50278753
000150 18 74 3f 3e b4 3e b5 3e 1e 7f 07 bf 39 2e c8 3e
       0.1869663 0.353994 -0.5292834 0.39097765
000160 92 95 ad 3e 94 ca 55 be 4c 25 2a 3e 2d 73 66 3e
       0.33903176 -0.20878059 0.1661579 0.22504874
000170 09 e6 65 3e 8e 93 54 be 62 59 d1 3d 32 83 93 be
       0.22451033 -0.20759413 0.102221265 -0.28811032
000180 77 a2 8a 3e fb 46 f9 3c 37 d9 55 be 98 0a de 3e
       0.27077076 0.030429354 -0.20883642 0.43367457
000190 48 ad 33 bf 6b 25 bb bc
       -0.7018628 -0.02284499

unknown_6 f4 [13]
000000 02 21 3f 40 cb c8 30 40 5e 7e 20 40 37 f8 38 40
       2.9863896 2.7622554 2.5077128 2.8901498
000010 0c 4f 29 40 37 05 34 40 26 a9 40 40 4f 45 40 40
       2.6454496 2.8128183 3.010324 3.0042303
000020 ee 20 2b 40 a6 eb 47 40 51 be 34 40 54 1f 24 40
       2.6738849 3.1237578 2.824116 2.564412
000030 a9 b9 7c be
       -0.24680199

sequential/dense/MatMul;StatefulPartitionedCall/sequential/dense/MatMul f4 [34, 34]
000000 5e ac 63 bf bb c2 19 3d ad 6a 95 bf 04 25 dd bd
       -0.88934886 0.037539225 -1.167318 -0.10798076
000010 25 19 8b 3e f1 c0 77 be 21 20 2e bf 82 9e 83 be
       0.2716762 -0.24194695 -0.68017775 -0.2570687
000020 7d 3a ed be 49 14 44 3e b4 de 90 be aa bb 22 3f
       -0.46333686 0.19148363 -0.2829491 0.635676
000030 03 b7 6e 3f 10 bf b4 be de 1a 7e 3f 77 bb 6a bd
       0.93248004 -0.3530202 0.99259746 -0.057307687
000040 8f 51 ff be d9 f2 0d 3e 84 0c c3 bc 2c ca 51 3e
       -0.49866912 0.1386217 -0.023809679 0.20487279
000050 49 da 1d bf 7a 46 b9 be af 86 35 be ef 25 86 3f
       -0.616612 -0.36186582 -0.17727159 1.0480326
000060 3b 4c 6a be af 69 08 3f 9e 2e 70 bd ad c5 1e 3e
       -0.22880642 0.5328626 -0.058638208 0.15505095
000070 50 33 ef be 46 85 12 bf 6e 29 8a bd 55 62 aa 3d
       -0.46718836 -0.5723461 -0.06746183 0.083195366
000080 02 6e 25 3e 9f 18 d3 3e c9 b1 02 3f 21 ad 0f be
       0.16155246 0.41229722 0.5105253 -0.14030887
000090 7d d2 ab 3e 08 dd dc be 32 f6 2c 3f 77 a1 18 3f
       0.33559027 -0.43137383 0.67563164 0.59621376
0000a0 fa 89 c7 be 76 ee 36 bd 67 99 c4 be 48 cb e9 3e
       -0.38972455 -0.044661008 -0.38398287 0.45662904
0000b0 41 dd a2 be f2 7b 4c 3f 2b 92 af be cc f9 1e be
       -0.31809428 0.79876626 -0.34291205 -0.15524977
0000c0 c9 3c e5 be 62 c2 dd 3e 44 34 3a 3e b9 d6 a1 3e
       -0.44772938 0.43312365 0.18184 0.31609133
0000d0 ee b1 05 3f 98 0d fa 3e 7b b5 7a 3f 3a 40 f5 be
       0.52224624 0.48838496 0.9793317 -0.47900563
0000e0 80 6b 1f be db 7a a5 3d 4c 25 07 bf 38 1f 3c bc
       -0.15568352 0.080800734 -0.52791286 -0.0114820525
0000f0 de 05 16 bf 45 24 0a be 2a d5 14 bf 63 d5 f0 be
       -0.586027 -0.13490398 -0.5813776 -0.470378
000100 84 9b 38 be dd 70 15 be 0c 85 a0 bd a3 0b 5c 3f
       -0.18028075 -0.14593835 -0.07837877 0.85955256
000110 84 36 66 3f ef f7 9f 3e 7b 24 fb 3d b7 cb 25 3f
       0.89926934 0.31243846 0.122628175 0.6476397
000120 a3 76 a6 3d 80 e0 48 3e 23 2e ea bd ba e1 14 b9
       0.08128097 0.1961689 -0.11434581 -0.0001419847
000130 45 0d 3d 3f ad bf 8c be 4c 36 27 be b6 d5 b0 3e
       0.7384837 -0.27489987 -0.16329306 0.34538049
000140 db d4 1b bf b3 04 c2 be 74 e2 c0 3e f0 26 ef 3e
       -0.60871667 -0.3789421 0.3767277 0.46709394
000150 ff bc d3 be 52 ac b2 bf 9d 83 da be 1a 54 08 be
       -0.4135513 -1.3958838 -0.42678538 -0.13313332
000160 24 2e d0 be 15 79 dd bd f3 c0 05 3d 33 34 a7 3c
       -0.40660203 -0.1081411 0.032654714 0.020410633
000170 59 d9 1f 3e 8c 54 a2 bf 62 9e 46 bd cc 1a ea bd
       0.15610255 -1.2682052 -0.04849089 -0.11430892
000180 6a 6d 02 3f 26 6a f4 bd 49 81 d0 3e 5f 87 5c 3f
       0.509482 -0.11934309 0.40723637 0.8614406
000190 94 d4 a7 be 3c d6 20 3e a5 b2 9f 3e f2 7e bb be
       -0.32779372 0.15706724 0.31190982 -0.3662029
0001a0 eb 9b 17 3f 31 d5 0c bf e8 be 95 3d f9 90 62 3c
       0.59222287 -0.55012804 0.07311803 0.0138285095
0001b0 98 f9 4e 3f 48 b6 06 3f b9 b7 ea be 12 7e 89 3e
       0.808496 0.5262189 -0.45843294 0.26853997
0001c0 bd 1f c2 3e 2b f8 10 3f 91 8f 7f bf f7 82 05 3f
       0.3791484 0.56628674 -0.9982844 0.5215296
0001d0 ee 7f f9 3c 6c f9 0e bf 6a ed c6 bd f3 60 40 bf
       0.03045651 -0.5584934 -0.09713252 -0.7514793
0001e0 6b 13 f8 3e db d8 4b 3e 06 43 96 be 64 9d 32 3f
       0.48452315 0.19906943 -0.2934801 0.6977141
0001f0 71 d5 af be 2f a7 f0 be 8b 68 12 bf 89 da 16 3e
       -0.3434253 -0.4700255 -0.5719077 0.14731802
000200 10 c0 e8 3e f4 89 58 bf 87 d1 ea 3d c9 f5 9b 3e
       0.45459032 -0.845855 0.114657454 0.30460957
000210 1f f2 89 3e 01 6b 8e 3d 2e 18 2f bc 54 c9 98 bd
       0.26942536 0.06954003 -0.010686917 -0.07460275
000220 0f c4 ec be 57 89 23 3f cf 18 3a 3e 54 a5 d2 3e
       -0.4624333 0.6388144 0.18173526 0.4114176
000230 f0 37 d0 be 08 57 37 3e 33 b7 5e be f3 75 04 3e
       -0.40667677 0.17904294 -0.21749572 0.12935619
000240 5c f8 3b 3e 45 0e ea be 05 3e b2 3e fd 18 73 be
       0.1835646 -0.45714012 0.34812942 -0.23740001
000250 09 0e ab 3e f1 52 6a be 84 a3 de be c8 64 55 3f
       0.33409145 -0.22883202 -0.43484128 0.83356905
000260 96 f6 8a 3e 6e b6 86 bf d9 ff c5 3e df 8a 42 be
       0.27141255 -1.0524423 0.3867176 -0.18998288
000270 f6 ac cc be ba 45 e8 bd c2 70 73 be 15 94 2c 3e
       -0.3997571 -0.11341424 -0.23773482 0.16853364
000280 41 f9 0e 38 39 be 52 3f a4 73 d2 3e ae 5c 4a bf
       3.4087574e-05 0.82321507 0.41103852 -0.7904767
000290 5f 89 ad 3e 82 bf 7e bf 48 dd b5 be 15 3c 46 bf
       0.33893868 -0.9951097 -0.35520387 -0.7743543
0002a0 87 6e c8 3d ee 66 17 3f 8f 21 02 3f 47 50 42 bf
       0.097867064 0.59141433 0.50832456 -0.75903744
0002b0 f3 aa 9b 3e f4 58 54 be 8a 90 f2 3e 33 e5 59 be
       0.3040386 -0.20737058 0.473759 -0.21278839
0002c0 ac 7f f1 be 11 f0 c5 3e 58 04 14 bf 7c da 85 3b
       -0.47167718 0.3865972 -0.5781913 0.0040848833
0002d0 8c d6 13 3f 8a 60 d4 bd 4f 62 cb 3e a5 fb a0 3e
       0.5774925 -0.10369976 0.3972344 0.3144199
0002e0 92 e5 b0 3d 6e 7c 90 3e 28 93 6b bf 1a a5 4c 3f
       0.08637537 0.28219932 -0.9202142 0.79939425
0002f0 94 a0 77 bb 42 a6 1d 3e d4 c0 2e 3f a7 08 77 3e
       -0.003778492 0.15395454 0.6826298 0.24124394
000300 6b 7e 9c 3d 46 e1 1c bf e2 21 57 3d 47 c6 56 be
       0.076413 -0.6128124 0.052522548 -0.20974074
000310 35 e8 53 3f 40 93 14 bf 89 15 4c be 0c 2b 12 3d
       0.82776195 -0.58037186 -0.1993009 0.035685584
000320 8e d4 2c 3d ff e5 70 bf 46 86 c6 be ed a7 f5 3e
       0.042194895 -0.94100946 -0.38774318 0.4797968
000330 92 72 36 be 71 cb 06 bf 95 50 7b 3e 1c a7 24 3e
       -0.17817143 -0.52654177 0.24542458 0.16079372
000340 1c f1 74 3e 4e 47 bf 3e 3c 14 bd 3f a0 db e0 be
       0.23920101 0.3735909 1.47718 -0.4391756
000350 46 3e 72 3e 1e a3 05 3e 8d a5 bb 3e f9 fc b4 3e
       0.23656568 0.13050506 0.36649743 0.35349253
000360 65 90 02 3f 7c bd 85 3e 64 2d a1 3d 1e 57 8e be
       0.5100158 0.26121128 0.07869986 -0.2780084
000370 ec 73 b5 3d f9 3c 6b bf f0 ff 85 3d 54 77 70 3e
       0.08860001 -0.9188991 0.06542957 0.2348302
000380 61 22 4f 3f bd 5e df 3e a1 95 13 bf 27 90 92 3e
       0.80911833 0.43626967 -0.5765019 0.28625605
000390 f1 37 98 be b7 20 af bd 19 fa 00 bf f0 7e f4 3d
       -0.2973018 -0.08551162 -0.5038162 0.11938274
0003a0 cf 2a 09 be 44 c1 3a 3f 30 3d 98 bc 6d b7 1e 3e
       -0.13395236 0.7295115 -0.018583864 0.15499659
0003b0 70 77 1e bf 47 b1 8e 3d 19 f0 43 3e 39 37 5d 3e
       -0.61901 0.06967407 0.19134559 0.21603097
0003c0 65 6c 2b bf 2f be a6 be ba 03 0c bf 3b 39 0c bf
       -0.6696227 -0.32566974 -0.54693186 -0.54774827
0003d0 ad 53 ca bd e7 51 3d 3d a8 1e da 3e a6 88 8c 3e
       -0.09879241 0.046220686 0.42601514 0.27448004
0003e0 29 fc 02 3e 78 09 9e 3e 84 1d 79 be 68 2e bb bc
       0.12791504 0.308666 -0.24327666 -0.022849277
0003f0 7c 5d 22 be cc e6 f1 3d 9a 2a 20 bf 4e 76 94 bf
       -0.15855974 0.11811599 -0.62565005 -1.1598604

sequential/dense_1/MatMul;StatefulPartitionedCall/sequential/dense_1/MatMul f4 [204, 34]
000000 1f 94 45 be 70 8d 65 3e e8 01 01 40 cc 89 fd bf
       -0.19294785 0.22417235 2.0157413 -1.9807677
000010 17 ed 89 3f 8e 10 9f bf e3 d9 cd be 95 3b 8b be
       1.0775479 -1.2426927 -0.40205297 -0.27193895
000020 e6 22 3e be ff b7 75 3f 92 90 e2 be 5a c8 32 3e
       -0.18568 0.9598388 -0.44250923 0.1745924
000030 f2 ee fe bd 21 2b 94 3e f7 1d 82 be fc 26 35 3f
       -0.12447919 0.28939155 -0.25413486 0.7076261
000040 47 fc 04 bf 2f 16 24 3f b2 6e 4b 3f 21 ab 00 bf
       -0.51947445 0.6409635 0.7946578 -0.5026112
000050 ca 48 88 3f 24 dc 76 3b bd c7 cd be 26 5b b1 bf
       1.0647213 0.0037667835 -0.4019145 -1.3855941
000060 fe 98 af 3c a2 56 39 3d 3b 1c cd bf e7 ae aa be
       0.021435257 0.045248635 -1.602424 -0.33336565
000070 14 83 19 bf b4 85 b6 be dd 61 f8 bf ca 96 c3 3d
       -0.59965634 -0.35648882 -1.9404866 0.09550245
000080 61 61 6b bf 9f c5 b8 3e 87 d5 7b 3f c7 e3 01 3d
       -0.91945463 0.36088273 0.9837269 0.031711366
000090 0f cd 02 3e 73 ce 56 3e 88 fb 56 3f 16 1d 6c bf
       0.12773536 0.20977192 0.83977556 -0.9223188
0000a0 fa 8e b1 bf 7d 09 3a 3f 76 7a d4 be a0 b0 b8 3e
       -1.3871758 0.7267073 -0.4149968 0.36072254
0000b0 4a e6 c5 3f ee 37 da 3e 84 49 2d 3f 98 95 75 bf
       1.5460904 0.42620796 0.676903 -0.95931387
0000c0 66 34 04 3f 62 77 f0 bf 38 2e 73 3f 52 16 cd 3c
       0.51642454 -1.8786433 0.949924 0.025035057
0000d0 53 d4 26 bf 39 fb fc be 74 6d bb 3f 34 55 be bc
       -0.6516773 -0.49410418 1.4642777 -0.023233987
0000e0 4a 4a a1 be 00 c2 33 3f 93 ee 1e bd 4b 14 81 3f
       -0.3150199 0.70217896 -0.03880174 1.0084318
0000f0 51 55 82 3f b4 da f6 3d 46 f8 85 3d 6b 73 1f be
       1.0182287 0.12053433 0.06541495 -0.15571372
000100 bc e6 42 bf 5c e1 f3 3e f0 b8 c0 3f 38 a4 19 3f
       -0.7613332 0.47632873 1.5056438 0.600162
000110 9f 5e 1b 3f 8b 9d 0d bf 23 b6 3d 3f 89 58 22 bf
       0.60691255 -0.55318516 0.74106044 -0.63416344
000120 ff c1 da 3d 2b 92 b5 be a6 93 c7 be e9 89 21 bf
       0.10681533 -0.3546308 -0.38979834 -0.6310106
000130 85 ad 80 3f d6 3f 59 3e 9e 8f a2 bc 33 57 ba bd
       1.0052954 0.21215758 -0.019843873 -0.09098663
000140 9c 1d 8c bf 7a 97 8c 3c cb 46 42 3e 2f 21 ca bf
       -1.0946536 0.017162073 0.18972318 -1.5791377
000150 4d f4 b6 be 4b 0b 4a 3f 50 77 48 be 5a 3b 3b be
       -0.35733262 0.7892348 -0.19576764 -0.1828436
000160 7d 69 23 bf ab 60 00 bf 14 87 a8 3e 51 eb 52 3f
       -0.6383284 -0.50147504 0.32915556 0.82390314
000170 80 e6 ae 3e fd 63 c8 be a0 91 86 3e 85 bb 5c bc
       0.34160233 -0.39138785 0.26282978 -0.0134724425
000180 57 34 0c 3d bc 5c 71 be a7 ce 53 bc 58 06 12 3f
       0.034229603 -0.23570532 -0.012927688 0.5704093
000190 1c 0e 8c be fe 72 8b 3e bf 15 7a be c5 da 50 bf
       -0.27354515 0.2723617 -0.24422358 -0.81583816
0001a0 b5 5f a4 be b3 46 d3 3e bc af 0f bf ad da 2c bf
       -0.3210427 0.41264877 -0.56127524 -0.6752117
0001b0 a1 5c 91 3f 3b c9 19 3f 00 f0 3f bc 7c 39 49 3e
       1.1356393 0.6007268 -0.011714935 0.19650835
0001c0 fe 0c 96 bf 0e 53 35 3f 9e cc 9b be 83 7a 80 3e
       -1.1722715 0.70829856 -0.30429548 0.2509347
0001d0 4f 68 01 be b8 24 a3 3e 4b 9f 31 3f d9 1d 25 bf
       -0.12637447 0.31863952 0.69383687 -0.6449867
0001e0 68 41 9b bf d0 79 88 3d 7b b1 b1 3f 7c bf 93 3f
       -1.2129335 0.06663859 1.3882288 1.1542811
0001f0 eb 35 52 bf a5 4d b9 be 05 57 b8 bf d1 4f 64 3f
       -0.8211352 -0.3619205 -1.4401556 0.8918429
000200 04 76 44 be 37 a6 50 3f dc d2 8c 3f 2e 1f c2 3e
       -0.19185644 0.81503624 1.1001849 0.37914413
000210 21 3d cd be ca d5 dd 3d 53 52 76 bf 77 4f 45 3d
       -0.400857 0.10831793 -0.96219367 0.048171487
000220 14 40 b2 bd 8e 4b 41 3e fa c4 d2 3f df da 99 be
       -0.08703628 0.18876478 1.6466362 -0.30049798
000230 17 71 8d be 8c a6 9d bd 18 e2 98 3e ab c2 76 3f
       -0.27625343 -0.07697782 0.29859996 0.9639079
000240 86 09 05 3f 88 26 3f 3f d8 f7 2b be 85 aa c9 3d
       0.51967657 0.7466817 -0.16793764 0.09846977
000250 76 f5 4e 3e d8 50 62 be c3 30 43 3e ef 83 a3 3d
       0.20210823 -0.22101152 0.1906157 0.07984149
000260 72 f7 ff bd 85 56 fb 3d dc 03 54 3e 31 c0 6e bd
       -0.12498368 0.12272362 0.20704597 -0.058288757
000270 92 1c 6b 3f e1 70 11 3f 37 6c c3 3e f5 42 ce be
       0.9184047 0.56812865 0.381685 -0.4028546
000280 43 4f fa 3f 6a ce 42 be 36 27 9f 3e ab d9 1a 3f
       1.9555439 -0.19024053 0.31084603 0.60488385
000290 86 86 d3 3e fa d7 a4 3e 07 d5 0c 3f 51 5e 80 bf
       0.4131357 0.32196027 0.55012554 -1.0028783
0002a0 ed ae 2b 3f e6 e8 84 be 08 ab ad 3e 72 a7 c4 3b
       0.6706379 -0.25958937 0.3391955 0.0060014063
0002b0 00 9c 1a 3f 2d 4f 4e 3e fe 4b ca bd 1f 70 0b c0
       0.6039429 0.2014739 -0.098777756 -2.1787183
0002c0 90 45 ce bc ee 33 c7 3e 7f 51 a8 be 32 40 44 3f
       -0.025179654 0.38906807 -0.32874677 0.76660454
0002d0 75 9c 5c 3f b5 97 b3 be 1d f1 7b bd b9 76 af 3f
       0.86176234 -0.3507668 -0.06150924 1.3708106
0002e0 02 f5 b1 3e 18 b3 3d be d9 41 89 be 79 8e c8 bd
       0.3475724 -0.1852535 -0.2680805 -0.097927995
0002f0 e6 62 1b 3e fc 77 25 3e 5f 86 e0 bf dc 59 80 bf
       0.15174446 0.16159052 -1.7541007 -1.0027423
000300 12 c3 be be e5 8e da 3d a5 25 db be c1 8f fd bd
       -0.37258202 0.10671786 -0.42802158 -0.123809345
000310 f9 79 81 be 98 58 14 bd bc 64 ae bf 28 04 0c bf
       -0.2528837 -0.036217302 -1.3624492 -0.5469384
000320 49 a5 a0 bf 34 04 8a 3f 80 f2 ae 3e 7d f1 a2 3d
       -1.2550441 1.0782533 0.34169388 0.079562165
000330 6b a0 44 bf b6 45 98 bf 4b b2 9f 3f 2e e3 95 bd
       -0.7680728 -1.1896274 1.2476286 -0.07318722
000340 78 96 18 bc a7 5a 0d bf 40 3d de 3e c7 1f 01 3f
       -0.009313218 -0.5521645 0.43406105 0.50439113
000350 75 1a 5a 3f 9f e4 b4 bf f3 eb ca be a5 00 c2 3d
       0.8519662 -1.413227 -0.3963314 0.09472779
000360 97 83 da be f7 c9 a0 3f 73 05 08 3f 38 24 97 be
       -0.4267852 1.2561635 0.53133315 -0.2951982
000370 c2 10 1d 3d db de 9b 3f c2 57 3d bf e3 bf dc bf
       0.03834606 1.2177385 -0.7396203 -1.7246059
000380 46 43 5e 3f 78 34 b0 be d3 0f 29 be 63 5c d0 3f
       0.868214 -0.3441503 -0.16509943 1.6278194
000390 e7 2d f8 3e 62 4f ad bc ee 23 e6 bf c8 39 b8 3e
       0.4847252 -0.021156017 -1.7979715 0.35981584
0003a0 fa 31 15 be 8f 23 8e 3f 91 55 46 3d b6 79 b8 3f
       -0.14569846 1.1104602 0.048421446 1.4412143
0003b0 66 8e 00 bd d9 bc 78 3d b1 c4 97 bf b8 8c fe 3e
       -0.0313858 0.060726974 -1.18569 0.49716735
0003c0 04 83 1c 3f 01 c6 3a 3c 75 9f f4 be 8a 72 47 bf
       0.61137414 0.011399747 -0.47777906 -0.7790915
0003d0 16 a2 9b 3e d7 64 29 3f 67 6f 78 3f 6a 00 01 3f
       0.303971 0.66169494 0.97044986 0.50391257
0003e0 bb 21 8c 3f 86 d9 9f bf d6 f3 d2 be 73 f3 e1 bf
       1.0947794 -1.2488258 -0.41201657 -1.765242
0003f0 f7 8d 31 bf 51 55 55 bf 42 91 d7 be 60 9c 9c 3f
       -0.69357246 -0.8333331 -0.4210301 1.2235222

sequential/dense_2/MatMul;StatefulPartitionedCall/sequential/dense_2/MatMul f4 [102, 204]
000000 ff cc 82 3e 66 0c 9c 3f 66 8d 47 bf 84 8c 0f bf
       0.25547025 1.2191284 -0.7795013 -0.56073785
000010 de ef 04 bf 7e 4b a8 bf bb b1 24 3e 29 b8 41 bd
       -0.5192851 -1.3148038 0.16083424 -0.04729477
000020 44 58 42 be c0 a2 b2 3e 0e 85 76 3d c6 dc af be
       -0.18978983 0.34889793 0.060185485 -0.34348124
000030 c2 a7 a7 3e 23 e3 ca 3d f8 14 18 bf a7 0a 2e bf
       0.32745177 0.09906604 -0.59406996 -0.67985004
000040 62 14 ff be 7c 8b 15 3f 70 00 a4 3f 2f 3e b6 3f
       -0.49820238 0.5841596 1.2812634 1.4237727
000050 c7 0a 39 bf 32 d3 15 3f fd c0 26 3f 88 5f 83 be
       -0.7228207 0.58525383 0.65138227 -0.25658822
000060 93 71 ad be 5e ee 33 3f 82 8a 31 be 49 ab 0d 3f
       -0.33875713 0.70285594 -0.17337993 0.55339485
000070 8a 34 25 3e 11 56 79 bf 5e ae fd 3e 93 2b 87 3f
       0.16133323 -0.9739695 0.49547094 1.0560173
000080 26 38 7f 3f d3 2d 79 3f 4b bf 95 bf 4a d1 a7 bf
       0.9969505 0.9733555 -1.1699003 -1.3110745
000090 23 17 24 3f 5e 15 6c bf 9d cb 14 bf f9 df a1 3f
       0.64097804 -0.92220104 -0.5812319 1.2646476
0000a0 43 0f 82 3f 21 15 11 bf 59 44 a3 3f 33 07 69 3e
       1.0160908 -0.56672865 1.2755233 0.22756653
0000b0 f8 4f 13 3e 09 11 d8 bf ef 06 8f 3c 8a 60 8f 3e
       0.14385974 -1.6880199 0.01745936 0.2800334
0000c0 10 02 2c be 8f 73 8f bd 89 3d 75 3f fd 27 db 3e
       -0.16797662 -0.07004463 0.9579702 0.42803946
0000d0 2a 15 fe be d5 8b 99 be 2e ec d0 3e bc 5e b8 3e
       -0.49625522 -0.29989496 0.4080519 0.36009777
0000e0 ca 7f 92 bd 05 20 51 3f 99 23 a1 3e e8 68 aa 3e
       -0.0715328 0.8168948 0.3147247 0.33283162
0000f0 4d 1d 85 bf 81 d0 2d bf af 7b 19 bd b4 77 dd 3f
       -1.0399567 -0.67896277 -0.03747147 1.7302155
000100 f8 bb 68 3d 08 8b cd 3e 5e 2b 05 be e0 ad 22 3e
       0.056819886 0.40145135 -0.13004825 0.1588664
000110 02 19 b7 bf 54 d9 cb bd c8 17 87 be d8 59 36 bf
       -1.4304507 -0.099535614 -0.2638533 -0.7123084
000120 aa 71 94 3f ed c7 18 3f 39 24 4e bf 1a 62 10 3f
       1.1597188 0.5968006 -0.8052402 0.5639969
000130 15 93 33 bf bf 14 ce be f0 01 1b 3f a4 0b 15 3d
       -0.70146304 -0.40250203 0.6054983 0.036388054
000140 03 91 d7 3f d3 f8 6a be 24 d8 98 bd 2a e7 75 3f
       1.6841129 -0.22946481 -0.074631006 0.96055853
000150 ea 46 69 bf cb fa 9e 3e f1 31 92 bf 8c 10 1a 3f
       -0.9112383 0.31050715 -1.1421491 0.601815
000160 b9 de 80 be 72 1e 68 3d e3 59 79 3f d6 67 f9 bd
       -0.25169924 0.05666966 0.9740278 -0.12178008
000170 45 c4 64 bf 79 f9 9f be 56 5f b6 3f 77 84 d6 3e
       -0.89361984 -0.3124502 1.4247844 0.41897938
000180 66 a5 7d 3e 32 5f d4 be 93 30 0f bc eb 02 c7 3e
       0.24770126 -0.41478878 -0.008739608 0.38869414
000190 41 8b 1e bf 1d 06 54 3f 28 6f 95 be 4e 51 92 3e
       -0.61931235 0.8282183 -0.29186368 0.28577656
0001a0 83 b7 56 3f 26 63 8d 3e 6a b4 a3 bf 61 49 53 bd
       0.83873767 0.27614707 -1.2789433 -0.05158365
0001b0 ee 97 97 bf f7 42 00 be 34 44 81 3f 5c 52 ca 3e
       -1.184324 -0.12525545 1.0098939 0.3951596
0001c0 0a e7 78 bf 01 07 49 3f 9d fb 7d 3e 0a 6c 80 3f
       -0.9722754 0.7852631 0.24803014 1.0032971
0001d0 b6 bf a6 3e 48 29 d3 3e 3a 3b 6a 3e ff fa 4f bf
       0.3256814 0.41242433 0.22874156 -0.81242365
0001e0 bf c5 0a 3f d6 19 94 bf 5b 13 5c be 05 17 44 bf
       0.54207987 -1.1570385 -0.21491759 -0.76597625
0001f0 b7 15 86 bf dd 6d 24 bf b4 3d 24 3f b9 98 91 3f
       -1.0475377 -0.6423014 0.6415665 1.1374732
000200 14 aa 80 3f 18 e3 6b 3e e1 f0 bb be 9b 2e 70 bf
       1.0051904 0.23035848 -0.36707214 -0.93821114
000210 5c a0 02 bd 56 e4 c1 3f 0e 3f cd 3e 4c 88 37 bf
       -0.031891212 1.5147808 0.4008717 -0.7169235
000220 b6 a7 e2 3d 0a 75 09 bd 3f 66 a5 be 36 b0 49 3d
       0.110671446 -0.033558883 -0.3230457 0.049240313
000230 a6 c6 74 be c0 11 fb 3e 99 38 db be 2d 91 3d be
       -0.23903903 0.4903698 -0.42816618 -0.18512411
000240 3e 86 55 3f e6 0a fe bf d6 5f 5b 3f c5 e3 74 bd
       0.8340796 -1.9847076 0.8569311 -0.05978753
000250 cb bf 1b bf 8a 2c c7 bf c9 b3 a3 3e a9 da c2 3e
       -0.6083953 -1.5560467 0.31973103 0.3805745
000260 41 53 10 bf 4c f7 86 be 73 5c 5a 3e f2 da 1d 3f
       -0.56377035 -0.26360548 0.21324329 0.6166221
000270 b8 65 10 3e 93 60 cb be 66 78 e2 be 42 67 38 bf
       0.14101303 -0.39722118 -0.44232482 -0.7203256
000280 3b 6f b8 3f 29 83 60 bf a8 25 15 bf 02 ce 17 bf
       1.4408945 -0.87700135 -0.58260584 -0.5929872
000290 9c 6c 7b be a7 28 16 3d da e1 bc 3e 60 06 d0 3e
       -0.2455315 0.036659863 0.3689106 0.40629864
0002a0 e7 c9 64 bf be 85 3b be c2 df f4 be 53 0e f6 3c
       -0.8937058 -0.18312737 -0.47826964 0.030036127
0002b0 01 d9 7e 3f 82 13 a9 3f 0f 5c 4c 3f dd f8 19 bf
       0.9954987 1.3209078 0.7982797 -0.6014536
0002c0 f8 5f 6a 3d 84 5f 23 3f 5a 66 a3 be 07 5c 7b 3f
       0.05722043 0.6381762 -0.31914026 0.981873
0002d0 e8 bd ab 3e 41 30 8a be 5b 19 b0 bf 80 16 85 be
       0.33543324 -0.2698994 -1.3757738 -0.2599373
0002e0 0f 12 96 bf 55 58 ae be 80 ae 5f 3f 79 83 73 bf
       -1.1724261 -0.34051767 0.8737564 -0.95122486
0002f0 a5 07 fc 3e 76 28 92 3f 44 25 65 bf a4 4c a1 be
       0.49224582 1.1418598 -0.8950999 -0.31503785
000300 e1 fb 9f bf 56 b0 00 c0 51 a1 cc 3e 61 d7 1a be
       -1.2498742 -2.0107627 0.39966825 -0.15121223
000310 cb 7c 50 3e 12 49 bd be d9 a3 6d 3f 1b a5 b5 3e
       0.20360105 -0.3696981 0.92828137 0.35477528
000320 14 a0 11 bf 8a c0 bc 3e 4f da 84 3f 33 b9 41 3f
       -0.56884885 0.36865646 1.0379122 0.75673217
000330 2d 0c ac 3d 02 5f ae bf bf 1a 77 be 95 0d 98 3f
       0.0840076 -1.3622744 -0.24131297 1.1879145
000340 a5 e9 e2 3e 30 47 14 3f bd 67 06 3e 9b b7 58 bf
       0.44318882 0.57921124 0.1312551 -0.8465516
000350 ec 0e f5 bc 87 24 8c 3e 80 b0 5a 3c f1 b6 9c bd
       -0.029914342 0.27371618 0.013347745 -0.07652081
000360 28 1b 94 bf 1e b2 04 bf 3e fc 5b 3e fd bf 13 3f
       -1.1570787 -0.51834285 0.21482942 0.57714826
000370 bc 19 82 bd 9f cf 49 bf 50 41 13 be ff 9a 16 bf
       -0.06352565 -0.7883243 -0.14380383 -0.58830255
000380 2c ac b3 3e 33 ea c4 bf c2 8c 7b be fd 05 15 bf
       0.35092294 -1.5383972 -0.24565414 -0.5821226
000390 65 af 0c 3e 54 e4 48 be 57 34 0c 3f 66 c2 f8 be
       0.13738783 -0.1961835 0.54767364 -0.48585814
0003a0 43 af 85 3e f0 5e 5c 3e 99 58 51 bf 54 3a 91 bf
       0.26110277 0.21520591 -0.81775814 -1.1345925
0003b0 47 c9 90 3f 18 af b2 bf ca 74 36 3e 34 d6 e4 3e
       1.1311425 -1.3959684 0.17817989 0.44694674
0003c0 ee ff 5b 3f 8c 81 d1 3e ee 48 a9 3e 58 64 29 be
       0.8593739 0.4091915 0.33063453 -0.16542184
0003d0 04 bf 01 bf 61 b2 06 3f b1 4b e8 3e 5b 2b 02 3f
       -0.5068209 0.52615935 0.45370248 0.50847405
0003e0 18 f1 ac bf 75 0e 43 bf 55 f9 82 3d 43 ee c3 3f
       -1.3511076 -0.76193935 0.063952126 1.5307087
0003f0 e0 31 dc 3d cd 83 b6 3e a9 3d 6c be b8 2f 14 bf
       0.107517004 0.3564743 -0.23070396 -0.57885313

sequential/dense_3/MatMul;StatefulPartitionedCall/sequential/dense_3/MatMul f4 [13, 102]
000000 fb dd 9a 40 fa df 2d 40 53 f5 59 40 8a 6c 2f 40
       4.839597 2.7167954 3.4055984 2.7409997
000010 61 0e ae 40 3d c1 54 40 2e 6b 97 40 21 21 96 40
       5.439255 3.3242943 4.7318335 4.691544
000020 c1 6d 4c 40 ed 54 4b 40 e2 3e c7 40 a9 fb 8c 40
       3.1941988 3.1770585 6.226426 4.40572
000030 55 ff 9e 40 94 65 a8 40 7b b4 01 40 8c 44 2b 40
       4.9686685 5.2623997 2.0266407 2.6760588
000040 bd 85 ab 40 aa a3 a9 40 75 f7 a8 40 53 95 da 40
       5.3600755 5.3012285 5.280207 6.830728
000050 a1 1f 74 40 96 94 6e 40 f6 08 80 40 cc 59 28 40
       3.8144305 3.727819 4.001094 2.6304808
000060 22 37 92 40 41 eb a4 40 dc e2 8e 40 60 c0 28 40
       4.56923 5.1537175 4.465193 2.6367416
000070 f8 6c 90 40 04 da 58 40 36 a8 01 40 4a 75 a0 40
       4.513302 3.3883066 2.0258918 5.0143175
000080 9c c6 44 40 2b 3a 5c 40 a0 e2 ad 40 58 fb b9 40
       3.0746222 3.4410503 5.433914 5.8119316
000090 95 a1 39 40 91 01 09 41 53 c1 77 40 f8 4e 6e 40
       2.9004872 8.562882 3.8711746 3.7235699
0000a0 7f 19 a8 40 e2 6e a3 40 50 75 85 40 71 a0 55 40
       5.2531123 5.1072855 4.1705704 3.3379176
0000b0 97 f5 72 3f d2 8b 60 40 47 04 98 40 e0 25 a3 40
       0.9490599 3.508534 4.750522 5.0983734
0000c0 fd e1 ee 3e 64 9b 9b 40 30 24 e7 3d ec 1e 3b 40
       0.4665679 4.8627186 0.11286199 2.9237623
0000d0 e9 a3 c4 40 6f b2 45 40 14 a4 b4 40 e4 a6 2a 40
       6.1450086 3.0890157 5.645029 2.6664362
0000e0 15 a4 8e 40 a7 ec 04 40 ae ca 66 40 cb df a5 40
       4.4575295 2.076944 3.6061206 5.1835685
0000f0 a8 59 bd 40 11 d2 05 40 a1 0b 65 40 1b 75 39 40
       5.9171944 2.0909464 3.5788348 2.8977726
000100 74 d0 fa 40 4c 3e b8 40 55 26 58 40 4f 6a 2d 40
       7.837946 5.7576046 3.3773396 2.7096136
000110 59 15 96 40 70 e1 96 40 5f 28 dd 40 0e d5 95 40
       4.690106 4.715019 6.911178 4.6822577
000120 c4 b6 93 40 ea 56 2a 40 5d 59 8a 40 18 a4 b8 40
       4.6160603 2.6615548 4.3234086 5.770031
000130 61 6d 5f 40 7f ff 30 40 6f fe a5 40 13 e7 94 40
       3.491051 2.7655942 5.187309 4.6532073
000140 37 23 62 3f 30 fd 69 40 bf fb 1e 40 2b 6a ca 40
       0.88334984 3.6560783 2.4841154 6.32546
000150 7a 26 d1 40 10 44 c9 40 a2 57 cd 40 da 97 97 40
       6.535947 6.2895584 6.4169474 4.7372866
000160 f3 b1 48 40 09 9e ab 40 89 a4 cb 40 50 e8 69 40
       3.1358612 5.3630414 6.363835 3.6548042
000170 a1 12 c2 40 67 e6 b5 40 44 bb 89 40 5d d4 d7 40
       6.064774 5.6843753 4.3041096 6.7446733
000180 9d d9 ae 40 85 5e 9b 40 88 4e 83 40 c0 be 71 40
       5.464064 4.855288 4.1033363 3.7772675
000190 75 0d ef 40 68 3d 4c 40 e4 3c ae 40 25 fc 30 40
       7.4703927 3.191248 5.444933 2.7653897
0001a0 a0 16 41 40 dc 96 15 40 b1 81 07 40 19 13 25 40
       3.017006 2.3373327 2.1172907 2.5792906
0001b0 13 9f b4 3f 46 bf 3c 40 0b f3 98 40 91 65 46 40
       1.4111046 2.9491744 4.7796683 3.0999491
0001c0 f7 73 f3 40 f4 5a 98 40 a4 6a 9b 40 b7 35 e0 40
       7.607906 4.7611027 4.8567677 7.006557
0001d0 0b 36 3b 40 ee f0 72 40 28 c7 a3 40 36 a7 75 40
       2.9251735 3.7959552 5.118061 3.8383307
0001e0 22 34 19 40 08 a8 bd 40 1a 70 5d 40 cc 31 80 40
       2.393807 5.9267616 3.4599671 4.0060787
0001f0 81 e5 3e 40 a2 00 41 40 bf 2b 91 40 87 9d 15 40
       2.9827578 3.0156636 4.53659 2.3377397
000200 6c 72 9e 40 c7 16 18 40 ee 34 91 40 44 b8 53 40
       4.9514675 2.3763902 4.537711 3.3081217
000210 b9 c1 3c 40 c2 06 a8 3f 8d 36 2c 40 17 90 56 40
       2.949324 1.3127062 2.6908295 3.3525445
000220 1d 11 9c 40 c7 f9 8f 40 25 06 3b 40 4a bd 97 40
       4.877089 4.4992404 2.92225 4.7418566
000230 8b a1 ac 3f f5 b7 3b 40 f7 3e 9e 40 ae 6e 8b 40
       1.3486799 2.9331028 4.945186 4.3572607
000240 f5 32 67 40 2e 57 6e 40 3d 37 95 3d c2 00 77 40
       3.6124852 3.724071 0.072859265 3.8594213
000250 9a 0b 4f 40 c1 21 e3 3f d3 c1 65 40 6e da 97 40
       3.235083 1.7744676 3.589955 4.745414
000260 91 08 64 40 c6 8c 69 40 27 dd ac 3b b1 75 35 40
       3.5630229 3.6492171 0.005275387 2.8353083
000270 6a f1 87 40 b1 80 62 40 f3 6f 78 40 db ae 17 3f
       4.2482195 3.5391047 3.8818328 0.59251183
000280 58 c6 52 40 ec 46 be 3f b5 2a 81 40 6c c8 66 40
       3.293356 1.4865394 4.0364633 3.6059828
000290 e1 dc 11 40 3a ee 66 3f 5a d5 8f 40 42 64 6d 40
       2.2791064 0.90207255 4.494794 3.7092443
0002a0 ad 71 fb 3f ff 0e dc 3f 2d d8 73 40 d9 bf 5d 40
       1.9644066 1.7192076 3.8100693 3.4648345
0002b0 13 e7 99 40 b5 14 fa 3f 9f 02 11 40 db c8 28 40
       4.8094573 1.9537569 2.265785 2.6372592
0002c0 ec 60 bd be 42 d5 83 40 d7 a5 94 40 6a 33 86 40
       -0.36988008 4.1197824 4.645244 4.193776
0002d0 c7 90 c2 3f 4e da 56 40 44 75 63 40 a3 91 3b 40
       1.5200433 3.3570743 3.5540323 2.930764
0002e0 64 04 61 40 4d c4 85 40 3f 46 70 40 d1 6f 91 40
       3.515893 4.1802125 3.7542875 4.5448995
0002f0 30 97 99 40 f8 65 5b 3e 16 2a ea 3f 38 5f 27 40
       4.7997055 0.21425617 1.8294094 2.6151867
000300 6f 83 98 40 bd e2 bf 3f db f2 33 40 ba 29 70 40
       4.766044 1.499107 2.8116977 3.7525468
000310 1f ed 8d 40 38 58 eb 3f ee 1a 94 3f 86 b8 6c 3f
       4.4351954 1.8386297 1.1570718 0.9246906
000320 8a 69 aa 3e f9 ec bd 3f 21 40 ed 40 90 fa 47 40
       0.33283645 1.4837943 7.414078 3.1246681
000330 0b ea 34 40 d8 29 85 40 fd d7 0a 40 9d c8 04 40
       2.8267848 4.161358 2.1694329 2.0747445
000340 23 a4 34 40 48 2f 03 40 45 15 7d 40 5f 27 81 40
       2.822518 2.0497608 3.9544232 4.036056
000350 78 a8 1a 40 9e 70 38 40 59 d2 46 40 c7 94 59 40
       2.4165325 2.8818736 3.1065886 3.3997056
000360 a7 f5 2a 40 e8 76 48 40 9b 5c 2f 3e cc 4c da 3f
       2.6712434 3.1322575 0.1712517 1.7054687
000370 8f fc 97 40 75 9b 17 40 72 22 86 40 66 dc a3 40
       4.74958 2.3688633 4.1917048 5.120654
000380 8d 69 51 40 29 25 b5 3f ba 3b 1f 40 91 5d 78 40
       3.2720673 1.4151965 2.4880204 3.8807108
000390 eb 80 17 40 bc 03 21 40 6d 05 67 40 ea 22 46 40
       2.3672435 2.515853 3.6097062 3.095881
0003a0 8a 8c 8f 40 a8 aa 38 3f ea 02 46 40 7d 5e f6 3f
       4.4859056 0.721354 3.0939279 1.9247586
0003b0 0f 18 5d 40 ea ab 84 40 b8 2d 09 40 d6 fe 30 3f
       3.4545934 4.1459856 2.1434155 0.6913885
0003c0 ea 12 51 40 69 ee 42 40 88 b5 2d 40 69 8d 80 40
       3.2667794 3.0458014 2.7142048 4.017262
0003d0 74 6f 85 40 d7 2e 6f 40 b7 19 7b 3f d7 37 25 40
       4.169855 3.7372339 0.9808611 2.5815332
0003e0 f7 78 50 40 48 35 a7 40 e8 0f 49 40 14 6c 28 40
       3.257383 5.225254 3.1415958 2.6315966
0003f0 ce 56 62 40 77 4b 54 3f 90 62 bb 3f 4a 96 ec 3f
       3.5365481 0.8292765 1.4639454 1.8483365
