android/src/main/ml/feedback_model.tflite (tflite, 124272 bytes, 8 tensors)

dense_3/bias f4 [13]
-0.4945876 0.010081783 -0.028213771 -0.1602035 -0.20936283 -1.166716 -0.113861874 -0.10726709
-0.40637362 -0.0018912529 -0.09858297 -0.33404598 -0.9601323
00000000: 963a fdbe 102e 253c 9120 e7bc 630c 24be
00000010: 3663 56be f356 95bf 6a30 e9bd d9ae dbbd
00000020: 3410 d0be ebe3 f7ba dee5 c9bd 1308 abbe
00000030: 3bcb 75bf

dense_2/bias f4 [102]
0.02763896 -0.06373254 -0.18775281 0.23251395 -0.10140147 0.042997245 -0.14923511 0.27811742
0.13006672 0.14674169 0.17996785 0.37077007 -0.1382326 -0.0051164017 0.11005096 -0.019936355
0.07183191 -0.20581572 -0.14739215 -0.20883903 -0.26496026 -0.15144025 0.1443744 -0.13752757
-0.038558826 0.22394556 0.10479705 -0.08541873 0.18525568 0.3558093 0.2153309 0.0015603129
-0.16980585 -0.21434945 0.0010707953 -0.11450099 -0.15237804 0.11141303 -0.21748994 0.0048887418
-0.22882344 -0.11460145 0.13625142 0.108306505 -0.03313789 -0.06736581 0.30085015 0.17019583
-0.22239704 -0.16324069 -0.0005920351 -0.2843045 -0.25259638 0.16872284 0.14208204 -0.067757234
0.0137811145 -0.21023233 -0.07043789 0.084484376 0.03134832 0.13451302 0.36269733 0.13563089
-0.023042703 0.1360079 -0.1961873 0.06950317 -0.005984458 -0.16173871 0.36093578 -0.031215409
0.04421736 -0.25008306 -0.33286896 -0.15125734 -0.017048622 0.08066165 -0.2535216 0.055737447
-0.03193882 -0.17081363 0.05698649 -0.17851883 -0.108849145 -0.2855874 -0.1014912 0.008917075
-0.013729738 0.05703866 0.030490553 0.119368516 -0.20737852 -0.08421463 0.148653 0.0971925
-0.01634613 -0.093296565 -0.19478515 -0.19396678 -0.16802263 0.029953139
00000000: 1a6b e23c 3586 82bd 4642 40be 2318 6e3e
00000010: 93ab cfbd e11d 303d 17d1 18be 6865 8e3e
00000020: 3630 053e 7443 163e 7e49 383e 93d5 bd3e
00000030: d98c 0dbe 7da7 a7bb 6662 e13d 9151 a3bc
00000040: 9c1c 933d 5bc1 52be f8ed 16be e6d9 55be
00000050: dfa8 87be 2713 1bbe e2d6 133e 07d4 0cbe
00000060: dcef 1dbd fc51 653e d69f d63d 04f0 aebd
00000070: aab3 3d3e a32c b63e b47f 5c3e 6a83 cc3a
00000080: 96e1 2dbe 6c7e 5bbe ee59 8c3a 7f7f eabd
00000090: fd08 1cbe 842c e43d afb5 5ebe bd31 a03b
000000a0: b150 6abe 2ab4 eabd 7e85 0b3e cdcf dd3d
000000b0: 99bb 07bd 16f7 89bd 0809 9a3e d147 2e3e
000000c0: 0dbc 63be 9128 27be ce32 1bba 5c90 91be
000000d0: 5054 81be aec5 2c3e f47d 113e 4ec4 8abd
000000e0: 2fca 613c 2547 57be be41 90bd 2506 ad3d
000000f0: 1967 003d c8bd 093e 77b3 b93e d3e2 0a3e
00000100: 0dc4 bcbc a845 0b3e 53e5 48be ae57 8e3d
00000110: 4619 c4bb d59e 25be 93cc b83e 75b7 ffbc
00000120: 431d 353d e30a 80be cd6d aabe 34e3 1abe
00000130: 8da9 8bbc ef31 a53d 95cd 81be f34c 643d
00000140: 48d2 02bd c5e9 2ebe aa6a 693d a4cd 36be
00000150: 4dec debd 8338 92be 9eda cfbd ec18 123c
00000160: b2f2 60bc 5fa1 693d 53c7 f93c 7b77 f43d
00000170: 095b 54be b878 acbd 7e38 183e dd0c c73d
00000180: 52e8 85bc 4512 bfbd c275 47be 3a9f 46be
00000190: 200e 2cbe 4960 f53c

dense_1/bias f4 [204]
-0.00084923126 0.32463253 0.18222201 -0.04995613 -0.025136426 -0.14595753 -0.005309334 0.2012389
0.32344607 0.06197094 -0.03545953 0.13765521 0.3045805 -0.13263698 -0.08782139 0.09967388
0.1463373 0.091491126 -0.051618278 -0.21273856 -0.022276716 -0.017020538 -0.11578958 0.06030343
0.21870376 0.057330508 0.476203 0.10774485 0.2568772 0.012825444 0.20363197 0.26957327
0.4433231 -0.16750439 0.2714345 0.077925034 0.26253352 0.04613478 0.053261053 0.21744408
0.11857308 0.34989846 0.17757007 0.052515816 0.053115968 -0.058782402 0.115788005 0.1579539
0.15758726 -0.082313 0.20094495 0.052638236 0.11112439 0.41084135 0.20610444 -0.1951194
0.31711754 -0.29023618 0.17811796 -0.09518849 0.27802253 -0.07301774 0.1542432 -0.050522946
0.1461531 0.20581043 -0.109892085 0.10624475 0.17119937 0.18254055 0.11417805 0.059254546
0.24872664 0.12656203 0.1914163 0.22595076 0.39654073 0.027421284 0.39746103 0.38550663
0.03007256 0.1599283 0.05190002 0.020277388 0.06561076 -0.043373026 0.34557742 0.4571151
0.14984518 0.10271616 0.43350333 0.19045243 0.18407759 0.047793973 0.030407155 -0.069943786
0.23183446 0.0967969 0.044805273 0.02511221 0.23107964 0.16901156 -0.055629626 0.22766805
-0.1718546 0.2522237 0.121946186 0.05135324 -0.2263829 0.052601337 0.04812715 0.21201965
-0.33612895 0.2541503 0.22519594 0.0017915322 -0.11744201 0.1379168 -0.2387159 0.3088729
-0.16336377 0.14296322 -0.115839705 0.2587849 0.23914236 0.17436174 0.040052664 0.33165437
-0.31970426 -0.08335089 0.19269873 -0.32916996 0.03281022 0.23140413 0.2776 0.18130751
0.03425367 -0.12732473 0.21543258 0.5987623 -0.1062411 -0.05494593 -0.076114684 -0.011667611
-0.34598154 0.08729054 0.46247733 0.031572297 -0.29278314 -0.045421254 0.14052059 0.040322658
0.07798791 0.080638416 0.20516425 0.15973465 -0.1490298 0.117078625 0.5881645 0.20403728
0.031747684 0.22149552 0.14097755 0.17906626 0.09484036 0.064258344 0.17079422 0.38839376
0.017118309 -0.0031562182 0.4894472 0.18103617 0.06344116 0.26564917 0.1411345 -0.10817276
0.027187584 0.17388284 0.16125585 0.20991482 0.009299932 0.32978672 0.027859151 0.08977828
0.46286643 0.11580828 -0.029162262 0.017346758 0.03447952 -0.0913326 -0.15781616 0.216974
0.10850453 0.13072173 0.15729742 -0.060971722 0.16069417 0.069760285 0.37365752 0.27913898
0.3053815 -0.24346678 0.25195467 0.1763789
00000000: f29e 5eba 3c36 a63e 6898 3a3e cd9e 4cbd
00000010: e8ea cdbc e475 15be ecf9 adbb 9211 4e3e
00000020: b99a a53e 3ed5 7d3d 033e 11bd 7df5 0c3e
00000030: faf1 9b3e fdd1 07be b3db b3bd d221 cc3d
00000040: 72d9 153e b35f bb3d b06d 53bd 23d8 59be
00000050: a97d b6bc a86e 8bbc 1623 edbd bb00 773d
00000060: e1f3 5f3e 65d3 6a3d e1d0 f33e 55a9 dc3d
00000070: 6985 833e d021 523c e684 503e 8205 8a3e
00000080: 3ffb e23e 4586 2bbe 76f9 8a3e 2997 9f3d
00000090: cb6a 863e d3f7 3c3d 4328 5a3d a9a9 5e3e
000000a0: 71d6 f23d e425 b33e eed4 353e d31a 573d
000000b0: 2190 593d d1c5 70bd 4322 ed3d abbe 213e
000000c0: 8e5e 213e b893 a8bd 83c4 4d3e 319b 573d
000000d0: 2f95 e33d cc59 d23e 0b0d 533e 61cd 47be
000000e0: 3b5d a23e d699 94be 8e64 363e 2ff2 c2bd
000000f0: f858 8e3e 538a 95bd eef1 1d3e 26f1 4ebd
00000100: 29a9 153e f8bf 523e 1a0f e1bd d996 d93d
00000110: e34e 2f3e e9eb 3a3e 2ed6 e93d e5b4 723d
00000120: 32b2 7e3e 7a99 013e a202 443e a35f 673e
00000130: 6307 cb3e 9aa2 e03c 0380 cb3e 2061 c53e
00000140: bb5a f63c 3fc4 233e 1e95 543d c41c a63c
00000150: ef5e 863d eaa7 31bd 86ef b03e fe0a ea3e
00000160: 0471 193e da5c d23d 26f4 dd3e f605 433e
00000170: d67e 3c3e 9dc3 433d 6d18 f93c b03e 8fbd
00000180: 0366 6d3e 743d c63d bc85 373d 1fb8 cd3c
00000190: 24a0 6c3e 5e11 2d3e e4db 63bd d021 693e
000001a0: a7fa 2fbe 7723 813e ecbe f93d c657 523d
000001b0: ebd0 67be 8074 573d f920 453d ae1b 593e
000001c0: 1819 acbe fd1f 823e c499 663e d8d1 ea3a
000001d0: 7085 f0bd 103a 0d3e f171 74be 9724 9e3e
000001e0: d548 27be f364 123e 5e3d edbd 747f 843e
000001f0: bce1 743e e28b 323e 430e 243d 9ace a93e
00000200: 47b0 a3be dfb3 aabd d152 453e f788 a8be
00000210: 0264 063d 34f5 6c3e 9621 8e3e ada8 393e
00000220: 944d 0c3d 6a61 02be 5c9a 5c3e 7c48 193f
00000230: ef94 d9bd fc0e 61bd 04e2 9bbd 8229 3fbc
00000240: 7e24 b1be 62c5 b23d d4c9 ec3e f451 013d
00000250: ace7 95be a30b 3abd a1e4 0f3e 5f29 253d
00000260: 20b8 9f3d c125 a53d 9416 523e 7b91 233e
00000270: 459b 18be ebc6 ef3d f391 163f 26ef 503e
00000280: dc09 023d b9cf 623e 6b5c 103e 255d 373e
00000290: aa3b c23d e199 833d aee4 2e3e 8cdb c63e
000002a0: b23b 8c3c 8ed8 4ebb d398 fa3e 8c61 393e
000002b0: 70ed 813d 2b03 883e 9085 103e ae89 ddbd
000002c0: 7fb8 de3c 580e 323e 4120 253e e9f3 563e
000002d0: be5e 183c ced9 a83e e038 e43c addd b73d
000002e0: d4fc ec3e e42c ed3d b2e5 eebc ca1a 8e3c
000002f0: 663a 0d3d 960c bbbd 8f9a 21be 6f2e 5e3e
00000300: 9f37 de3d ebdb 053e 9312 213e 7cbd 79bd
00000310: 038d 243e 7bde 8e3d 0a50 bf3e 4eeb 8e3e
00000320: f75a 9c3e 5b4f 79be 3400 813e ac9c 343e

dense/bias f4 [34]
-0.2914376 0.05629435 0.1380859 -0.002901567 -0.07209263 0.35508087 -0.24299784 -0.019899072
0.2435134 -0.35506612 0.17982703 -0.058161777 -0.1283966 -0.011718277 0.24681853 0.10696452
-0.0025043385 -0.07725782 -0.20531432 -0.115746126 -0.4430023 -0.21028209 -0.23068354 -0.02987938
0.01907449 -0.03362102 0.17164601 -0.08118937 0.019643629 0.027471328 -0.00044125083 -0.017034998
0.26006025 -0.28481448
00000000: 4f37 95be e894 663d 6466 0d3e 3728 3ebb
00000010: 4da5 93bd 29cd b53e 6dd4 78be 6103 a3bc
00000020: 945b 793e 3acb b5be 9424 383e 0b3b 6ebd
00000030: 667a 03be 04fe 3fbc ffbd 7c3e 3710 db3d
00000040: d41f 24bb 5939 9ebd eb3d 52be 4e0c edbd
00000050: 33d1 e2be 3054 57be 4e38 6cbe 9ac5 f4bc
00000060: 1b42 9c3c 32b6 09bd f9c3 2f3e 9d46 a6bd
00000070: adeb a03c 8d0b e13c af57 e7b9 fb8c 8bbc
00000080: 9e26 853e 34d3 91be

std.constant f4 [34, 34]
-0.32074124 0.05981436 -0.1728295 -0.52975446 0.52938664 -0.08263039 0.3791933 0.09325129
0.4374458 0.4361598 0.32486752 0.4135543 0.473471 0.07214474 -0.25548103 0.1925355
-0.69002175 -0.07763962 0.38209683 -0.4639519 0.22344741 -0.06412389 0.33977064 -0.19650957
-0.57016927 0.62629116 0.18738772 -0.26344928 -0.16219293 0.1560191 -0.31820515 -0.29432094
0.13986991 0.96901184 -0.19280894 -0.4968352 0.21740386 -0.28324482 0.05194195 -0.19126505
-1.0582175 -0.1754257 -0.43841118 -0.06979037 0.3747241 -0.19161153 -0.14128314 -0.7194843
-0.19832358 0.08922116 0.35039386 -0.7628661 0.10947827 -0.113650836 0.23457344 0.44259176
0.62138885 -0.0017475681 0.47541422 -0.0143483095 0.2892332 -0.04267472 0.370501 -0.12757826
0.20760606 -0.56116825 0.12608285 0.17390308 0.10164157 0.3195397 -0.8222899 0.3481383
-0.6486371 0.2539916 -0.1694807 -0.30275875 -0.60563225 -0.15383528 0.1287702 0.3960918
0.012016507 -0.31532618 -0.13314928 0.15371011 0.17308336 0.35175222 -0.24900465 0.38059643
0.2311645 0.47548997 -0.0010389939 -0.71482575 0.023204433 -0.1120218 0.3998001 -0.7416043
0.07762284 0.1727596 0.31153503 -0.7423475 -0.20105888 -0.15872484 -0.23461623 -0.57237285
-0.7295637 0.4274883 -0.09647969 0.08289791 -0.54169667 -0.3901727 -0.045686267 -0.30480286
0.07717407 -0.765568 -0.9870343 0.54155356 0.32281226 0.10765969 -0.3458786 0.17713362
0.063595355 0.32645926 0.5855224 0.06175388 0.09161864 -0.28260952 0.29373023 -0.380223
0.19829182 0.295854 0.50825655 -0.038993485 0.19808842 -0.4257687 0.21539593 0.0462895
0.49329212 -0.31707665 -0.21952952 -0.4236757 0.46497786 -0.24684443 0.5120242 0.22577144
-0.18568243 0.46786714 0.193913 -0.13423154 0.56757826 0.19151625 0.0402139 0.23814619
-0.5144297 0.43599856 0.18840382 0.2806732 -0.6976752 0.28274876 0.44935766 -0.04386489
-0.15158615 0.4495516 -0.17269014 0.78047544 -0.09736795 -0.27612796 -0.29649144 -0.64899695
-0.14082104 -0.49658912 0.35633335 0.36777252 -0.40720016 -0.2308413 0.54510975 0.11750179
-0.4293114 -0.36680588 -0.33749366 -0.36541185 0.49877372 0.45326984 0.21588598 0.25587806
-0.02157203 -0.55634165 -0.32654107 0.4149606 -0.4512434 -0.52522147 -0.28855193 0.21310146
-0.037394308 0.27450144 -0.13639511 -0.09643989 -0.1550503 0.36372095 0.5409816 -0.16609293
0.10802627 -0.03711823 0.21255416 -0.6582051 -0.6614445 0.10264442 0.030466648 -0.17418195
0.2563109 -0.0250213 -0.8122056 0.3225961 0.28283858 -0.23474193 0.033040788 0.20006008
-0.1461702 -0.23317951 -0.17031953 0.4746596 0.30360374 0.35399497 0.6115483 -0.011237537
-0.011823965 -0.03129781 0.11197707 0.40415978 -0.45031744 -0.36383116 -0.0095415395 0.0671617
0.233242 -0.031554237 -0.112747796 -0.46632 0.16325022 -0.13993855 0.24686435 -0.25052828
-0.25133893 0.56231654 -0.44871503 0.30526996 0.2448551 -0.18361369 0.7762359 -0.09653583
0.3512035 0.37839252 0.73773134 -0.5883157 -0.3845666 0.32806674 -0.51319325 -0.58319986
00000000: 3238 a4be e7ff 743d 37fa 30be fd9d 07bf
00000010: e285 073f 1f3a a9bd a025 c23e 88fa be3d
00000020: e5f8 df3e 5650 df3e 0955 a63e 64bd d33e
00000030: ca6a f23e 9fc0 933d 69ce 82be 0728 453e
00000040: 44a5 30bf 8501 9fbd 32a2 c33e 1a8b edbe
00000050: 66cf 643e 6353 83bd 6bf6 ad3e ce39 49be
00000060: 9df6 11bf 9e54 203f 91e2 3f3e d3e2 86be
00000070: e715 26be 79c3 1f3e c9eb a2be 3cb1 96be
00000080: 0f3a 0f3e 2911 783f b56f 45be 2f61 febe
00000090: 1e9f 5e3e 7705 91be 15c1 543d fcda 43be
000000a0: ac73 87bf cba2 33be 6e77 e0be 41ee 8ebd
000000b0: d6db bf3e d035 44be 87ac 10be 2030 38bf
000000c0: 5615 4bbe 95b9 b63d d366 b33e 314b 43bf
000000d0: 2536 e03d c5c1 e8bd 0534 703e 639b e23e
000000e0: 5713 1f3f a80e e5ba 7e69 f33e 2c15 6bbc
000000f0: 6016 943e b0cb 2ebd 4fb2 bd3e e0a3 02be
00000100: af96 543e b9a8 0fbf dd1b 013e a613 323e
00000110: 7529 d03d b59a a33e 9781 52bf 2f3f b23e
00000120: 150d 26bf 300b 823e 598c 2dbe 3203 9bbe
00000130: b70a 1bbf ff86 1dbe 56dc 033e 8bcc ca3e
00000140: e2e0 443c 6f72 a1be 4958 08be 2f66 1d3e
00000150: c43c 313e de18 b43e 13fb 7ebe 89dd c23e
00000160: 63b6 6c3e 6c73 f33e da2e 88ba d2fe 36bf
00000170: 3917 be3c af6b e5bd 99b2 cc3e c8d9 3dbf
00000180: b9f8 9e3d e5e7 303e 8581 9f3e 7c0a 3ebf
00000190: 61e2 4dbe c488 22be 3d3f 70be 0787 12bf
000001a0: b0c4 3abf bfdf da3e 2597 c5bd 61c6 a93d
000001b0: a2ac 0abf b7c4 c7be 8621 3bbd 1f0f 9cbe
000001c0: 700d 9e3d 44fc 43bf 48ae 7cbf 41a3 0a3f
000001d0: a647 a53e af7c dc3d 0017 b1be 8462 353e
000001e0: 483e 823d ab25 a73e cce4 153f a3f1 7c3d
000001f0: 8ea2 bb3d 32b2 90be cf63 963e 97ac c2be
00000200: 030d 4b3e 2d7a 973e 1a1d 023f a2b7 1fbd
00000210: b1d7 4a3e 5bfe d9be c090 5c3e 0f9a 3d3d
00000220: c990 fc3e df57 a2be 59cc 60be 05ec d8be
00000230: 9411 ee3e c9c4 7cbe 0514 033f a130 673e
00000240: 8923 3ebe 488c ef3e 2191 463e fe73 09be
00000250: cf4c 113f d61c 443e 55b7 243d 98dc 733e
00000260: aab1 03bf 343b df3e eeec 403e 66b4 8f3e
00000270: d89a 32bf 72c4 903e 3512 e63e acab 33bd
00000280: 6639 1bbe a12b e63e afd5 30be 3dcd 473f
00000290: d968 c7bd a560 8dbe bacd 97be aa24 26bf
000002a0: 6433 10be ee40 febe 5371 b63e ae4c bc3e
000002b0: 8a7c d0be a961 6cbe 508c 0b3f c7a4 f03d
000002c0: b4ce dbbe fbcd bbbe f8cb acbe 4317 bbbe
000002d0: 455f ff3e fc12 e83e 3711 5d3e 7302 833e
000002e0: d3b7 b0bc 686c 0ebf 6430 a7be b775 d43e
000002f0: 6009 e7be ea74 06bf 14bd 93be 4537 5a3e
00000300: c62a 19bd 748b 8c3e 29ab 0bbe 4782 c5bd
00000310: 81c5 1ebe a239 ba3e c57d 0a3f 4414 2abe
00000320: e13c dd3d 4909 18bd cca7 593e 2180 28bf
00000330: 6d54 29bf 3d37 d23d 3195 f93c c15c 32be
00000340: 2f3b 833e 78f9 ccbc b5ec 4fbf 512b a53e
00000350: 38d0 903e 3060 70be c755 073d 8ddc 4c3e
00000360: a4ad 15be 9cc6 6ebe 3e68 2ebe 9506 f33e
00000370: f371 9b3e d43e b53e 6e8e 1c3f a51d 38bc
00000380: 4eb9 41bc 2232 00bd 3c54 e53d 08ee ce3e
00000390: 0290 e6be 1448 babe 1e54 1cbc 138c 893d
000003a0: fed6 6e3e 043f 01bd 51e8 e6bd 7fc1 eebe
000003b0: 112b 273e 0d4c 0fbe 02ca 7c3e 3e45 80be
000003c0: 7faf 80be faf3 0f3f fabd e5be 584c 9c3e
000003d0: 4cbb 7a3e 3a05 3cbe 65b7 463f 94b4 c5bd
000003e0: f2d0 b33e aabc c13e f6db 3c3f dc9b 16bf
000003f0: eae5 c4be 5df8 a73e a260 03bf 964c 15bf

std.constant1 f4 [204, 34]
0.35413092 0.16603935 0.21007152 0.2619675 -0.31505463 -0.27626297 0.12274454 -0.5026987
0.7325756 0.0454051 -0.10677058 0.48177952 -0.24648692 -0.20959002 0.96884495 -0.4525546
0.08805603 0.69438183 0.4242119 0.12630394 -0.2433524 -0.42263654 -0.21601413 -0.47250608
1.2406553 -0.07595607 0.15682122 0.19708756 -0.74139917 1.3006166 -0.45676917 -0.47968778
-0.92411697 -0.93620145 0.5035888 0.38845855 0.79334164 -0.19940989 -0.7307509 -0.05973032
0.49263778 -0.39232817 0.20362192 0.48787323 0.4757894 0.9684065 0.331683 -0.5515101
0.08053746 -0.1449699 -0.30357942 0.34887534 0.12266615 0.41614014 -0.4610702 0.4698248
0.5693108 -0.6248704 0.15448073 -0.83972096 0.8132738 0.44669336 0.21638177 0.6089287
0.04146321 -0.31428295 0.39258534 -0.25731522 -0.01430744 0.012658224 -0.47764108 0.19752489
0.05759204 0.24214534 0.0366267 0.06168766 -0.12058298 -0.25285932 0.14140315 0.02657283
-0.2740526 -0.10177051 0.76652527 0.58339375 -0.28875312 0.32697207 0.19926631 -0.33790505
-0.058931936 -0.2869062 -0.8260957 -0.45690745 -0.49433842 0.4533351 -0.014333634 0.041536186
-0.0797903 -0.4478771 0.31573617 0.20456639 0.7200988 -0.14522287 -0.5232591 0.34052056
0.15621604 0.9443491 -0.2404993 -0.17697814 -0.132396 0.23398064 -0.9789628 -0.40937942
-0.59587055 -0.2649454 0.35163873 -0.07971755 0.5130046 0.39613453 -0.07153661 0.08192466
-0.8538871 0.71906936 -0.015192358 -1.1136487 -0.033427957 -0.43447825 -0.20623787 -0.32451883
-0.7696984 0.46812442 -0.28567502 -0.322143 -0.51909214 0.4379692 -0.0543558 0.42107525
0.23327975 -0.2447716 -0.4669643 0.4325073 -0.014417477 0.46563017 0.39176798 -0.44918934
-0.4233168 0.4375705 0.08062408 0.8889076 1.1495203 -0.1738908 -0.15601815 0.28597113
-0.39448705 0.24843879 -0.1157098 0.46982804 -0.21337767 0.7722435 0.36715785 1.0308919
-1.184439 0.17446408 -0.2793464 -0.44195873 0.95053345 0.08730015 -0.76742226 -0.52810425
0.7725685 0.2193776 -0.6652883 -1.150128 -1.0622251 -0.0563393 1.2258966 1.1200433
-0.14682513 -0.5882835 -0.105860814 -2.0690472 0.8684521 0.42957488 0.585938 -0.47406083
-0.14012937 -0.15866485 -0.12809205 -0.7681473 0.42845285 0.383498 0.1932097 0.50117284
-0.19967577 0.31412172 0.18667068 -0.3000055 0.27158204 0.2692078 -0.6835734 0.084500596
0.25873572 -0.5394207 -0.24278495 -0.37592062 0.7531686 -0.5670225 0.504956 -0.45569423
0.11799166 0.5593767 0.005011374 -0.17673944 0.60857666 0.24004777 -0.2920265 -0.16548257
0.10263093 0.27503735 0.48887664 0.21295576 0.33547565 -0.004849757 0.74686587 0.31345627
-0.21283583 0.11773122 0.4667963 0.7129058 -0.37400684 -0.40578535 0.92407185 -0.22007847
-0.0028884858 -1.034443 0.12386665 0.46656772 1.2848914 -0.31250572 -0.061968304 0.58766747
1.3481755 1.5014468 -0.18974113 -0.2154462 0.46938568 -0.52047503 0.4965264 0.369754
0.8777096 -1.1600863 0.59087193 0.30629605 -0.5634001 -0.5844996 0.2691673 0.16324003
00000000: a650 b53e 3806 2a3e fd1c 573e 9b20 863e
00000010: d74e a1be 5772 8dbe 7d61 fb3d ddb0 00bf
00000020: 138a 3b3f b3fa 393d 89aa dabd ceab f63e
00000030: 1167 7cbe c49e 56be 3906 783f 3db5 e7be
00000040: b856 b43d 02c3 313f 4d32 d93e d255 013e
00000050: 5f31 79be d163 d8be cf32 5dbe 51ec f1be
00000060: cbcd 9e3f db8e 9bbd be95 203e 52d1 493e
00000070: 56cc 3dbf 9b7a a63f a6dd e9be a399 f5be
00000080: ee92 6cbf e6aa 6fbf 32eb 003f 0ae4 c63e
00000090: 7018 4b3f 1b32 4cbe 7e12 3bbf c8a7 74bd
000000a0: 053b fc3e 3ddf c8be 4482 503e 85ca f93e
000000b0: ab9a f33e 7de9 773f 5bd2 a93e c42f 0dbf
000000c0: d3f0 a43d fd72 14be c36e 9bbe ca9f b23e
000000d0: 6438 fb3d 5210 d53e 6511 ecbe e08c f03e
000000e0: 5abe 113f 82f7 1fbf 3230 1e3e f4f7 56bf
000000f0: b632 503f feb4 e43e 2f93 5d3e c0e2 1b3f
00000100: 54d5 293d b2e9 a0be f200 c93e d2be 83be
00000110: c169 6abc 7164 4f3c 5f8d f4be f743 4a3e
00000120: a2e5 6b3d f3f4 773e e105 163d 33ac 7c3d
00000130: 36f4 f6bd c776 81be fdcb 103e 43af d93c
00000140: 9f50 8cbe 0f6d d0bd 003b 443f 4b59 153f
00000150: 73d7 93be e268 a73e 780c 4c3e e401 adbe
00000160: 9d62 71bd 5fe5 92be 027b 53bf c6ef e9be
00000170: ed19 fdbe 8a1b e83e 9ed7 6abc d921 2a3d
00000180: 1969 a3bd 2650 e5be 2ca8 a13e da79 513e
00000190: 6558 383f 4eb5 14be 4ff4 05bf b658 ae3e
000001a0: 19f7 1f3e ddc0 713f 7345 76be c239 35be
000001b0: d192 07be 9f98 6f3e 4e9d 7abf 2e9a d1be
000001c0: f98a 18bf eca6 87be fe09 b43e f442 a3bd
000001d0: 4554 033f 25d2 ca3e c981 92bd 1ec8 a73d
000001e0: 5898 5abf ee14 383f 5ee9 78bc 0a8c 8ebf
000001f0: c1eb 08bd ef73 debe 0530 53be 5527 a6be
00000200: f40a 45bf 01ae ef3e ff43 92be edef a4be
00000210: 39e3 04bf 803d e03e 30a4 5ebd 2d97 d73e
00000220: e3e0 6e3e 68a5 7abe f215 efbe 9971 dd3e
00000230: 4837 6cbc 1467 ee3e d095 c83e 25fc e5be
00000240: fbbc d8be 3e09 e03e 3d1e a53d 738f 633f
00000250: 7b23 933f 6e10 32be 39c3 1fbe cf6a 923e
00000260: 35fa c9be bd66 7e3e 42f9 ecbd 4d8d f03e
00000270: ad7f 5abe c0b1 453f 1dfc bb3e 44f4 833f
00000280: b29b 97bf b6a6 323e 7e06 8fbe 6a48 e2be
00000290: 2956 733f 6cca b23d c975 44bf d731 07bf
000002a0: 0dc7 453f 86a4 603e 5650 2abf 6537 93bf
000002b0: fef6 87bf 0ac4 66bd 2eea 9c3f 945d 8f3f
000002c0: 5459 16be bf99 16bf 8ecd d8bd 456b 04c0
000002d0: e052 5e3f 3df1 db3e 0800 163f 1ab8 f2be
000002e0: 137e 0fbe 0a79 22be 902a 03be 4da5 44bf
000002f0: 2c5e db3e da59 c43e c3d8 453e dd4c 003f
00000300: ce77 4cbe 90d4 a03e 9926 3f3e 529a 99be
00000310: cd0c 8b3e 9bd5 893e abfe 2ebf a60e ad3d
00000320: 0279 843e 7a17 0abf 9e9c 78be ab78 c0be
00000330: a8cf 403f 6328 11bf cc44 013f c150 e9be
00000340: 9da5 f13d 5033 0f3f 7436 a43b 2ffb 34be
00000350: aecb 1b3f 15cf 753e 7f84 95be 4374 29be
00000360: 2a30 d23d b2d1 8c3e 0a4e fa3e 1311 5a3e
00000370: 77c3 ab3e b6ea 9ebb 9a32 3f3f 577d a03e
00000380: a3f1 59be 111d f13d edff ee3e ff80 363f
00000390: d37d bfbe 19c3 cfbe f98f 6c3f 405c 61be
000003a0: c04c 3dbb a168 84bf ccad fd3d f7e1 ee3e
000003b0: 5277 a43f c000 a0be 7ad2 7dbd 6071 163f
000003c0: 0491 ac3f 692f c03f 804b 42be ee9d 5cbe
000003d0: 5253 f03e da3d 05bf b538 fe3e 6550 bd3e
000003e0: 94b1 603f b57d 94bf 6243 173f d6d2 9c3e
000003f0: fd3a 10bf c4a1 15bf 4cd0 893e 6528 273e

std.constant2 f4 [102, 204]
-0.35669616 0.35988277 -0.3475691 0.19624695 0.42440668 -1.9468069 -0.46107915 0.97877437
-0.07064711 0.10068416 0.7658764 -0.04584972 0.37221813 1.9899491 0.4472804 0.9047879
1.0416833 0.18318637 -1.5249374 -0.9039689 -0.11758978 -0.22207573 -0.38991916 0.25594515
0.03160951 -0.5403567 0.1465795 -0.2402539 -0.18118711 -0.23164158 -0.06798158 -0.4472002
-0.10966392 -0.041611236 0.633864 -0.028546473 0.32059574 0.14579332 1.1499676 0.14872615
-0.0047776257 0.24518032 -0.5597343 0.10899926 0.7533704 0.11456189 -0.6652884 -0.008209407
1.061733 0.028297026 -0.46783754 -0.504911 -0.31180713 -0.26880252 0.28769442 -0.19666624
-0.047312714 -0.398072 0.468102 -0.19387776 0.24546313 0.45576242 0.5944583 -0.46855086
0.80750847 0.41205332 0.03432061 0.2620409 0.19456936 -0.006993662 0.20438305 0.4434304
0.5936577 -0.036355723 -0.6227304 0.26494786 0.5243533 0.22038452 0.0015817465 -0.32455623
-0.18130407 0.4207396 -0.23063037 0.94250226 0.079004064 0.43219653 0.08230665 0.63717145
0.29271087 0.0101074735 0.775547 -1.3280904 0.9579739 -0.04551142 -0.4199227 0.4163021
-0.23284423 -0.08013101 0.17463851 -0.6706746 0.21716511 0.5486255 -0.44747072 -0.16817912
0.12570053 -0.5097886 -0.6357568 0.23095196 0.23445866 -1.0464522 0.17892644 -0.10500559
-0.86718094 -0.571422 0.6695029 -1.4964346 -0.22367401 -0.16731417 0.051997814 -0.00032672373
-0.26829663 0.4860083 1.230349 -0.5600253 -0.5312527 0.0021908286 -0.28483683 -0.122372165
0.66390014 -0.795589 0.13158573 -0.2471332 -0.039057735 0.11761858 0.059621528 0.6857782
-0.42424798 0.86161554 -0.2593485 0.90178394 0.17244002 -0.8391369 -0.08422482 -0.80065507
-0.22324374 -0.5786938 0.11398272 1.2926698 0.9338369 0.08467426 0.00663065 0.044492327
0.6956477 0.111653864 -0.39863163 0.45988414 0.8688384 0.023376303 -0.4421476 0.6033581
0.3161545 -0.59369 -0.7561495 -0.17976585 0.4991142 -0.1353726 -0.28431627 0.45220524
0.12109659 -0.28056765 -1.0148971 -0.042728994 1.1281791 0.7041979 -0.8439899 -0.12963223
0.32979423 -0.5507237 0.088260375 -0.8476727 -0.1427514 0.8599223 -0.5190622 0.8054112
0.40076154 -0.42380923 0.7183825 0.013446028 -0.07716931 0.24641551 -0.28843346 0.31667352
1.0046484 0.5959977 0.76906914 0.8009091 0.4375826 0.5130103 -0.17864935 0.18128484
0.5608502 1.12598 -0.41987136 0.18324076 -0.297736 0.013169265 0.116003476 -0.090904295
-0.38184366 0.12335683 -0.30799985 -0.0037569953 0.2632789 0.20764162 1.2660626 -0.285569
0.41529778 0.83431494 0.5353707 0.272413 0.38796782 0.21784632 0.7345857 0.34008026
0.24623094 0.11883461 -0.6942839 0.044631872 -0.38776782 0.39373958 -0.2255118 0.17985027
1.0785344 0.20964682 -0.5577093 0.38255534 1.2535731 -0.34588695 -0.27675846 -0.2892219
-0.19611716 -0.004708554 -0.10763496 -0.044997595 -0.54900676 -0.1762563 0.6726079 -0.34907377
-1.0550873 0.47145456 0.23417199 0.5988396 -1.7759659 0.20917413 0.52445185 0.43356988
00000000: e1a0 b6be 8e42 b83e 94f4 b1be f6f4 483e
00000010: d54b d93e f830 f9bf 9112 ecbe f590 7a3f
00000020: 6faf 90bd 7f33 ce3d 7a10 443f eacc 3bbd
00000030: 6093 be3e a7b6 fe3f f001 e53e 2ea0 673f
00000040: e155 853f 3595 3b3e 2631 c3bf 816a 67bf
00000050: e9d2 f0bd d267 63be 7ca3 c7be 3e0b 833e
00000060: f978 013d d154 0abf f018 163e 1e05 76be
00000070: 1d89 39be 7333 6dbe ed39 8bbd 6df7 e4be
00000080: 7a97 e0bd 8b70 2abd e944 223f 4bda e9bc
00000090: 2025 a43e d84a 153e 2332 933f ab4b 183e
000000a0: a18d 9cbb 8d10 7b3e bf4a 0fbf 013b df3d
000000b0: e2dc 403f 6d9f ea3d 5750 2abf c080 06bc
000000c0: dee6 873f 2acf e73c 6788 efbe d941 01bf
000000d0: 2fa5 9fbe 7ca0 89be af4c 933e e062 49be
000000e0: faca 41bd 18d0 cbbe 11ab ef3e e487 46be
000000f0: b05a 7b3e b159 e93e 6b2e 183f e6e5 efbe
00000100: e0b8 4e3f a7f8 d23e c593 0c3d 3a2a 863e
00000110: 313d 473e 172b e5bb ca49 513e 4f09 e33e
00000120: f3f9 173f bde9 14bd 426b 1fbf 3fa7 873e
00000130: 053c 063f 7bac 613e 9b52 cf3a 3c2c a6be
00000140: c6a7 39be 2e6b d73e 5e2a 6cbe d447 713f
00000150: e2cc a13d dd48 dd3e 6490 a83d ab1d 233f
00000160: 33de 953e d199 253c 408a 463f defe a9bf
00000170: c73d 753f 2f6a 3abd 1c00 d7be 8d25 d53e
00000180: b86e 6ebe ba1b a4bd 70d4 323e 55b1 2bbf
00000190: 8860 5e3e b972 0c3f e21a e5be 2637 2cbe
000001a0: a4b7 003e 8181 02bf f5c0 22bf ac7e 6c3e
000001b0: ee15 703e 25f2 85bf 7e38 373e 2c0d d7bd
000001c0: 92ff 5dbf b648 12bf 8b64 2b3f 2b8b bfbf
000001d0: cd0a 65be 6854 2bbe a9fb 543d 1e4c abb9
000001e0: 2d5e 89be 14d6 f83e 137c 9d3f d15d 0fbf
000001f0: 2d00 08bf 0194 0f3b 22d6 91be 429e fabd
00000200: 5cf5 293f b9ab 4bbf 69be 063e 7c10 7dbe
00000210: 01fb 1fbd 03e2 f03d b435 743d 298f 2f3f
00000220: 0837 d9be d692 5c3f 54c9 84be 50db 663f
00000230: 1e94 303e add1 56bf 107e acbd bbf7 4cbf
00000240: 029a 64be 4725 14bf c66f e93d 3476 a53f
00000250: ef0f 6f3f b369 ad3d ec45 d93b 963d 363d
00000260: f815 323f c8aa e43d 7219 ccbe ef75 eb3e
00000270: 326c 5e3f a97f bf3c 2c61 e2be ad75 1a3f
00000280: 01df a13e 11fc 17bf 0393 41bf 8a14 38be
00000290: e58b ff3e 1d9f 0abe e791 91be 7287 e73e
000002a0: 7d01 f83d 90a6 8fbe 26e8 81bf 9904 2fbd
000002b0: 2c68 903f 5046 343f b90f 58bf 50be 04be
000002c0: cada a83e 3afc 0cbf dbc1 b43d 1401 59bf
000002d0: 6c2d 12be de23 5c3f 43e1 04bf 6e2f 4e3f
000002e0: 9e30 cd3e 86fd d8be eae7 373f bb4c 5c3c
000002f0: f10a 9ebd 5954 7c3e 8dad 93be 0823 a23e
00000300: 5298 803f 4e93 183f b7e1 443f 6108 4d3f
00000310: d40a e03e a554 033f dbef 36be bca2 393e
00000320: e193 0f3f 1d20 903f 61f9 d6be 77a3 3b3e
00000330: da70 98be e7c3 573c 3b93 ed3d 082c babd
00000340: 0381 c3be 81a2 fc3d 28b2 9dbe ec37 76bb
00000350: 7ecc 863e 01a0 543e 570e a23f 1a36 92be
00000360: e9a1 d43e aa95 553f 0e0e 093f b779 8b3e
00000370: b8a3 c63e 1b13 5f3e cf0d 3c3f 001f ae3e
00000380: f723 7c3e 8f5f f33d 97bc 31bf e9cf 363d
00000390: 8189 c6be 3c98 c93e 91ec 66be ab2a 383e
000003a0: 6a0d 8a3f a8ad 563e 09c6 0ebf 4bde c33e
000003b0: 1575 a03f 1818 b1be 49b3 8dbe e514 94be
000003c0: f0d2 48be 374a 9abb b86f dcbd 664f 38bd
000003d0: b58b 0cbf 887c 34be 0830 2c3f ccb9 b2be
000003e0: 1a0d 87bf 7e62 f13e c8ca 6f3e 8d4d 193f
000003f0: da52 e3bf be31 563e 7a42 063f dffc dd3e

std.constant3 f4 [13, 102]
-0.026948655 -0.41994715 0.08310966 -1.5275327 0.014032104 -2.187516 -0.31760618 -1.112437
-1.5070617 -0.50711596 -0.60922676 -0.28439033 0.5823673 -1.0757506 -0.8838556 -3.159895
-0.33067107 -0.32244337 -2.418021 -2.3597965 0.23318146 -0.0049728923 0.27104273 -0.46404442
-0.42847556 -0.8664764 0.66223055 -0.07036105 0.10809244 -0.07648041 -0.9760927 -0.91986936
0.1415125 -1.3319895 -0.60288954 -0.0039524157 -4.6339164 -0.65192217 -0.9777926 0.025530217
0.007125234 -0.15758519 0.5624259 -0.7405216 -0.56966436 -0.48009947 -0.84709376 -1.5071063
0.02673324 -2.0368762 -1.4731085 0.26190335 -0.2587368 -0.93281925 -0.9442524 0.18160707
-0.037911415 -0.16157562 -2.4418764 -0.5906065 -1.0696168 -0.287837 -0.81773055 -0.29627684
-0.036520883 -1.4953287 -3.8124871 -1.799337 -1.3359143 0.86657095 -2.1793313 0.59208196
0.41676816 -0.15678087 0.26861593 0.17226847 -0.8590437 -1.4543468 -2.4679756 -0.6725563
-0.17821866 -2.7346206 -2.153228 -1.3762012 0.36380884 -0.46456608 -0.27633893 -0.3176334
-0.04873736 -2.629563 -2.7126424 -1.912235 -1.3233386 0.0538256 0.8762813 -3.1047459
-0.40436015 0.20829691 -2.5837524 0.23156717 -0.9014515 -0.5275585 0.76038253 0.22158584
-1.9183463 0.3476807 -0.8168417 -0.14947921 -0.36600548 -0.22612877 -1.2537565 0.44078788
-0.4704973 0.074835695 -0.12910901 -1.738606 -0.8719611 1.0215366 -1.8830504 0.33732602
-2.4921813 -0.89585894 -3.462084 -4.2051306 -2.531008 -1.9554334 -1.7943513 -0.65002584
-3.3147502 -0.066842176 -1.5846518 -1.3964918 -0.0685246 0.01637378 -1.0498701 1.5493592
0.21060833 -1.8276159 -0.14381494 0.35244086 -2.5800169 -1.8755509 -0.45757738 -0.12728886
-0.2091722 0.12255847 0.23596898 -1.0790318 0.4176378 -0.86475486 -0.7010951 0.10430351
-0.56824696 -0.49433514 -0.10999632 -0.7344125 0.3813973 -0.8383287 -0.6685232 -1.3850232
-1.2815739 -0.24888408 -0.18592714 0.23437606 -0.791498 -1.0940804 0.102154784 -0.008938303
-0.5828793 1.1038176 -1.4414202 -1.1501145 -0.029035322 0.84703314 -1.9335297 -0.67541546
0.4634613 -0.7763532 -0.49169236 -0.18014637 -1.4871516 -0.33473268 0.07919307 -0.07501825
-0.8171881 0.2831388 -0.83841157 -0.3743963 -0.45574135 -3.4583688 0.07045332 1.421135
0.18222445 -4.256498 -5.1433907 -2.008069 1.208402 -0.96832794 -0.13488105 -0.77375746
-0.865016 -0.17642969 -0.5901354 -0.5203908 0.40125313 -0.40434715 0.13551424 -1.4587203
-1.8713169 0.3314876 -1.2313735 0.03343947 -1.733097 -0.79658926 -0.9441972 0.2481619
-0.25782493 -1.3828821 0.09010792 0.5152769 -1.5139555 -0.80029947 -0.4887319 0.23260498
-0.19778596 -1.0151095 -0.83770376 -0.05788344 -0.41840455 -0.357649 -1.5795562 -0.15626872
-0.872208 -1.2401824 -1.1411682 -3.0039139 -0.5950643 -4.0456777 -1.5967721 -0.503804
-2.0160897 -0.9591969 -0.53803444 -0.160348 0.21866389 0.47742066 -0.27864566 -0.20516847
0.46448144 -0.34123448 0.4478659 0.23536332 -1.974797 -0.11982683 -1.3126682 -0.18449615
00000000: 6dc3 dcbc 5003 d7be 6635 aa3d 3186 c3bf
00000010: e9e6 653c 4300 0cc0 479d a2be 5664 8ebf
00000020: 66e7 c0bf 5ad2 01bf 49f6 1bbf 9c9b 91be
00000030: 0616 153f 32b2 89bf 5c44 62bf b83b 4ac0
00000040: b84d a9be 4c17 a5be dbc0 1ac0 e806 17c0
00000050: 1fc7 6e3e a5f3 a2bb 1dc6 8a3e 3b97 edbe
00000060: 2661 dbbe 66d1 5dbf f187 293f 7419 90bd
00000070: 925f dd3d c3a1 9cbd 36e1 79bf 8f7c 6bbf
00000080: a7e8 103e a27e aabf f856 1abf 4483 81bb
00000090: 0b49 94c0 5fe4 26bf 9e50 7abf bf24 d13c
000000a0: cc7a e93b 035e 21be 25fb 0f3f d392 3dbf
000000b0: 86d5 11bf 99cf f5be 23db 58bf dce8 c0bf
000000c0: abff da3c 2e5c 02c0 d28e bcbf 3218 863e
000000d0: 2679 84be 3ecd 6ebf 86ba 71bf 34f7 393e
000000e0: 0049 1bbd 1474 25be b447 1cc0 fd31 17bf
000000f0: 34e9 88bf 5f5f 93be ca56 51bf 99b1 97be
00000100: ec96 15bd ee66 bfbf caff 73c0 ad50 e6bf
00000110: 3dff aabf 98d7 5d3f 2a7a 0bc0 af92 173f
00000120: a362 d53e 2a8b 20be 0788 893e 2567 303e
00000130: 4aea 5bbf 0928 babf 50f3 1dc0 a62c 2cbf
00000140: f47e 36be 0604 2fc0 7dce 09c0 5c27 b0bf
00000150: 2745 ba3e 9bdb edbe 4c7c 8dbe d8a0 a2be
00000160: d3a0 47bd c34a 28c0 ef9b 2dc0 1ec4 f4bf
00000170: 2963 a9bf 3b78 5c3d f953 603f 28b4 46c0
00000180: 4b08 cfbe c94b 553e 335c 25c0 f21f 6d3e
00000190: 87c5 66bf 130e 07bf 6ea8 423f 66e7 623e
000001a0: 5f8c f5bf 3403 b23e 8a1c 51bf 1411 19be
000001b0: 1265 bbbe 4d8e 67be 187b a0bf f3ae e13e
000001c0: 06e5 f0be 7543 993d 2735 04be a48a debf
000001d0: d838 5fbf b6c1 823f cc07 f1bf ffb5 ac3e
000001e0: e67f 1fc0 0357 65bf c992 5dc0 6e90 86c0
000001f0: 09fc 21c0 a44b fabf 4ead e5bf 1868 26bf
00000200: de24 54c0 8de4 88bd dfd5 cabf 3ec0 b2bf
00000210: a056 8cbd 4e22 863c 2562 86bf 6751 c63f
00000220: b6a9 573e 51ef e9bf 3944 13be 2173 b43e
00000230: ff1e 25c0 0d12 f0bf 9547 eabe 0358 02be
00000240: 3d31 56be efff fa3d daa1 713e b71d 8abf
00000250: 9fd4 d53e 9360 5dbf f87a 33bf 149d d53d
00000260: a278 11bf 7f19 fdbe c045 e1bd 7502 3cbf
00000270: 8246 c33e b69c 56bf 5624 2bbf 7148 b1bf
00000280: 9d0a a4bf 78db 7ebe af63 3ebe 4700 703e
00000290: 9d9f 4abf d40a 8cbf 8736 d13d f671 12bc
000002a0: 9437 15bf e549 8d3f 7580 b8bf f436 93bf
000002b0: 7cdb edbc 2ad7 583f e77d f7bf 07e8 2cbf
000002c0: cd4a ed3e 15bf 46bf 1abf fbbe 4a78 38be
000002d0: fc5a bebf 1562 abbe fa2f a23d 2ba3 99bd
000002e0: 3d33 51bf 92f7 903e 24a2 56bf dfb0 bfbe
000002f0: ee56 e9be ea55 5dc0 d549 903d c0e7 b53f
00000300: 0c99 3a3e 3b35 88c0 a896 a4c0 3484 00c0
00000310: ebac 9a3f 57e4 77bf 421e 0abe f814 46bf
00000320: b071 5dbf fca9 34be 1d13 17bf 5538 05bf
00000330: 0d71 cd3e 9706 cfbe 3fc4 0a3e 59b7 babf
00000340: 5087 efbf beb8 a93e a69d 9dbf d3f7 083d
00000350: 1fd6 ddbf 46ed 4bbf e8b6 71bf 271e 7e3e
00000360: a101 84be 4802 b1bf 808a b83d 30e9 033f
00000370: 4bc9 c1bf 6de0 4cbf 113b fabe 0030 6e3e
00000380: 6788 4abe 1cef 81bf c173 56bf 3017 6dbd
00000390: 1f39 d6be c51d b7be e62e cabf e804 20be
000003a0: 0649 5fbf 4cbe 9ebf cd11 92bf 2040 40c0
000003b0: 2256 18bf 3176 81c0 0763 ccbf 4df9 00bf
000003c0: 9d07 01c0 ee8d 75bf a0bc 09bf 4432 24be
000003d0: 6de9 5f3e 7b70 f43e a5aa 8ebe af17 52be
000003e0: 83d0 ed3e 49b6 aebe ae4e e53e 1503 713e
000003f0: 26c6 fcbf c567 f5bd 8305 a8bf 8fec 3cbe
