android/src/main/ml/feedback_model.tflite (tflite, 124272 bytes, 8 tensors)

dense_3/bias f4 [13]
00000000: 5064 11be 2657 81bc bca1 a73d e14d 683e
00000010: cb12 963d 8de0 f0be 51d2 b73d c5a5 133e
00000020: 6d85 03bd 4b0c 013e befa 4e3d 9d6b 25be
00000030: efdc e4be
-0.14198422 -0.015788626 0.08185145 0.22685958 0.07327803 -0.4704632 0.089756615 0.14418705
-0.032109667 0.12602346 0.050532095 -0.16154332 -0.4469981

dense_2/bias f4 [102]
00000000: 119b c7bd 9d51 9bbe f6f4 03be 16e5 afbd
00000010: 9dd1 423d 9888 6bbd 0121 02bd f263 22bd
00000020: a271 94bd 80a7 4e3c 332a 91bc d468 cebc
00000030: 4ed1 343d bfd6 383d 4042 5dbc 82f6 77be
00000040: 98b2 233c 7db4 c03d 0e1a 9ebd 2843 04be
00000050: 892c 923d 5ede 30bd ff25 09be 0200 7ebc
00000060: 91ed 893c 6558 0dbd f488 fbbd bec1 04be
00000070: d7df f9bd 3bb7 063d fc1b d0bd 2572 f9bd
00000080: c4c5 24be 8e0a 0ebd d421 dabd 5664 d43b
00000090: 15db 0cbe d6d3 3abe 0fb1 bbbd bdd2 16bc
000000a0: e551 fe3d a2aa 1bbd b1b5 c0bd 7d87 3ebe
000000b0: c62e bcbd 71b3 55bd bfca 12be 35a6 7abd
000000c0: 4347 e7bd 4788 adbd 0736 a93c 1cf8 16be
000000d0: b8b4 a83c 99c7 56be e2ed 83bd ee1e a1bd
000000e0: 2fa7 7bbd c6f8 b3bd f75d fabd 65a9 2ebd
000000f0: 7f69 41be 94de 6cbe bd4f 86bd e601 803d
00000100: 7a1f fdbd d2dd febd 851c 94bd a4ce bdbc
00000110: cbd0 12bd a875 bebd 17ae 33be 889b 95bd
00000120: 93a6 683d d701 993a 1a80 40bd 9237 89bd
00000130: e257 8d3d d0d4 e1bc 849e 5bbe bc49 1ebd
00000140: 5ecd 31bd c191 0fbe b3d4 02be 73e5 8dbd
00000150: da5e 2abe 81c9 203e 1744 52bd eb22 79be
00000160: b23a 3ebe 18f5 08bd cbfd f0bd 9aa0 08be
00000170: 6cfb 8f3d e39c a8bd 76f4 a3bb b1ea 263e
00000180: 7e6f 15be 4c84 d6bd 4aec 72bd db38 aebc
00000190: 2baa 3bbc 51ab 31be
-0.097463734 -0.30335703 -0.12886414 -0.085886165 0.047563184 -0.057503313 -0.031769756 -0.039646097
-0.07248236 0.012613177 -0.017720317 -0.02519647 0.04414492 0.045126673 -0.013504565 -0.24215129
0.009991311 0.094094254 -0.07719813 -0.12916243 0.07137401 -0.043180816 -0.133934 -0.015502932
0.016836913 -0.034508128 -0.12281981 -0.12964532 -0.12200897 0.032889586 -0.101615876 -0.121799745
-0.16091067 -0.034678034 -0.106509835 0.0064816875 -0.13755448 -0.18244871 -0.091646306 -0.009205517
0.12417964 -0.038004525 -0.09409655 -0.18606372 -0.09188609 -0.05217308 -0.14335154 -0.061193664
-0.11292889 -0.084732585 0.020655645 -0.14743084 0.020593986 -0.20974578 -0.06441857 -0.078672275
-0.061438736 -0.08787684 -0.122249536 -0.042642016 -0.188879 -0.23131782 -0.065581776 0.06250362
-0.12359519 -0.124446526 -0.07232002 -0.023169823 -0.03584365 -0.09299785 -0.17546879 -0.07305056
0.056799483 0.0011673522 -0.046997167 -0.06700052 0.06901528 -0.027567297 -0.21447188 -0.038644537
-0.043408744 -0.14020444 -0.12776451 -0.069285296 -0.16637745 0.15701868 -0.051334467 -0.24329726
-0.18577078 -0.033436865 -0.11767157 -0.13342515 0.07030377 -0.08233049 -0.0050035072 0.16300465
-0.14593312 -0.104744524 -0.059307374 -0.021267345 -0.011454145 -0.17350508

dense_1/bias f4 [204]
00000000: 8e26 923d dec6 66bd 131d 653d e5e8 14be
00000010: b760 9d3e bef4 c63c 79ca 2bbc d31f 88bd
00000020: 6c30 a83d bd3b 123d 958f 54be efdd 42bd
00000030: ab51 bfbd 3b38 183e aafe 5f3d 6109 f6bd
00000040: 3883 4c3b c220 ffbc 92c6 47bd d7e4 55bc
00000050: 837a e5bc 6bbe dcbd 8913 36be db0a b8bd
00000060: 908d ae3c 0937 8bbe c94b af3e f24c 373e
00000070: 5695 003e 70ff b63e b329 c4bd 4321 303d
00000080: 3b0a 1cbd 5c79 9e3d 9d21 8fbd acfa e7bc
00000090: 4ca3 e03b 5d22 65bb f3e8 87bd 09f3 b7bd
000000a0: 40ab 82bd 469d 0cbc 7757 5cbc 6709 043d
000000b0: f87b 523a 1107 543e 0eb3 b4bc 48b2 0cbe
000000c0: 1517 b6bd 7f18 84bd f0c8 da3b 283c 9ebd
000000d0: c79b aebd dfa6 1d3d 349a bebc 0960 6d3c
000000e0: 7935 10bd 288b d1bd 7737 18be 5011 d2bd
000000f0: 6882 35be 253b ae3d 7972 623d 8fad 1cbe
00000100: da64 7f3d d46e 3fbd 554a 553d 7853 573e
00000110: 6ad5 ebbc 7bc4 94bd 3944 563e d68e 2fbe
00000120: 8e10 ca3c a278 9ebd a309 8ebc d1b2 d3ba
00000130: f144 d73d 2364 46bd d579 093c f35c 8d3d
00000140: c139 313d 32ce 1fbe f893 04be 8fb8 42be
00000150: be8b 0bbe ec19 bebd c4f7 79bd fc50 c93d
00000160: d78e 3d3e a3ca 53be 04f2 4dbc 26d9 b03d
00000170: 183e e6bd 3a1c eebb 8649 de3d 54aa 61bd
00000180: 241c d2bc 3746 24bd cfc1 c73d fd50 02bd
00000190: 624d bbbd 3a94 c7bc a407 12be 74a7 813d
000001a0: b450 b4bc 9fc9 383e 7cc3 b7bb bf3b 1abe
000001b0: dddb 05bc 59fb d0bd 362c 1e3e e6bb 89bd
000001c0: 750f 43be cd67 0fbe 2b75 4c3d 2dee 8ebd
000001d0: 4d0a 1b3e 05c2 70be a459 243d 0e8d eabd
000001e0: 2b5a f3bd 6bca 17bd 8ef5 cf3e a4e8 883c
000001f0: 6279 1f3e 935f a73d 1df7 0bbe 4380 9f3b
00000200: 14f3 4b3e 731f 88bd b012 87bd 1553 203b
00000210: aa61 78bd d04e eb3c f48f 4cbe c8a9 a3bd
00000220: 7670 4dbd 6eec 50be 983f d1bc ed57 9a3d
00000230: db18 b2bd 1435 e63d e5b8 7e3d bb64 deba
00000240: dc48 85bd 7368 6dbe a7e4 85be 88d9 13be
00000250: 32a7 30be e9e3 38be d42b 89bd 4678 233e
00000260: a01f c03d 5417 b9bc da96 c7bd c019 d03c
00000270: f25b 7cbe 73dd d5bd 33e0 bf3d a1ae b33c
00000280: eb21 653d 72bc 62bc 9462 07be 2bf2 ac3c
00000290: beb3 bbbd b61a acba 04b7 e63d 33c4 10be
000002a0: 5dc9 0f3e 41d6 cdbd 5d0f 443a c0cb e13c
000002b0: ffcb 38be fe80 33be ec35 89bd 0b90 a43d
000002c0: 3064 53be 5ea5 5abe e04e 403d 1b6b adbd
000002d0: 45b8 ca3d 226a 7abe 5561 c53e 9d09 26be
000002e0: 3f99 36be 1b6d 03bd e773 dd3d 6888 40bc
000002f0: 3b28 a83d b064 02be cfdb 50be 3464 cdbd
00000300: b177 ac3c dfbb 3f3d 97fb 033b d181 3abd
00000310: d0ba 09be 4f7f 8e3d 6233 77bd 767a bbbc
00000320: 7b96 0e3d 954f a93d 5293 a0bd 3702 4bbe
0.0713626 -0.056342 0.05593593 -0.14541967 0.3073785 0.024286624 -0.010485285 -0.06646695
0.08212361 0.035701502 -0.20757897 -0.047574934 -0.09341749 0.148652 0.054686226 -0.12013508
0.0031206142 -0.03114355 -0.048773356 -0.013055048 -0.02801252 -0.10778507 -0.1778089 -0.089864455
0.021307737 -0.27190426 0.34237507 0.17900446 0.12556967 0.35741758 -0.09578266 0.04300047
-0.038095694 0.07737991 -0.06988833 -0.028317772 0.006855404 -0.003496311 -0.066362284 -0.08981902
-0.063803196 -0.008582419 -0.013448588 0.03223553 0.0008029337 0.2070582 -0.022058036 -0.13739884
-0.08891121 -0.06449985 0.0066767856 -0.07726318 -0.08525806 0.03848922 -0.02326689 0.014488229
-0.035207245 -0.1023162 -0.14864908 -0.10257208 -0.17725527 0.08507375 0.05528495 -0.15300582
0.06235204 -0.046736553 0.05207284 0.21027935 -0.028788287 -0.07264038 0.20924462 -0.17144331
0.024666097 -0.07737853 -0.01733858 -0.0016151314 0.105111964 -0.04843534 0.008390863 0.06902494
0.04326797 -0.15606001 -0.1294707 -0.19015716 -0.13627526 -0.09282288 -0.061027303 0.098299
0.1851152 -0.20682769 -0.012569908 0.08635168 -0.11242312 -0.0072665485 0.10853867 -0.05509408
-0.025648184 -0.040106025 0.09753763 -0.031815518 -0.09145619 -0.024362672 -0.14260727 0.06330767
-0.022011138 0.18045662 -0.0056080204 -0.15061854 -0.008170095 -0.10204191 0.15446553 -0.06725292
-0.19048865 -0.1400444 0.049916428 -0.06979022 0.15140648 -0.23511513 0.04012455 -0.11452685
-0.118824326 -0.037058275 0.4061703 0.016712494 0.15573648 0.08172526 -0.13668485 0.004867585
0.19916946 -0.066466235 -0.06595361 0.0024463583 -0.060640015 0.028724104 -0.19976789 -0.079913676
-0.05015608 -0.20402691 -0.02554302 0.07536302 -0.08696147 0.112405926 0.062188048 -0.0016967276
-0.065080374 -0.23184375 -0.2615101 -0.1443845 -0.1725128 -0.18055691 -0.06697813 0.1596385
0.09381032 -0.022594132 -0.097455695 0.025402904 -0.2464445 -0.10442629 0.093689345 0.021933855
0.05594055 -0.013838874 -0.13221198 0.021111568 -0.091651425 -0.0013130519 0.11265376 -0.14137344
0.14041658 -0.10050631 0.0007479096 0.027562976 -0.18046568 -0.17529675 -0.06699738 0.080352865
-0.20643687 -0.21352145 0.04695022 -0.08467694 0.09898428 -0.24454549 0.3855082 -0.16214605
-0.17831896 -0.032086473 0.10813122 -0.011751272 0.08210798 -0.12733722 -0.2039635 -0.10028878
0.021053167 0.046810027 0.0020138973 -0.04553396 -0.1345017 0.06957876 -0.060351737 -0.022885542
0.034811478 0.08267132 -0.07840599 -0.19825064

dense/bias f4 [34]
00000000: 1601 fe3d 8be6 1c3e a09a b0bd 2028 ba3d
00000010: 8a98 81bd 36b8 b8bd b633 d13c 93f4 803d
00000020: ab0d 5dbd 5a69 20bc be66 30bc 6935 6cbc
00000030: 2169 953b 0ae4 843c d28a c1bb 6e70 f5bc
00000040: 063c c8bd d8c8 893c e002 763c d860 843d
00000050: 02df a5bc df23 793d 252f 173e 3345 d13c
00000060: 48e6 a1bd c11d a1bc 2301 403b 8795 0cba
00000070: 51e2 4cbc a673 963c 60c8 da3c a89e 623d
00000080: b6bc 05be 6be8 bc3d
0.12402551 0.1532232 -0.086232424 0.090896845 -0.06327923 -0.090195104 0.025537353 0.06296649
-0.053968113 -0.009790743 -0.010766683 -0.014417031 0.0045596515 0.016222019 -0.0059064412 -0.029960837
-0.097770736 0.016819403 0.015015334 0.06463784 -0.02024794 0.060825225 0.14764078 0.025545692
-0.07905251 -0.019667508 0.0029297553 -0.00053628575 -0.01250513 0.018365692 0.026706874 0.055327088
-0.13060269 0.09224018

std.constant f4 [34, 34]
00000000: 629c 4d3e bc72 103e bbec 01bf 8f40 a2be
00000010: 1a1a 523e d4a2 9dbe 8b2f c1be caec 583e
00000020: 2694 0cbe 35a7 9dbe 3ca5 e1be 0612 dcbe
00000030: fa4c 9e3d 9611 59be ee74 143e f76e 4d3e
00000040: 6a58 a63e fe32 353d 3507 f4bd 0f84 803e
00000050: 5bbf 89be f66f acbe 9545 883e 1914 ac3d
00000060: e248 48be 2699 7e3e 92b4 0c3d 8b8f 1f3e
00000070: c020 2b3e 61e5 15be 061b 2c3e af94 8dbe
00000080: 1ab9 5a3e e440 813e 977d 113d 3071 b73e
00000090: 4817 f13c b931 1dbe 6b88 d5bd 20df a1bd
000000a0: f4df c2be 902d f7bd 2e29 d73c 288c b8bd
000000b0: a7e9 95be dbe0 1bbe c3fb 223d 525c 6dbe
000000c0: 4127 6b3e 8751 923e 46e3 7d3e 4711 27be
000000d0: 7b2d 9d3d 8f44 303e b221 ebbe 83c5 3bbe
000000e0: cb22 26be 1f9c 3d3d b045 cd3e 4917 7b3e
000000f0: b290 01bd 5f62 28be b047 2bbe dfc5 14be
00000100: e40d 653e 746c a73e 3110 6c3c 00cf 88be
00000110: 3bb8 0ebf bd36 88bd 0d80 ddbe aa47 643e
00000120: 750b 873e 3be2 dcbe 75a0 013e da9a 82be
00000130: 3be7 1dbe c7c2 943e acea 80be fc65 ecbe
00000140: 1e6f a5be d234 54be 1aa6 e33e fa69 483e
00000150: 43ce 8e3e f8ed 36be 5925 c13e bc0a d43e
00000160: b26c 0d3d 9baf f53d 99c8 3a3d 711f a0be
00000170: 4851 84be 465e 933e 504a 9a3d 9980 3d3e
00000180: 1838 1f3e b834 42be 22bf c9bc 760b d8ba
00000190: f925 b6bc 2c83 963e 18ce e23e c9ca b4be
000001a0: 43c4 a6bc cada 323e d55b 7c3e 4384 abbe
000001b0: ac6d a5be 1793 50be 5b88 1b3e 3c12 c1be
000001c0: 3e92 943c bd40 7e3e 24b0 71be d3c8 2cbe
000001d0: 4d9c 60be 88e1 87be 9893 27be 365c c53e
000001e0: 151b 2bbe 8ab9 993e 9de6 323e 4c38 ec3e
000001f0: 6ed0 2e3e 49a0 5abd af58 a33e 5d0d 793e
00000200: 3409 28be e4d5 8e3e 9ec0 fe3c 84d2 91be
00000210: e7cf 3a3d 9211 e13d 1214 ebbd 1bff f3bd
00000220: 556c d63e 8df4 713d e5fc c33e 54d3 c33d
00000230: 20ea a93d 421a 88be 2c0e d6be 3aca a7bd
00000240: 7ba8 163e 5655 6cbd 74bd 95be 384a e3bc
00000250: a819 fdbe bb31 863e 6ac6 ffbb 80d7 553e
00000260: ac3d 3bbd 5ba7 aabe 2802 9f3e ad55 a03e
00000270: 34c2 bf3c 369f b1be 00bc 843d e673 243d
00000280: d68b 76bc 3949 dfbd a404 f53d 53d6 643e
00000290: 9103 53be af55 9abe b34f cc3d 5cac bdbe
000002a0: 98ae 9f3e b706 33be c570 24bd 6f84 3a3e
000002b0: 3131 a2be c0b4 23be 2907 893e d890 c83c
000002c0: 2f84 b6be f91f 273c b1d1 c3be e208 1dbe
000002d0: a063 b5be 28fb d93e 9351 c3be 4d15 873e
000002e0: e379 753e 037a 2a3e ebf2 133c 6614 23be
000002f0: a869 cd3e 563e 973e 5c87 b13e 3688 1fbe
00000300: 5678 bcbe 6409 d1bc 73d3 87be 2c49 de3d
00000310: 673c 88bd e0bb 8bbd 7e51 46be 012c 763e
00000320: 3194 a13c aec7 123e da9b 48be 73c7 19be
00000330: 1c2d e93d c752 9e3e fd39 c3be a204 eabd
00000340: c88b d63c 3844 263e c39b b53e 2908 50be
00000350: 4144 0dbd ec9a 97bc 89de 6fbe 03da b33d
00000360: 8c63 f5bd 3673 933e b11a afbc 022f 3bbe
00000370: a27f c53e 57a9 c23e 524c 233e 51dc 84bd
00000380: eb3a ecbe 4339 483d ac2e 783e 9bfe 50be
00000390: 61fa a33d 3d13 64be fc10 863d 1000 bfbe
000003a0: eff6 36be d424 853e 119c 813e 919b 293e
000003b0: c8ef 86be f990 28be 8bb3 dc3b 5527 313e
000003c0: 6452 f7be 0f80 8f3e eb6e 7cbe c526 1b3e
000003d0: 275b 8b3e 8b0b b6be a938 b33e 3ec7 d0bd
000003e0: ec72 6e3b 5473 2c3e e52e ff3d 800b 13be
000003f0: dc6b 85be ce59 2fbe aadb b1be 1e81 6e3c
0.20079187 0.14106268 -0.5075185 -0.3168988 0.2051777 -0.3078829 -0.37731585 0.21184078
-0.13728389 -0.3079163 -0.44071376 -0.429825 0.07729526 -0.21198115 0.1449773 0.20061861
0.3248933 0.044238083 -0.11915437 0.25100753 -0.26903805 -0.3367917 0.26615587 0.08402271
-0.19559053 0.24863109 0.034351893 0.15582101 0.16711712 -0.14638282 0.16807184 -0.276525
0.21359673 0.2524482 0.035520162 0.35828543 0.029430047 -0.15350999 -0.1042641 -0.07903886
-0.38061488 -0.12069237 0.026264753 -0.09011108 -0.29279825 -0.15222494 0.03979088 -0.23179749
0.22964193 0.28577825 0.24793729 -0.16315185 0.0767469 0.17213653 -0.45924145 -0.18337063
-0.1622421 0.046291467 0.4009223 0.24520601 -0.031632133 -0.16443776 -0.16726565 -0.14528607
0.2236858 0.3269993 0.014408157 -0.26720428 -0.55749863 -0.066510655 -0.43261757 0.22292963
0.2637593 -0.4314135 0.12658866 -0.25508767 -0.15420239 0.29054853 -0.2517904 -0.46171558
-0.32311338 -0.20723274 0.44462663 0.19571677 0.2789174 -0.17864215 0.37723807 0.4141444
0.034527488 0.11996385 0.04560146 -0.31273988 -0.25843263 0.28782862 0.07533705 0.18506087
0.15548742 -0.18965423 -0.024627272 -0.0016482908 -0.022234904 0.2939695 0.44297862 -0.35310963
-0.020357257 0.17466274 0.24644406 -0.33499345 -0.32310236 -0.2036861 0.15188734 -0.37709224
0.01813614 0.24829383 -0.23602349 -0.16873483 -0.21934624 -0.26539254 -0.16364896 0.38546914
-0.1670955 0.30024368 0.17470784 0.461367 0.17071697 -0.053375516 0.31903598 0.24321504
-0.1640976 0.2789756 0.031097706 -0.28480923 0.045608427 0.109896794 -0.114784375 -0.11913892
0.41879526 0.059071112 0.3827888 0.09561792 0.08296609 -0.26582533 -0.41807687 -0.081928685
0.14712708 -0.05769857 -0.29246104 -0.027745351 -0.49433637 0.26209816 -0.007805635 0.20882988
-0.04571311 -0.33330807 0.31056333 0.31315365 0.023408033 -0.3469178 0.06481171 0.040149592
-0.015047988 -0.10902638 0.11963776 0.22347383 -0.20606829 -0.30143496 0.09976139 -0.37045562
0.31187892 -0.1748303 -0.040146608 0.18214582 -0.31678155 -0.1598692 0.26763275 0.02448313
-0.35647723 0.010200494 -0.3824592 -0.1533542 -0.3542757 0.4257443 -0.38148174 0.2638344
0.23972277 0.16648106 0.009030084 -0.1592575 0.40119672 0.29539746 0.34673584 -0.15579304
-0.3681056 -0.025517173 -0.2652851 0.108538 -0.06652146 -0.06822944 -0.19367024 0.24040224
0.019723983 0.14333984 -0.19590703 -0.1501749 0.11385557 0.3092253 -0.3813018 -0.11426665
0.0261897 0.16236961 0.354704 -0.20315613 -0.03448892 -0.01850649 -0.23424734 0.08781817
-0.11981878 0.28798836 -0.021375032 -0.18279651 0.3857394 0.3801982 0.15947083 -0.064873345
-0.461387 0.048882734 0.24236554 -0.20409624 0.0800674 -0.22272964 0.06546208 -0.37304735
-0.17867635 0.2600466 0.25314382 0.1656325 -0.26354814 -0.16461553 0.0067352704 0.1730016
-0.48305047 0.28027388 -0.24651687 0.15151508 0.2721798 -0.35555682 0.35004166 -0.101942524
0.0036384417 0.16840869 0.12460116 -0.14359856 -0.26058853 -0.17124102 -0.34737903 0.014557151

std.constant1 f4 [204, 34]
00000000: 83dc c03d 33e7 8dbd 1752 b9bb 8702 bcbe
00000010: 8ced 443e de5c 043e c910 d83d 5b9b 1cbe
00000020: a190 0bbe 298b c83d b711 9ebe ee65 143e
00000030: 211a 8e3c a78d 16be 3e2c f3bc c6e7 053e
00000040: 19d9 2abe b977 2b3e 255e 4ebe 6e53 2bbf
00000050: 50cf db3d e9d6 ce3d 407e a83e db7d 3f3e
00000060: 0b81 bb3e 127e e33c 451f d0be ceed 19be
00000070: 63a9 cdbd e428 313e 70b9 683c a1d7 5c3e
00000080: 2b42 41be 2c34 693e 0bf6 73be 1c3b c1bd
00000090: 2ed5 3ebe 814a 83be a6ba 453d 5d71 723d
000000a0: f559 9cbe c075 623e e0b5 0dbe 0135 73be
000000b0: 1d8a 23be a3d2 cbbe 7382 ec3e 4785 c8be
000000c0: 926c a6be 1725 8fbd 2765 bb3d 8b35 883d
000000d0: cbe2 71be 69c8 3fbe c06d 253e c1fb 013e
000000e0: b3ab 4f3e e92e f1bc 8aec d63e 2fb6 9a3e
000000f0: c94b b7bc 5fd2 0a3d 2fd3 2e3c 8984 25be
00000100: 3e27 123e 9b9f 93be 1ea4 903e 2cc1 59bd
00000110: d075 0dbe 3ffe 73be 1279 04bf 44e5 e4bd
00000120: d956 3e3e 1315 893e ac9b 373d f95f 0f3e
00000130: b1de b93e 3622 ccbc 0b1c 6b3e 2710 13be
00000140: ddfb 25bd edf4 87be d87e 03be c1ab dc3c
00000150: 868f 48bd 2e98 303d b793 343e e86e b83e
00000160: bd85 4b3e c9b6 d13d d8cc d63e 112d 9f3e
00000170: 31a3 7a3e 6510 e83e 45f8 83be 826a 803e
00000180: 6865 0b3f 3b71 8fbe 4521 e5bd d06e c1bd
00000190: 9276 3e3c 3059 f73d 84aa 82bc 5835 9a3e
000001a0: 8ca8 fbbb ea7e 07be 7dc4 e8be 2cf2 513d
000001b0: 58d5 a73e 57a8 9ebe 9118 aebd 7532 c7bd
000001c0: 0741 8ebb 3dca ce3e 32d8 f33d b6a0 ce3e
000001d0: 449f ad3d bf79 4a3e 0ffe 02be acc7 0dbe
000001e0: 73cd fc3d 1daf 0bbe 1476 71be 2bbd 8ebd
000001f0: d031 61bd 28cb 7abe 37c1 7e3e cd72 7fbe
00000200: e693 723d 88c8 7abe 338d c83d 154f c7bb
00000210: 92ef 483e 848b 68bd 2151 b43d f4b1 793e
00000220: 9ddc 98be 5b43 67be f5e9 9c3e 003c 9d3c
00000230: 5672 e4bd 37c6 0c3d 08c4 33bc 8b52 1bbe
00000240: eb78 4fbe 7ce0 2439 1e52 02be 13f5 6f3e
00000250: a2d0 a9bd ebde e3bd 3198 e73d 71c1 9a3e
00000260: f81e e2bd 1e99 8dbd cbeb 69bd a808 933e
00000270: edf4 9b3d 325d 193e 7b0d 69bd 749e 5cbc
00000280: 6455 1d3e 480e abbe b758 5abd e758 bbbc
00000290: ec88 a9be 8629 eb3d 8256 5cbc 0dcc 0ebe
000002a0: 46aa 10bd c45e 953d c808 93bd a811 52be
000002b0: 1c40 99be 12df ba3d b82d 8ebc 3c66 013c
000002c0: 699d 763e 3b31 fd3d 0aeb 573e 49e8 183f
000002d0: 8e03 343c f435 ce3d f43d 42be 3fd6 af3d
000002e0: ad48 893e 5583 88be 09f5 713e 1a34 293e
000002f0: 0fa5 803e 5249 babd c5ab 96bd 1bad b5be
00000300: 9e8f 74be 3bec 43be ba2f e0be f00b dabd
00000310: 6453 67be 957e c5bc f9a7 d4be 70ba 7ebe
00000320: 3d6d acbe 8177 653e e587 5e3d e4b0 4f3e
00000330: 37e2 0d3e 6192 3dbe a483 77be 0222 9dbe
00000340: ab91 d2be f370 1a3e d5bc 4f3e 66c5 923e
00000350: ff2b 44be 8781 33be 775d 9cbc 027c 853d
00000360: eb23 843d 6527 a8bd 0d05 bf3e 8b73 28bd
00000370: f2e8 9b3c 6709 68be 9363 113d 14cc f4bd
00000380: c646 df3d 85ab 493e 72a5 523e 3d6a 323d
00000390: 40f2 04be a280 64be b601 04be 2715 c53d
000003a0: 187b 343e 1e91 d13c 2c57 d83e 4944 333b
000003b0: 6bb8 6bbe 3451 d6bd 9419 0d3e e51c 6a3e
000003c0: 7dba 4b3e 53ef c5bd aa5d 89be 94da 36bc
000003d0: 532c fe3d ca9b e8bd c3f4 79bd 89cb fa3c
000003e0: 5bd2 133e f84a dabd 3092 163d 069f 2cbd
000003f0: d9f6 5fbd 0752 323e 21ac 9f3e 822a bdbd
0.09417059 -0.069288634 -0.005655538 -0.36720678 0.19231242 0.12926051 0.105500765 -0.15293638
-0.1362939 0.09792168 -0.3087289 0.14492008 0.017346444 -0.14702474 -0.029684182 0.13076696
-0.16684379 0.1674489 -0.20153101 -0.6692418 0.10732901 0.100995846 0.3290882 0.18700354
0.3662189 0.027770076 -0.40648857 -0.15032122 -0.100420736 0.17300755 0.014204368 0.21566631
-0.18872897 0.22773808 -0.23824327 -0.09435102 -0.18636009 -0.2564278 0.048273705 0.059190143
-0.30537382 0.2211523 -0.13838911 -0.23750688 -0.15970655 -0.3980914 0.46193275 -0.39164183
-0.32504708 -0.06989496 0.09150153 0.066508375 -0.23621671 -0.18728794 0.16155148 0.12693693
0.20280342 -0.029441314 0.4197734 0.3021712 -0.022375004 0.03389203 0.010670467 -0.1616384
0.14272782 -0.28832707 0.2825021 -0.05316274 -0.13814473 -0.23827456 -0.5174724 -0.111765414
0.18587817 0.2677389 0.044826195 0.14001454 0.36302713 -0.024918657 0.22959916 -0.1436163
-0.0405234 -0.2655405 -0.12841356 0.026937367 -0.048965 0.04311388 0.17634474 0.36022115
0.19875236 0.102399416 0.41953158 0.3108907 0.24476315 0.45325008 -0.25775352 0.2508126
0.5445161 -0.28016075 -0.11187986 -0.09444964 0.011624949 0.12077558 -0.015950449 0.30118823
-0.0076800045 -0.13232008 -0.4546241 0.051256344 0.32779956 -0.30987808 -0.085007794 -0.09726421
-0.004341248 0.4038867 0.1190647 0.40356988 0.08477643 0.19773005 -0.12792228 -0.138457
0.12343874 -0.13641019 -0.235802 -0.06969675 -0.054979146 -0.2449156 0.24878393 -0.24946137
0.05922308 -0.24490559 0.097925566 -0.0060824254 0.19622639 -0.056773677 0.088045366 0.2438429
-0.29855815 -0.22584288 0.30647245 0.01919365 -0.1115462 0.03436872 -0.01097203 -0.15168206
-0.2026097 0.00015723886 -0.12726638 0.23433332 -0.08291747 -0.111265026 0.11308325 0.3022571
-0.11041063 -0.069139704 -0.057109635 0.28717542 0.07615075 0.14976957 -0.05689762 -0.013465513
0.15364605 -0.33409333 -0.05330726 -0.02286954 -0.33112276 0.11482529 -0.013448359 -0.13945027
-0.035318635 0.07293466 -0.07179409 -0.20514548 -0.29931724 0.091245785 -0.017355785 0.00789791
0.24083485 0.123629056 0.21085754 0.5972944 0.010987176 0.100688845 -0.18968946 0.08585786
0.2681326 -0.26662698 0.2362863 0.16523781 0.2512593 -0.09096016 -0.07356981 -0.35483631
-0.2388291 -0.19133084 -0.43786412 -0.10646808 -0.22590405 -0.02410821 -0.41534403 -0.24875808
-0.33677092 0.22408868 0.054328818 0.20282322 0.13855825 -0.1851287 -0.2417131 -0.30690008
-0.4112676 0.15082149 0.20286877 0.28666228 -0.19157408 -0.1752988 -0.019087536 0.06517793
0.06452163 -0.08210639 0.3730854 -0.041125815 0.019031975 -0.22659837 0.035495352 -0.11952987
0.10902171 0.19694336 0.20570925 0.043558348 -0.12983036 -0.22314695 -0.12891278 0.09623175
0.17625082 0.025581893 0.42254007 0.0027353934 -0.23019569 -0.10464707 0.13779289 0.22862585
0.19895358 -0.09664788 -0.26829273 -0.0111605115 0.12410798 -0.113578394 -0.06102444 0.030614631
0.14435713 -0.106588304 0.03676051 -0.042143844 -0.05467877 0.17414103 0.3118601 -0.09236623

std.constant2 f4 [102, 204]
00000000: 56aa 68bd 619e fe3e 393a 8a3d 84ad 093e
00000010: 32e1 00be 88df 64bd e373 ba3c 2442 1f3d
00000020: a421 ed3d ff2b cebd 7c9f f2bd fac7 9c3d
00000030: 70cf 023e f014 12be 2cf2 073d 8c9d c0bb
00000040: d098 c3bd 1588 7a3e d9cc 60bc bab1 6cbe
00000050: e059 b73c e6e2 2abd c614 99bc 30db f53d
00000060: 781a 063e 7081 d43c c401 09be e425 41bd
00000070: 22e4 91be 847b 3fbe 0e8e 5fbe 0037 8d3d
00000080: 9d57 ab3d 01d9 18bc e4fa ffbd 52ca 9ebe
00000090: 2ff2 e03c 048f 193e 1403 a43e 5980 b43e
000000a0: 321a 96be 59e1 873e 6677 82be 4c3f d23c
000000b0: a607 b93d bac0 b3be 4eed 853e 1fa0 ac3d
000000c0: d702 9ebe 6bd8 023e d081 93be c7bb 62be
000000d0: 69e2 bc3e 71b6 083e 2aa5 50bc 8c6b ee3d
000000e0: adad e5bd 6d6a 003d 12e9 07bd ef9d fcbd
000000f0: 7818 eebc da1f 4bbe afa4 8c3d 5efc 00bd
00000100: 7d2e 80bd 0aec 31bb 58bd 01be cd46 b5bd
00000110: bcd7 d63c 1961 a43d eade 683e a6c7 e3bd
00000120: 3a00 c53b 1268 5bbe f265 193e e7a2 2c3e
00000130: 504e 30bd 5322 9d3d 1349 763e 2e9d 44be
00000140: 0286 42be 7c80 7fbe 49c7 9e3e dc8e c23c
00000150: d3c6 9d3d 7c72 cd3c 4f92 013d ce4d a5be
00000160: 1ca0 bf3e 584f b33c e505 663e 8dbb 933c
00000170: dbb6 11bd 1fcd 9fbd dc48 86bd dfa6 6b3d
00000180: afca ffbd ced4 e7bd 3c2a 21be 4aa7 18be
00000190: 65c8 613d 7f51 ab3e ee46 e03d 8f5b b2bd
000001a0: f537 483e 022c 92be f1a1 1abd 9466 80be
000001b0: cd62 39be b507 d9bd 9185 99be 5b3e c7be
000001c0: 1db6 13bd 8659 d3be bac8 d0bb 30e0 533e
000001d0: b1bd bfbc f41a 73be 7133 9cbc af04 edbd
000001e0: 14e6 5d3c ade0 8fbe 8260 8fbe bd82 ba3e
000001f0: 76e2 683e 2353 16be e017 793e c470 c33d
00000200: 6f58 3ebe acbd fabd 513a af3c 1f15 58be
00000210: 9835 c139 9dc9 01be c6d4 83be b6de 44be
00000220: d2ab 4abd a376 99be c926 353e 8202 48bc
00000230: 8bdd 573e 4c8b 33bd e5e5 473e 2d9f 903d
00000240: c479 f4bb 8b89 bcbd e8a5 87be 6157 4ebd
00000250: c512 b6bd a7fb 77be df71 14bd 2de7 1f3e
00000260: d2c4 00be bac3 c83d 3d97 483e 61cb bf3d
00000270: 2c73 023e 8635 83be b87e 933d 1792 313e
00000280: a1ed b7bd 85ec 793e 17ee 633e aa75 1c3c
00000290: 7ca2 17be 6449 febe 372d c4bc f69d ed3d
000002a0: 38db a1be 84ba 5e3d 7c3d ab3d 85b5 2bbd
000002b0: 0055 7d3e 081c c53d cb7f 2e3e cd14 983e
000002c0: 6a49 893e 9011 0bbe b292 813d 757a 433e
000002d0: 26ba b53d 3810 a23d 3764 37bc 815d 6d3d
000002e0: 0c55 393e 5921 c0bc f0d3 96be a8d0 c33c
000002f0: 90e3 363e 2dc1 bb3d ae3e 483e 5033 59be
00000300: fcbd 3cbe b181 1c3d 3c29 e23d 1911 bf3e
00000310: 6fa2 ce3b 8e3d 31bc efb7 70be a383 8bbd
00000320: 9731 5fbe ab2f de3d 4f0a f93d e3f8 5cbe
00000330: 6426 a0bc 40b0 2d3d 8c6f 11be e019 a13e
00000340: 32b6 c5be 28ee 2d3e 0369 353e 9240 5b3d
00000350: 57de 0fbd a7bc 693d c372 b43d 61e4 72be
00000360: 5688 0fbe adc1 9f3d ed9a 1abf 9225 11be
00000370: 40a5 d23d 8146 a9bb b560 203e 921d d5bd
00000380: 3e88 24bc baf4 b33e e955 c1bb d480 f03d
00000390: 1e47 ce3d 0610 8bbe 0ccf 16bd e4de 6e3d
000003a0: 8a44 d0bd 0115 44be be11 68be 24cf 8d3e
000003b0: 4851 bc3d d1e0 2e3e b9a6 a7be 5049 983d
000003c0: 4a85 b83e 9017 3c3d b07c 51bd f4cf cbbb
000003d0: fc85 19be fa58 13be c02b 1b3e 54ff 553e
000003e0: ad35 5c3e 3af0 47be 15a4 7e3e b925 ab3c
000003f0: c178 6dbe aa0c b93d beda a8bd ea6c 00bf
-0.05680307 0.4973021 0.06749386 0.13445097 -0.12585905 -0.05587724 0.022760337 0.038881436
0.11578682 -0.10066985 -0.118468255 0.0765533 0.12774444 -0.142658 0.033189937 -0.005878156
-0.09550631 0.24465974 -0.0137207145 -0.23114672 0.022381723 -0.041720293 -0.018686663 0.12004697
0.13096035 0.025940627 -0.1337958 -0.047155276 -0.28494364 -0.18699461 -0.21831533 0.06895256
0.0836632 -0.0093290815 -0.124990255 -0.31013733 0.027459232 0.14995962 0.32033598 0.35254171
-0.2931686 0.26539114 -0.2548172 0.025664948 0.09034662 -0.35107976 0.26157612 0.08428978
-0.30861542 0.1277787 -0.28809977 -0.22141944 0.36891487 0.13350846 -0.012734691 0.11641607
-0.11214767 0.031351496 -0.033181258 -0.12334811 -0.029064402 -0.19836369 0.068673484 -0.031490676
-0.06258867 -0.0027148747 -0.12669885 -0.08851395 0.026225917 0.080263324 0.22741285 -0.11122064
0.00601199 -0.21426418 0.14980295 0.16859017 -0.043043435 0.076725625 0.24051313 -0.19200584
-0.18996432 -0.24951357 0.31011418 0.023749761 0.07703938 0.025079004 0.03163367 -0.32285923
0.3742684 0.02188842 0.22463186 0.018033767 -0.035574775 -0.078027956 -0.065568656 0.057532188
-0.12489831 -0.11319886 -0.15738767 -0.14907566 0.05512275 0.33460614 0.10951029 -0.0870887
0.19552596 -0.285492 -0.037752096 -0.2507826 -0.18104096 -0.10597173 -0.29984716 -0.3891476
-0.03606235 -0.41279238 -0.0063715847 0.2069099 -0.023405882 -0.2374075 -0.019067498 -0.11573159
0.013543624 -0.28101102 -0.28003317 0.3642787 0.22742638 -0.14680152 0.24325514 0.09542993
-0.18588422 -0.12243208 0.021390112 -0.21101807 0.0003685176 -0.12674566 -0.2574827 -0.19225582
-0.049480267 -0.29973325 0.17690577 -0.012207629 0.21080606 -0.043834016 0.19521292 0.0706161
-0.0074608047 -0.09205922 -0.26493764 -0.0503763 -0.08890299 -0.24217092 -0.03624141 0.1561553
-0.12575081 0.09802957 0.19588943 0.09364963 0.12739247 -0.25626773 0.07201904 0.17340885
-0.08980871 0.24406631 0.22258793 0.009549538 -0.14808077 -0.49665368 -0.023947341 0.11602394
-0.31612563 0.054377094 0.083613366 -0.041921157 0.24739456 0.09624487 0.17040937 0.2970337
0.26813823 -0.13580918 0.06326808 0.19089682 0.088733956 0.0791325 -0.011193327 0.0579505
0.18098849 -0.023453401 -0.2945857 0.023903206 0.17860246 0.09167705 0.1955516 -0.2121098
-0.18431848 0.03820962 0.11043021 0.37317732 0.0063059847 -0.010817898 -0.23507665 -0.06812217
-0.21796261 0.10848936 0.12160169 -0.21579318 -0.019549556 0.042404413 -0.14202708 0.31465054
-0.38615566 0.1698538 0.1771584 0.053528376 -0.03512415 0.05706468 0.088109516 -0.23719932
-0.14016852 0.078006126 -0.6039265 -0.14174488 0.10285425 -0.0051658754 0.15661891 -0.10406031
-0.010042248 0.3514765 -0.005900134 0.11743322 0.10072158 -0.27160662 -0.03681855 0.058318034
-0.10169323 -0.19148637 -0.22663018 0.27697098 0.09195191 0.17077948 -0.32744387 0.07435858
0.3603919 0.04592091 -0.051144302 -0.0062198583 -0.14992517 -0.1438941 0.15153408 0.20898181
0.2150485 -0.19525233 0.2486728 0.020892011 -0.23190595 0.090356186 -0.08244847 -0.5016619

std.constant3 f4 [13, 102]
00000000: 7f83 43be 3f8c 013e 3b2b b83d 37de 473e
00000010: d565 5abe 0530 083c 6595 7ebe 127c 1fbf
00000020: 87f9 32bf 989e 2abf 13d8 86be 32c6 9fbe
00000030: 69e1 bebe 3034 09be 1b95 bebe b994 343e
00000040: 9a5e 95be 3429 46bf 88d9 e8be 57cb 8cbe
00000050: d3bf fdbe f5a1 25bd 081d e6be 9ca7 bebe
00000060: 8f8c ca3c 8fdb 733d be2d 1fbe 9b6a 923a
00000070: 25e3 513e 81ca 6dbf 821e 99be c76f 96be
00000080: 16fe 833e e806 fdbd d7d5 07bf b2f3 b3be
00000090: 5533 74bd 8d1a 53be 9c72 55be 5f28 12bf
000000a0: a115 27bd be84 0fbe ea0e 81bd 53a4 463e
000000b0: 4c19 47bd ba9e 09bf e35e 24be 53cb 9abd
000000c0: 4d49 47bf d0f9 f4be 70f7 b4be 4661 da3d
000000d0: e25d 283c 9b62 3cbf 6b6d 3fbf ac67 0bbf
000000e0: 2bd8 08bf b528 e3be b009 55be b57e c7be
000000f0: 4da9 98bd 4ce1 12bf c3e9 1fbf c19c 7bbe
00000100: 9e05 a0bc d84c f9bd 1bbc 31be d54d 5a3e
00000110: 07e0 c5bd 79ec e9bd e06c 36be ac64 4dbe
00000120: c7db eabe 5a31 50bf c137 5bbe 4b24 c4be
00000130: 06a9 0bbf b67f 483c 33b9 eebd f0ea c6be
00000140: a15d 17be 7bba bbbe 524e ddbe 0cc9 853b
00000150: 7bfa e6be 2c59 0cbf f477 e33d e4b4 fbbd
00000160: ea8f 55be 3ab8 18bf 6e74 92bd 41d2 2cbf
00000170: e411 0cbf 7d7f 23be cf12 07bf d4ee 2dbe
00000180: 0db8 483e 9917 61bd 5a60 453d ee03 1fbe
00000190: 8f3a 4cbe 2c52 fdbe 4ce3 34be f475 0dbe
000001a0: 6f21 9dbe bcf8 91be f584 7c3d 666f 263d
000001b0: 3ec5 febd de61 5fbe 1489 17bf d6dc 39be
000001c0: adf8 85bc 7f69 0dbf 386a 3dbe 53a7 10bf
000001d0: 95d1 a4be 4fbe f63d c743 4abe e6e9 06bf
000001e0: adbe 05be 76e6 b9be 8f12 b73d 0daa e5bd
000001f0: 5438 82bf 52d6 90be f3c0 263d 905c e03d
00000200: 93fa 79be c864 debe c8dc bbbe cc7c 843d
00000210: 25ba 96be 8388 00bf be65 a6bd 5bf5 23bc
00000220: c8c2 19bf 0bac b23c 97f1 e8be acba 05be
00000230: 4147 ccbe 363e 26be 8d35 753d b9ab bebe
00000240: 715d 153d 6829 07bf 82a3 e9be 4ff3 c4be
00000250: 9921 99bd b062 6ebf 1cc8 893e 1fb7 08be
00000260: 576a f3be 4889 0e3e 7bf1 afbe 3476 dcbe
00000270: 19ab b3be a49d 34b9 9aaa 303d 90b6 583d
00000280: b2d4 623d b882 11bf 5fa0 4dbd 9137 893d
00000290: d33f 84be b512 02bf a41e f83b 97e7 92be
000002a0: 0ae4 d2be aabb e03d 1a75 b8be 3a4c 27bf
000002b0: f175 29bd 63ad 25be bd25 3abf 6fe8 83bd
000002c0: 1b2f 18be 96ad eebe fa0f 7dbd 2e65 d3be
000002d0: 0dee 02bf 32ce 7b3d e05a 13be fbd7 a8be
000002e0: a25b 1cbe d493 15bf b50d d13c 4502 a2be
000002f0: 9c18 9ebe 783c 09bf 3c69 84be e9ec 6dbe
00000300: e9c4 b7be 022e 16be 721c e2be 1288 7cbe
00000310: b71c d8bd 56b0 de3d c49e 88be ea29 f8be
00000320: 5d2c c9bd b2f5 41be ef79 0abe 32fd 9ebe
00000330: fda0 c1be fd0d b4be 974f 19bf a7b8 633e
00000340: 18cc f8be 8e32 a1be 7039 6fbe c615 d1be
00000350: 8770 02be 7e1a 96bd 5766 05bf 5f95 03bf
00000360: 9026 ccbe 4ea7 f4be 787d 94be 1875 f8bd
00000370: b75a ba3d 51c2 12bf bb3a 3d3d 73ca 57bd
00000380: 9089 f9be 1f81 b0be 437d b5bd dade 05bf
00000390: baae 10bf c143 d23c f9b1 b4be a58b e2be
000003a0: 4fe6 8fbe 64f0 33bf 7fe5 05be eb5d c6bd
000003b0: 576b a0be f041 483e 1452 60be 302c 073d
000003c0: bcc6 e4bc ddc6 7ebe 721d 113e dfbb 87be
000003d0: 2034 7d3d 890b febd 0ecb b03d 2bce 21be
000003e0: 52a0 26bf 1f94 adbd e14b e73d 84e1 4dbd
000003f0: 154c afbd 6075 f0be 491b 9b3d 1f61 12bf
-0.1909313 0.12651156 0.089926206 0.19518362 -0.21327908 0.00831223 -0.24861677 -0.6229869
-0.69912 -0.66648245 -0.26336727 -0.312059 -0.3728135 -0.13398814 -0.37223133 0.17634858
-0.29173738 -0.7740662 -0.45478463 -0.27498886 -0.49560413 -0.040437657 -0.44944024 -0.3723725
0.024725227 0.05953556 -0.15544793 0.0011170687 0.20496805 -0.9288712 -0.29906088 -0.29382154
0.2577979 -0.12354833 -0.5306067 -0.35146862 -0.059619267 -0.20615597 -0.20844501 -0.5709285
-0.04079211 -0.14015481 -0.06301673 0.19398622 -0.04860811 -0.5375782 -0.16051821 -0.07558312
-0.77846223 -0.47846842 -0.3534503 0.10663085 0.01027629 -0.7358796 -0.74776334 -0.54455066
-0.53454846 -0.44366995 -0.20804477 -0.38963857 -0.074541666 -0.57375026 -0.6246607 -0.24571516
-0.019533928 -0.1217286 -0.17356913 0.21318753 -0.096618704 -0.11422057 -0.1781497 -0.20057935
-0.45870802 -0.81325305 -0.21407987 -0.3830894 -0.54554784 0.01223748 -0.11656418 -0.38851118
-0.1478181 -0.3666571 -0.43223816 0.0040828045 -0.45112976 -0.54823565 0.111068636 -0.122903615
-0.2085568 -0.5965611 -0.071511135 -0.6750832 -0.547148 -0.15966602 -0.52763075 -0.16985637
0.1960146 -0.054954145 0.04818759 -0.15528843 -0.19944213 -0.49476755 -0.17664832 -0.13814527
-0.3068957 -0.28510082 0.061650235 0.04063358 -0.12439965 -0.21814677 -0.5919354 -0.18150648
-0.01635393 -0.552391 -0.1849755 -0.56505316 -0.32191148 0.12048017 -0.19752418 -0.5270065
-0.13061018 -0.3630864 0.08939087 -0.11214075 -1.017344 -0.28288513 0.040711354 0.10955155
-0.24411993 -0.43436265 -0.3669188 0.064691156 -0.29438892 -0.502083 -0.081248745 -0.010007228
-0.6006284 0.021810552 -0.45496818 -0.13059491 -0.39898112 -0.16234669 0.059865523 -0.3724039
0.036466066 -0.52797556 -0.4563256 -0.3846688 -0.07477111 -0.93119335 0.26910484 -0.13351105
-0.47542068 0.13919556 -0.34363922 -0.43058932 -0.35091475 -0.00017224863 0.04313145 0.05290848
0.055378623 -0.56840086 -0.05020177 0.067000516 -0.25829944 -0.50809795 0.007572012 -0.28692314
-0.41189605 0.10973294 -0.3602684 -0.6535069 -0.041372243 -0.16179423 -0.72713834 -0.064408176
-0.1486172 -0.4661681 -0.061782815 -0.4128813 -0.51144487 0.06147594 -0.14390135 -0.3297728
-0.1526933 -0.5842869 0.025519231 -0.31642357 -0.3087815 -0.53607893 -0.25861537 -0.23234905
-0.35892418 -0.14665988 -0.44162327 -0.24661282 -0.10552352 0.10873477 -0.2668363 -0.48469478
-0.09822915 -0.18941382 -0.13523076 -0.31052548 -0.37818137 -0.35166922 -0.5988707 0.22238408
-0.4859321 -0.31483883 -0.23361754 -0.40836924 -0.12738238 -0.07329272 -0.52109283 -0.513998
-0.3987317 -0.47783893 -0.29001975 -0.12131709 0.09099334 -0.57327753 0.046198588 -0.052683305
-0.48737764 -0.34473512 -0.088617824 -0.5229317 -0.5651661 0.025667073 -0.35292032 -0.44247165
-0.281054 -0.7028868 -0.13075827 -0.09685882 -0.31331894 0.19556403 -0.2190631 0.033001125
-0.027926795 -0.24880548 0.14171389 -0.26510522 0.06181729 -0.12404544 0.086324796 -0.15801303
-0.6508838 -0.084755175 0.1129377 -0.050263897 -0.08559433 -0.4696455 0.075735636 -0.57179445
