android/src/main/ml/model.tflite (tflite, 117408 bytes, 10 tensors)

unknown_0 f4 [34]
00000000: 76bb 923c 3e42 273d b57c 91bc af98 d73b
00000010: d08d 46bd 13c2 1bbc 69d4 053d 8ec2 91bc
00000020: c1d3 193c 913e ecbb e384 61bc 42f7 debc
00000030: a82e ecbc 51bf d6bc 788f 7dbc 22ef 6e3d
00000040: ad9f e83c 3286 6cbb 2a61 bebc 83b8 2e3d
00000050: 6d9a 9abb 323c 94bb a802 c4bc 0992 4dbd
00000060: fd83 123d df90 24bc 0755 cc3c 816b ff3c
00000070: 2e0d 1dbd 5e62 ebbc fd22 dbbc 0ed6 f5bb
00000080: 4259 c23b fdbb 703a
0.017911654 0.040834658 -0.01775966 0.0065794806 -0.048475087 -0.00950672 0.032673273 -0.017792966
0.009388865 -0.007209607 -0.013764593 -0.027217511 -0.028830841 -0.026214274 -0.0154761 0.058333524
0.028396452 -0.0036090729 -0.02323969 0.042656433 -0.004718116 -0.0045237774 -0.023927048 -0.050188098
0.035770405 -0.010044306 0.024942888 0.031179192 -0.038342647 -0.028733429 -0.026750082 -0.007502324
0.0059310505 0.0009183286

unknown_2 f4 [170]
00000000: 0000 0000 bd32 753d 4968 153d eb0c 9a3c
00000010: 64cb 8e3c 8ef1 8abc a774 d83b 64f6 6e3c
00000020: a5e0 ee3c 3bbf 4e3d ff00 1d3d 0a0d 81ba
00000030: 746f 233d 5848 873c 57b0 a33c acc4 3d3d
00000040: 0000 0000 0de8 aeb9 1f37 c53c 65a9 0cbc
00000050: 3a0c 4a3d 5421 163d 3470 813d 8d58 173d
00000060: ae2f c3bb fb1e 253c 5454 d03c 04d6 4a3d
00000070: ce64 bc3c 4a67 fbba 28ed 1f3d bfdd 203d
00000080: 294f ae3b 2fbb 483d 1f21 103d 82f2 2ab9
00000090: 2fa8 05bd 4419 93bc e02d a63d 621d cabc
000000a0: 0000 0000 6a39 0ebb 99e2 dd3c 0614 2539
000000b0: 6497 963d c24c 253d 86ef d83c d14e 003c
000000c0: 04e4 263d 9ef8 cdbb cccf 253d 0110 c33b
000000d0: 55a4 c13c 34e5 2b3d da6f 913d de33 73bb
000000e0: deae e23c 98c0 323d ad45 a2bc da6b 8f3c
000000f0: bd26 01bc 9ab2 853d e63c bebc 4871 2c3d
00000100: 5e94 efbb 3b3b 853d 6b11 ca3c 5c04 713d
00000110: cb31 5e3d 0bdb c2bb 5064 5c3d e409 393d
00000120: a8e7 413c 0000 0000 8adb 903c 71eb 963d
00000130: 4077 b63c f42e 123d c6be ec3c 5f1e eb3c
00000140: 66fb 0e3a db36 3b3c 2a31 103c db1a 983c
00000150: 48bb 1ebc c714 093d 0000 0000 c36e 0d3d
00000160: 0000 0000 f65c c13c a1d4 1f3c 88a4 a73c
00000170: d9a9 453d 4301 53bb 3ab7 5c3d 7756 5e3d
00000180: 563c 4fbb 9111 a33c 0ed0 11bc 0000 0000
00000190: 8ebd a43d 881c 13bc bdec 0f3d 30ef 383d
000001a0: 2b17 e83c 197b f23c c14e 94ba 9f3e 7a3c
000001b0: 1a83 153d 306b 393d 233b 4fbb 65e3 423d
000001c0: 6330 1bbc 68b9 d33c c905 aa3b f55c 553d
000001d0: e1af 6e3d 50d4 023d 5230 1f3d 2334 813d
000001e0: 2294 c13c 9b78 753d 5462 373d 1d93 013d
000001f0: 8418 4d3d 1171 7dbc 8cde 37bb cd61 683d
00000200: f619 49bb dd87 7abc 0000 0000 efac f838
00000210: 28bd d23c 1bd3 263d 4cba 943d d51a 69bc
00000220: 343f 503d f52d 713d 321d ad3d 71f1 9f3d
00000230: c40d 08bd 218d ad3c c921 c23c 8d84 d63c
00000240: e5ec 95bc 4e57 633c 7aac 4c3d ed7f 89bc
00000250: f4e3 2f3d ce05 993c 495d bcb7 f769 263d
00000260: 036d e43c a1d2 1b3d c362 a63c 5e7c d53b
00000270: aa88 713c 0000 0000 6094 b7bb 1ce4 aebb
00000280: 89f4 b83c cb4b 4b3d f137 233c b34d 1ebc
00000290: a2a5 473d 37f2 e53c 08b6 753d 787e 4fbb
000002a0: 0000 0000 1969 60b8
0.0 0.05986284 0.036476407 0.018804988 0.017430969 -0.016960885 0.006605703 0.014585111
0.029159853 0.05047534 0.038331028 -0.0009845805 0.03990121 0.016513988 0.019981546 0.04633014
0.0 -0.00033360758 0.024074135 -0.008585309 0.049328066 0.036652878 0.06320229 0.036949683
-0.0059566116 0.010078187 0.025430836 0.049520507 0.022997286 -0.0019180563 0.03904453 0.039273974
0.005319495 0.049006637 0.035187837 -0.00016302805 -0.032631095 -0.017956384 0.08114219 -0.024672214
0.0 -0.0021701702 0.02708559 0.00015743086 0.07353094 0.040356405 0.026481401 0.007831291
0.040744796 -0.006285741 0.040481374 0.0059528355 0.02363793 0.041966632 0.07101412 -0.0037109773
0.027671274 0.043640703 -0.019808615 0.017507482 -0.007882771 0.06528206 -0.023222398 0.04210022
-0.007311388 0.06505438 0.024666509 0.058842048 0.054246705 -0.005946522 0.053806603 0.045175448
0.011835016 0.0 0.01768281 0.07369126 0.02227366 0.03568931 0.028899562 0.028701006
0.00054543314 0.011426653 0.008800784 0.018567493 -0.009688206 0.03346708 0.0 0.03452946
0.0 0.023603898 0.0097552845 0.020464197 0.048257682 -0.0032196797 0.053885676 0.054281678
-0.0031621656 0.019905837 -0.008899702 0.0 0.08043967 -0.00897897 0.03513788 0.045149982
0.02833136 0.029599713 -0.0011314974 0.015273719 0.03650198 0.045268238 -0.0031620942 0.04758014
-0.0094719855 0.025845245 0.005188678 0.052090604 0.0582732 0.03194076 0.03886444 0.063087724
0.023630206 0.05992947 0.044771507 0.03163444 0.050072208 -0.015468852 -0.0028056232 0.056733895
-0.003068564 -0.015291181 0.0 0.00011857773 0.025724962 0.04072867 0.07262096 -0.014227589
0.050841525 0.05888172 0.08452834 0.07809723 -0.033216253 0.02118546 0.02369775 0.026186252
-0.018301437 0.0138757955 0.049969174 -0.016784633 0.042942002 0.018679526 -2.2454786e-05 0.0406284
0.027884012 0.03804267 0.020310765 0.00651507 0.014742056 0.0 -0.0056024045 -0.0053372514
0.022577541 0.04963283 0.009962068 -0.00966208 0.048741944 0.028069599 0.05998805 -0.0031661075
0.0 -5.350364e-05

unknown_4 f4 [102]
00000000: 44ee ca3c 77bb 023d 63fa 633c 4249 803d
00000010: a039 063d 73cb 99bc 443b 583c 2132 4a3d
00000020: 568a e13b 8e09 593d 6972 a23d 9ea0 0436
00000030: 546c a93d 8d15 ff3c ca2e 273d b2dc 143d
00000040: 9dc9 4cbb f5b5 8c3c a0fa 463d 4358 c33c
00000050: 6670 ba3c b33d 4fbb 2c78 693c eacd 973c
00000060: 726f ee3c e08c 803b 069d 303d b1c2 993a
00000070: 0000 0000 7eaf ff39 f78e f33b 6160 383d
00000080: 0000 0000 15ed 063d 0000 0000 d33c 4fbb
00000090: 91e0 5f3d da79 ccbb b337 113d 3cd5 643d
000000a0: ccbf 19bc a184 b43d f278 343d eb3c 4fbc
000000b0: aec3 9d3b 7233 883d becc 803d c852 c63c
000000c0: 6a69 263d 22ba ad3c 68bb a5bc a0c8 6c3d
000000d0: a0c4 853d 6002 8cb9 5ebf 46bb e545 153b
000000e0: ca01 183d 6090 17bc f6b9 4d3d 0661 4abb
000000f0: 4524 013e e24e 65ba c955 913d cfef 4d3d
00000100: 0000 0000 404d 7ebc f5d1 afbb 8902 783c
00000110: 4b38 0ebc 8625 073b 3844 113d cb0b 603c
00000120: 3e13 d83c a369 cf3c d6d2 293d c6a6 7fbc
00000130: ce86 163d 9460 543d 0129 1a3a c316 5e3c
00000140: 9d5f 193d be17 04bb d794 11bc 1b6a c53b
00000150: 37d6 3b3d ca52 5cbb 0200 8c3d 97b3 57bc
00000160: 5dd0 523d b9b4 d23c 6479 e83d 0000 0000
00000170: 2916 153d 2153 a33d 573e 233d 0000 0000
00000180: 45e6 c13c 3609 333d 45ff 5e3d 417a 013d
00000190: 85c4 8dbc b203 823d
0.024771817 0.03191706 0.013914677 0.06263973 0.0327698 -0.01877377 0.013197724 0.049364213
0.006882946 0.052987628 0.07931978 1.9763024e-06 0.08272615 0.031138206 0.040816106 0.036343284
-0.00312481 0.017176608 0.04857886 0.023845797 0.022758674 -0.003162247 0.014249843 0.018530805
0.029105876 0.0039230436 0.0431185 0.0011730996 0.0 0.00048768142 0.007432814 0.04501379
0.0 0.032940943 0.0 -0.0031621947 0.054657523 -0.006240112 0.03545351 0.05586742
-0.009384107 0.088143595 0.044060655 -0.012648801 0.0048145866 0.066504374 0.062890515 0.024209395
0.040627874 0.02120692 -0.020230964 0.05780852 0.06531644 -0.0002670465 -0.0030326466 0.0022777256
0.03711108 -0.00925073 0.050226174 -0.0030880584 0.12611492 -0.0008747411 0.0709644 0.050277527
0.0 -0.0155213475 -0.005365605 0.015137323 -0.0086804135 0.002062173 0.03546545 0.013674687
0.026376363 0.025318926 0.041460834 -0.015603727 0.036749654 0.051849917 0.0005880744 0.0135552315
0.0374447 -0.0020155753 -0.008885584 0.0060246116 0.045858588 -0.0033618682 0.06835939 -0.013165376
0.051468242 0.02572094 0.113512784 0.0 0.036398087 0.0797484 0.039854374 0.0
0.023669371 0.043709956 0.054442663 0.03161073 -0.017305622 0.06348361

unknown_6 f4 [34]
00000000: d406 b53d f0c2 0cbd 57ca 0a3d 6b00 693d
00000010: 2586 28bc dbde 523d fa57 9c3d ee22 d2bb
00000020: 0000 0000 35ee 973d a775 8e3d a578 733d
00000030: 6a32 20bd 5eb0 463d be0f 34bc 5b49 173d
00000040: 3f79 cb3c 0a64 943d 10c7 ff3c 2b89 813d
00000050: 0000 0000 170e 1dbc 97c1 903c 4783 133d
00000060: 62fb db3c 40e2 44bc 4e28 af3d d0f2 993d
00000070: 552e 413d b689 0d3d 8234 abbb 1d3c cfbb
00000080: d870 213d 2cc4 7f3d
0.08839193 -0.034365594 0.033884373 0.056885164 -0.010285889 0.051482063 0.07633968 -0.0064128553
0.0 0.07418481 0.06956034 0.059441227 -0.03911058 0.04850804 -0.010990081 0.03693519
0.024838088 0.072456434 0.03122285 0.06324991 0.0 -0.009585879 0.017670436 0.036013868
0.026853267 -0.012016833 0.085526094 0.07517016 0.047163326 0.03455516 -0.0052247653 -0.0063243047
0.039414257 0.062442943

unknown_8 f4 [16]
00000000: d0b2 213d c69e 1bbd ff51 6ebd fc52 02be
00000010: d678 13bf 821f 12bf 6a9a 1dbf d031 1fbf
00000020: fd4e 20bf e5ff 1dbf bfcf 09bf fde6 24bf
00000030: d125 13bf 18af 1fbf c366 14bf 056a 16bf
0.03947717 -0.037993215 -0.058183666 -0.12726969 -0.57606256 -0.5707933 -0.6156374 -0.6218538
-0.62620527 -0.6171859 -0.5383262 -0.6441496 -0.5747958 -0.62376547 -0.579693 -0.5875552

sequential/dense/MatMul;StatefulPartitionedCall/sequential/dense/MatMul f4 [34, 34]
00000000: 1742 5dbe 03ea f8bd f941 8f3e 653e 163d
00000010: 3981 80bd 3820 8bbe 7de7 973e 11b6 d63d
00000020: f787 61be 8acf 43be 3a71 3abe 7695 6a3e
00000030: c63f 343e 8ba5 c8bd efa0 8e3e ab3d 18bb
00000040: 8b3b 28be 3da7 88be f5dd aabe 5e28 55bd
00000050: bd72 223d 0197 4ebe 0359 bebb ebaa 3f3e
00000060: 4421 3a3e d08f e4bd 7ce4 bebd 2f4c 703e
00000070: c351 023e 922b b03e 609f 88be f696 90be
00000080: 1cbb 31be 433c b03e ff48 12be 674d 8e3c
00000090: 355b 103d 18db bdbd a911 3abd 838c 38be
000000a0: 8a07 813e 31e0 c13d a5ed b83e e8ec b63d
000000b0: f722 723e 68f9 9f3e bced 69bd be74 82be
000000c0: b099 583e 5dad 4fbe 38ac 31bd 0bc3 903e
000000d0: 1de1 76be fe26 3b3e b13b 79be 998e 0ebd
000000e0: 7ba7 87be 7283 9e3e 70c6 3d3e 9840 4ebe
000000f0: 0365 e23d a497 5fbe 90cf 73be cffa 89bd
00000100: 0259 e5bd 1c0b 2f3e ed3d c73d 50d1 8e3e
00000110: b4a1 043e b189 5cbd 3640 8f3e 3a5c 873e
00000120: a5da 79bd eb71 973e 51d9 5cbd 9008 823e
00000130: 7a01 4b3e 1c37 5bbe 4e88 a9be f931 86bc
00000140: fdca 6f3d dc0e 86be a492 00be a010 4b3e
00000150: aae3 89be c849 d53d cedf 40bd 8708 50bd
00000160: b495 6f3e c4a2 713e 5e60 fd3d be0a 033e
00000170: af53 dfbd 1318 33be 5b45 563d 9d60 7e3e
00000180: 77a9 2a3e b00e 8bbe 7658 19be e23d f9bd
00000190: dac4 483e 09e9 013e a960 c5be 5cf2 193e
000001a0: 1d4c b6bc be16 123e 65cf 573e 50ea 5bbd
000001b0: 8767 f33d 97da f6bd 6f52 7a3d 90da 303d
000001c0: 445a 9d3d ba22 52be 85c8 2fbe 7f80 653c
000001d0: 874f 25bd a38d 69be 0d5f 643e e648 b9be
000001e0: 0cf9 04be 7a15 a6be 12c3 ee3d 8242 a53c
000001f0: 3724 6d3c 3aa2 f73d f740 16be bcf1 21be
00000200: 5f86 933e b7fe 123e 93dd 903e c307 523e
00000210: cfd2 3e3e 7eac 543d dd5a 2f3e 326f 15be
00000220: c851 e6bd 0084 fa3d c873 9abc bd0d 83bc
00000230: 2f8e ff3d 9fd8 83be 9715 a43e dd9a 9bbe
00000240: cc55 61be babc 673e cd50 883d 21d2 3bbe
00000250: 5b01 fd3a 2d46 1a3d ba43 63be 858b 1e3d
00000260: dc11 8ebd dc6b 6c3e 0ca5 e8be 089d 483e
00000270: eedb 903d 9ba9 0bbe 776d b63d 26b7 223e
00000280: 1489 8d3e b9ae 8fbe 840e 3c3e 3a05 7ebc
00000290: 0f25 243e 4e71 233a 157f 72be de6d b1be
000002a0: 0d2b dd3d 1d53 c73c c6a4 b9be 0e3c 4fbe
000002b0: 4e4d 0f3e 20da 0a3e 5725 733e c217 75bd
000002c0: a0f1 84be d593 183e 52d1 b33d 5852 d8ba
000002d0: 7a7d f6bd 362e 73bd 6350 663e 753f 1a3e
000002e0: f2ef 9b3e c764 0e3e e21d d23d 1346 88be
000002f0: 9799 783e 9bdd 9dbd 645c f23d 75cf 8bbe
00000300: 981c 27be a18b 723e 5ebd 003e 3d18 7d3e
00000310: c346 39be 1aa9 873e a27f a33c f2ce 62be
00000320: 7f32 f1bd 5471 13be 13ce 30bd e786 03be
00000330: 6330 ba3d 2469 c73c 78a0 b3bd aeed 673e
00000340: 4445 58be 52a4 0ebe 9b84 bc3e 96b0 67be
00000350: 1119 51bd 3592 993d a27d 303e a02e 65be
00000360: 92f2 0b3e a812 5a3d 47e7 963e 476a 353e
00000370: 690e 0e3d 1bb7 8b3d f9eb 2cbe 9870 b1bd
00000380: d2e4 3a3d c908 d13d aecc 29bd 661b 0ebd
00000390: 1763 5cbe c509 54be aada 6e3e 5391 3bbe
000003a0: 84c1 7ebe 8347 09be 9ce6 953d 21f1 b23e
000003b0: c8ca a83e 791d 97bd 6633 093c ea97 0a3e
000003c0: cb89 ab3d c799 683e dda2 3bbe 795d 343e
000003d0: 6d11 b13d b872 4c3e bae3 11be 0c2f 883e
000003e0: 686e 803e bbee 41be d996 7bbd 36f4 9cbd
000003f0: d8ff 6bbc 5658 c6bd 1d14 7dbe a4bf 3e3e
-0.21607243 -0.12154009 0.2798002 0.036680598 -0.06274647 -0.27173018 0.296688 0.10483945
-0.22024523 -0.19122139 -0.18207255 0.22908577 0.17602453 -0.097972 0.27857158 -0.0023230116
-0.16428964 -0.26690093 -0.33372465 -0.05204045 0.039660204 -0.20174791 -0.005808951 0.18717544
0.18176752 -0.111602426 -0.09320924 0.23466562 0.12726502 0.34408242 -0.26684093 -0.28240174
-0.17356533 0.34420976 -0.14285658 0.017370893 0.03524323 -0.092703044 -0.045427 -0.18022351
0.25201064 0.09466589 0.36118808 0.08931905 0.2364615 0.3124497 -0.057111487 -0.25479692
0.21152377 -0.20280977 -0.04337713 0.28273806 -0.24109311 0.18276593 -0.24339177 -0.03480396
-0.26494965 0.3095966 0.18532729 -0.20141828 0.11054423 -0.2183519 -0.23809648 -0.06737291
-0.111986175 0.17094082 0.09728608 0.27894068 0.1295231 -0.05384225 0.27978677 0.2643755
-0.06099953 0.295791 -0.053918187 0.25397158 0.19824782 -0.21407741 -0.33111805 -0.01638125
0.058543194 -0.26183212 -0.12555939 0.1983056 -0.26931506 0.10414463 -0.047088437 -0.050789382
0.23396951 0.23597246 0.12371896 0.12797067 -0.10904633 -0.17489652 0.052312236 0.24841543
0.16666208 -0.27159643 -0.14975151 -0.12170006 0.19606343 0.12686552 -0.38550308 0.15033859
-0.02225309 0.14266488 0.21075208 -0.053690255 0.11884981 -0.120534115 0.06111377 0.043177187
0.076832324 -0.2052106 -0.17166336 0.014007687 -0.040359046 -0.22807936 0.22301884 -0.3618843
-0.12985629 -0.3243826 0.116583005 0.020173315 0.014473966 0.12091489 -0.1467322 -0.1581487
0.28813455 0.14354979 0.28294048 0.20510773 0.18635105 0.051922314 0.17124505 -0.14593199
-0.11246067 0.12232208 -0.018854037 -0.015997762 0.12478291 -0.25751206 0.32047722 -0.3039159
-0.22005385 0.22630587 0.066560365 -0.18341877 0.0019302772 0.03766458 -0.22193804 0.038707275
-0.06937 0.2308802 -0.4543842 0.19591153 0.07073198 -0.13638918 0.089075975 0.15890178
0.27643645 -0.2806299 0.18364912 -0.015504176 0.16029762 0.000623484 -0.2368129 -0.34654135
0.10799227 0.024331624 -0.36258525 -0.20237753 0.13994333 0.1355977 0.23744713 -0.05983711
-0.25965595 0.14900143 0.08780159 -0.0016504033 -0.120356515 -0.059370242 0.22491603 0.1506327
0.304565 0.13905631 0.10259606 -0.26615962 0.2427734 -0.077082835 0.11834028 -0.27306715
-0.16319501 0.23686077 0.12572238 0.24716277 -0.180934 0.26496202 0.019958321 -0.22149256
-0.117772095 -0.143987 -0.043165278 -0.1284443 0.0909126 0.024342127 -0.08770841 0.22649261
-0.21120173 -0.1392987 0.3681992 -0.22625956 -0.051049296 0.0749859 0.17235425 -0.22381067
0.13666752 0.05324045 0.29473326 0.17716323 0.03468171 0.06822034 -0.16886891 -0.08664054
0.045628376 0.10206754 -0.041454963 -0.034694098 -0.21522175 -0.20706852 0.23325601 -0.18317156
-0.24878508 -0.13406186 0.07319376 0.34949592 0.3296721 -0.07378668 0.008374071 0.13534513
0.08375891 0.22714911 -0.18323846 0.17613782 0.08645902 0.19965637 -0.14247027 0.26598394
0.25084233 -0.18938725 -0.061423156 -0.07663767 -0.01440426 -0.096848175 -0.24714704 0.18627793

sequential/dense_1/MatMul;StatefulPartitionedCall/sequential/dense_1/MatMul f4 [170, 34]
00000000: b8ad 473d 0050 87b8 c11e 03be a086 72bc
00000010: fc48 c6bd 7106 1d3e b886 793d c223 6ebd
00000020: cc95 47bd 6067 e1bd 308a cabc e990 153e
00000030: 082d f1bd f04d 3e3c 8abf df3d 3462 0b3d
00000040: 4236 af3d 60b5 71bd e646 ac3d 6faf c6bd
00000050: b634 ccbd 8e0a 993d 7083 eabd ca65 2cbe
00000060: 032c abbd e9c9 2ebe 694e c1bd 676d 28be
00000070: 793f 2fbe 05bb 083e 68bd 753d 47f4 bebd
00000080: b823 bdbc b07f 663c e4ff 173e 27a7 40bc
00000090: 6ef3 e7bd dfc6 273c 92fd 34be debe 8d3e
000000a0: ddcc 0c3e f3ed 353d 9878 a0bd 4560 473e
000000b0: 3194 493e ea19 0d3d cbaa 113e 7660 e33c
000000c0: 9a0a 8a3e b8d3 e9bd 0bea 98bd 2036 173d
000000d0: bba1 f53d aa92 023e 4654 a7bd 4923 e23d
000000e0: fec4 623e 8c04 b23d 3e2a 7a3e bca2 373e
000000f0: 5529 ec3d 667c 9cbd ddba 773d c9d7 b1bd
00000100: 385a a13e a861 283d 4517 1d3f 37f4 8ebe
00000110: 778a 053d 9b38 aebe b6a9 863d 5068 2bbe
00000120: 9bc5 cebe 1f00 b03d dd7e 88be 4710 143e
00000130: 0e62 143e 93d0 1c3d 3298 56be c608 45be
00000140: 08c1 4dbe ac98 e1bd 5835 efbc a197 bbbd
00000150: 8cc6 783d f85a 1b3d 97fd 9ebc 9ed8 903e
00000160: 88cf c63e c27b 02be 8b41 14bd 328d 443e
00000170: c6dc 4abd d62a afbe 5f7f 0c3e 0df7 4ebe
00000180: 098a d3bd 61d8 12be db89 b5be a4a6 d63d
00000190: 8c0b ecbe b077 5bbd 0cab 633e 6faf b2bd
000001a0: b160 7abd bfdb 71bc a404 b9be 3d0b 583e
000001b0: f097 96bd 0019 bebd 7169 5e3e 03a8 363e
000001c0: c18a 3ebe 7605 253e ea22 8cbe 5544 63be
000001d0: e876 273e 8a60 36be 0aa9 10be 647a 9cbe
000001e0: eb7d 64bd 61f1 d4bd 7a1c 60be 097e 57bd
000001f0: 4475 033e 4bb4 e53c 9c9f 0c3c 4278 783e
00000200: 7c69 993e 15ac 48be f447 2b3e 11be db3d
00000210: c4fb c23d d73f 56be ed44 0f3e 39ee d6bd
00000220: 0549 0e3e bc5c 28be 4114 5abc 4f73 ce3d
00000230: db88 7cbe 3dc7 fa3d 14dc 42be 4e68 363b
00000240: 52df 993d 4922 223e f8a9 643d 1415 cbbe
00000250: b620 0a3d 1c0c d0bd 37a3 3d3b bd47 ac3d
00000260: 2dd7 323d 9e4a 73bd 8e42 dabc d224 d03e
00000270: 6668 953e 46a2 45be 8b00 6b3c 7dd7 7639
00000280: 2e6c 953d 1026 f5be c81d d03c 2758 0dbe
00000290: a452 823d c21a 99bd 4314 39be 8d1e 8e3e
000002a0: 5756 eb3d 40e0 21be a13b f6bc bf72 b5bd
000002b0: 29e9 c73d 0a76 50bd 4532 ebbc 3187 b0bd
000002c0: af8c 2c3e 8790 0abe 226d 3abe 2e88 1dbe
000002d0: 98f0 12be a6f6 673e 089f 13be 22e0 343e
000002e0: a57c 49be af91 c0bd c5a6 39bd 26df 623e
000002f0: 9e9a 39be 2e6a cabd e31e 8d3e d0c9 59bd
00000300: 8e2c 2dbd 6250 a3bd 1afa e03b 38e3 1bbe
00000310: 659b d9bd c57d acbd ff02 4fbd 2c23 b83d
00000320: 1301 e9bd 38fe eabd 5678 0ebf 2d03 913e
00000330: cee2 26bc 5896 233e ecd0 d83d 1183 283e
00000340: 5956 883e 5600 7ebe 7c63 f93d 1427 3f3e
00000350: 4ca6 563d cf58 0abe 0d52 dfbe 388a 913e
00000360: 2375 b13d 6cf7 d3bd 58ad 353b 7a46 4c3d
00000370: b465 34be 0a7c 75bc 9d91 193e 6e10 61be
00000380: a2c3 cfbe 7d9b 253e d3f2 0b3e 81a0 f3bd
00000390: 2d3a 223d 2286 ec3d ce71 0dbe 3496 3e3e
000003a0: 7cf4 193e e061 21bd c265 cd3d 04ba 02be
000003b0: b500 e2be c6dd 0bbd 0943 1d3e a9bd 413d
000003c0: a634 993c 99d5 223d 1aae c6bd 70c2 0d3e
000003d0: 71c4 573d c70c 38be 2f10 ae3c 34d7 903c
000003e0: aa4b 083e d1f6 97be 26d4 77ba 690e 0bbe
000003f0: 0960 af3d 1a6b cbbd 683e 05bd 1aef d83d
0.048749655 -6.452203e-05 -0.128047 -0.014802605 -0.096818894 0.15334488 0.060919493 -0.05813957
-0.04872684 -0.11006045 -0.024724096 0.1460606 -0.11776167 0.011615261 0.10925205 0.0340292
0.08555271 -0.059010863 0.0841196 -0.0970143 -0.09970991 0.07472716 -0.11450851 -0.16835704
-0.08358004 -0.1706921 -0.09438784 -0.16447984 -0.17114057 0.13352592 0.059995085 -0.09323936
-0.023088321 0.014068529 0.14843708 -0.011758602 -0.113257274 0.010240286 -0.17674854 0.27684683
0.13750024 0.04441638 -0.078355014 0.19470318 0.19685437 0.03444854 0.14225309 0.027755957
0.26961213 -0.11417335 -0.07466515 0.036916852 0.11993738 0.1275126 -0.08170371 0.11041886
0.22145459 0.086922735 0.24430177 0.17933172 0.11531321 -0.076409146 0.06048094 -0.08683736
0.31514144 0.041108757 0.6136363 -0.27920696 0.032602753 -0.34027562 0.065753385 -0.16739011
-0.40385136 0.08593773 -0.2665929 0.14459334 0.1449053 0.03828485 -0.20956495 -0.19241628
-0.20093167 -0.11015448 -0.029200241 -0.0915978 0.060736224 0.03792855 -0.01940803 0.28290266
0.3883021 -0.12742522 -0.03619532 0.19194487 -0.049526952 -0.3421237 0.13720463 -0.2021143
-0.103290625 -0.14340355 -0.35456738 0.10481003 -0.4610256 -0.05358094 0.22233218 -0.087248676
-0.06112737 -0.014761864 -0.36136353 0.21098037 -0.073531985 -0.09282112 0.2171991 0.17837529
-0.18607618 0.16115364 -0.27370387 -0.22194035 0.16353953 -0.17810264 -0.14126983 -0.30562127
-0.055784147 -0.10397602 -0.21885863 -0.05261043 0.12837702 0.028040072 0.008582976 0.24264625
0.2996329 -0.19596894 0.16726667 0.10729612 0.09520677 -0.2092279 0.13991137 -0.10494656
0.13895042 -0.16441625 -0.013310493 0.10080587 -0.24661581 0.12245033 -0.19029266 0.0027833167
0.07513298 0.15833391 0.055826157 -0.3966452 0.0337226 -0.1015856 0.0028936395 0.084121205
0.04366224 -0.059397332 -0.026643064 0.40653092 0.29181212 -0.19300184 0.014343391 0.00023540664
0.07296024 -0.47880602 0.025404826 -0.13803159 0.06363419 -0.07475807 -0.18074135 0.27757683
0.114910774 -0.15808201 -0.03005773 -0.08859777 0.09761269 -0.05089382 -0.028710494 -0.08619536
0.16850542 -0.13531695 -0.18205693 -0.1538398 -0.14349592 0.22652683 -0.14416134 0.17663625
-0.19676454 -0.09402787 -0.04532506 0.22155437 -0.18125388 -0.098835334 0.27562627 -0.05317098
-0.04227882 -0.07974316 0.006865752 -0.15223396 -0.10625342 -0.08422426 -0.050539967 0.089910835
-0.11377158 -0.1147427 -0.5565237 0.28322735 -0.01018591 0.1597532 0.10586724 0.16456248
0.26628378 -0.24804816 0.12177178 0.18667251 0.052404687 -0.1351044 -0.43617287 0.28425765
0.0866492 -0.10349926 0.002772173 0.0498719 -0.17616922 -0.0149831865 0.14996953 -0.21978924
-0.40578943 0.16172595 0.13666849 -0.11895848 0.039606262 0.11549021 -0.13812944 0.18611985
0.1503467 -0.03939998 0.100291744 -0.12766272 -0.44141164 -0.034147047 0.15357603 0.047300015
0.018701863 0.039754484 -0.09701176 0.13843703 0.052677575 -0.17973624 0.021247951 0.017680742
0.13310114 -0.29680493 -0.0009453915 -0.13579716 0.08563239 -0.099325374 -0.03253022 0.1059248

sequential/dense_2/MatMul;StatefulPartitionedCall/sequential/dense_2/MatMul f4 [102, 170]
00000000: 3ed0 b93d d0d0 823e 27f2 aebe f938 013e
00000010: 38cf 38be 0b23 88be e960 93bd a8fe d53d
00000020: 4f14 28bd 1db5 12be 3031 843e dbd9 d73b
00000030: 6422 033e 07e5 08be b1ba f93d 3208 b83d
00000040: dadb bdbd 4f63 363e e61c 513e 353d 2dbd
00000050: eb44 0bbe b0a2 2abe 829e 76bc 46b0 d4bc
00000060: b387 ea3b b6d9 92bd 2ede 853e 9eea 263e
00000070: 3383 17be e9bd 65bd 8a6e 4a3e 0d90 6abd
00000080: e1e7 59be 42b5 473d 80db f7bd 05f4 743d
00000090: 34ee 0e3e 1055 2a3c 2bc4 ad3e dbdd 143d
000000a0: 44e6 013e f226 683e 3121 223d 8f45 1abd
000000b0: 90c7 8d3e 73a1 ffbc d4dd 883d ffb4 00bb
000000c0: 0bb4 80be b426 c63c 4533 c6bd 7066 023e
000000d0: 87a6 d5bd 4bec 693e 71b0 52bd 0943 63bd
000000e0: 62a6 09bd d5af 243e 349a e1bd 852b e2bd
000000f0: 50ea b1bd e933 bc3e 8ea9 0a3e 279c f7ba
00000100: 411c abbd 790e 9abe f639 f73d d648 223e
00000110: 425d a1bd 3f58 08be 3874 263d f74c 303e
00000120: 7ddf ef3d 382a d83d 855f e13c d73e 133d
00000130: 0b28 94bb fd66 023e 6a78 8f3d a45b 87be
00000140: b694 86bd 4842 4f3c 1cc1 033a 4438 e3bc
00000150: de3e 17be 7211 f23d 7040 153e 3cd4 b03d
00000160: a835 c83c 09c6 523c 40e5 6dbd 7e68 22bd
00000170: 6533 a93e 2f45 77be 7d78 793e 92fc 083d
00000180: 4c09 cebd 370f c7bd 9447 863e c0cd 5c3d
00000190: 2cd8 03be 49e7 0d3e 72d8 023e 9167 adbd
000001a0: 438a eabd 2a75 473e 2468 063d 3edf 16be
000001b0: 0ee7 7b3e ad8c b7bd 5d22 e13d fa91 073d
000001c0: 3f19 03be c72f f33d b8cf c4bd 5b5d 243d
000001d0: 6eb1 12be 4e21 a83c 4ea6 0c3d 9fe4 b5bd
000001e0: dae9 aa3d 8edc 273c a683 cfbd ec32 a9bd
000001f0: 0db3 083d b923 e3bd 090d 243e 9c84 ed3d
00000200: 6136 e73d 4bae de3d 2804 a33d b754 dd3d
00000210: ef97 2a3e 2340 c43e 22b9 1b3e 7d9c 1b3e
00000220: d532 8a3e c853 efba 19dc 5ebe 7fd7 4fbe
00000230: b000 473e 0116 873e 0efc 753e ec74 313d
00000240: 586d b83d 89da 143d 4005 253e e937 f63d
00000250: b365 683e 8300 9d3d 9a55 5c3e 6574 a33d
00000260: 5ec5 f83d 9744 42bd 369a 7d3e 1d51 1a3d
00000270: 55f9 993d a8dd 6c3d 982d 113e 4b7d 27bd
00000280: bc4e 173e 1039 043e e241 3f3d a3c1 903d
00000290: 0802 393e e0d0 6cbd bb5e 7f3e 8734 07bd
000002a0: ae6c 053e 7635 013e f2d8 bb3d c66f 413e
000002b0: 0c4e 6e3e 6743 153c f7ef 6c3d 24da 323e
000002c0: bd58 973e a55d 03be 53e6 223e 07fc 3e3d
000002d0: c992 a13e 60ee a83d 03ea 2f3d 2ee4 1b3c
000002e0: f70e 223d 125f b03e 6248 b83d 8f81 153e
000002f0: 5baf 583c a126 603c b844 29bd f04f 26bd
00000300: 7c0c 6c3e 6e53 5b3d fc0c fd3c d52f 503c
00000310: 3813 2abd a2e0 86be 9701 68be 84c3 853d
00000320: ffd7 1f3e 6e36 41be 149c db3d 0707 403e
00000330: ed4e 16bd 9e10 02be c8f2 463d df14 033e
00000340: 287e 953e 8355 c23e cce9 5d3d 0939 683e
00000350: e833 55bd a106 a8bd dc77 ba3c 8ec5 2b3e
00000360: 87e3 853d ec42 3f3e 72b2 823c fd03 033e
00000370: f883 be3d 84b5 e1bc 7465 1c3c a05e 3c3e
00000380: f65c fbbd 494e 9b3d 5dc0 a1bc 3538 8a3e
00000390: b3bb cb3d 799d 1a3e 6a5e 533d 9ee1 fc3d
000003a0: a772 05be 3806 ca3d ed90 dab9 805f 3cbe
000003b0: fd27 0e3e 4aa7 103e 5e43 423e 1901 88bd
000003c0: fc4f fa3d eb2d 823e 92ab 22be 7af7 52bd
000003d0: 67f4 d43d 7ae0 cc3c 1935 cb3d cfee f83d
000003e0: 9919 693c 732e 67bd 8bd4 edbd 3dd2 1abe
000003f0: 5a18 eb3d 3ccd 363e 3da7 b5bc f080 b53c
0.09072922 0.25549936 -0.34169123 0.1261939 -0.18047798 -0.26589236 -0.071962185 0.104489625
-0.041034993 -0.14326902 0.25818777 0.0065872497 0.12806088 -0.13368617 0.12193812 0.08985938
-0.09270449 0.1781132 0.2042118 -0.0422947 -0.13600509 -0.16663623 -0.01505244 -0.02596296
0.00715729 -0.07170431 0.26146072 0.16300437 -0.14796142 -0.056089316 0.1976873 -0.057266284
-0.21279861 0.048756845 -0.12102413 0.059803028 0.13958055 0.010396257 0.33938727 0.03634439
0.12685496 0.22671106 0.039582435 -0.037663992 0.27691317 -0.031204915 0.06682935 -0.0019639132
-0.25137362 0.024188377 -0.09677748 0.1273439 -0.10432153 0.22844045 -0.0514378 -0.05548385
-0.03360594 0.160827 -0.1101574 -0.11043457 -0.0868727 0.36758354 0.13541242 -0.0018891142
-0.083549984 -0.30089167 0.12071602 0.15848097 -0.07879116 -0.13314913 0.04063818 0.1721686
0.11712549 0.105549276 0.027511368 0.0359486 -0.004521375 0.127346 0.07005389 -0.26437104
-0.06571333 0.01265008 0.0005026029 -0.02773679 -0.14770076 0.11819734 0.14575362 0.086342305
0.024439648 0.012864598 -0.058079958 -0.039650433 0.33047023 -0.24147485 0.24362369 0.033443995
-0.10060367 -0.09719699 0.26226485 0.053907156 -0.12875432 0.1385776 0.1277788 -0.08467019
-0.114521526 0.19478288 0.03281416 -0.14733598 0.24599859 -0.08962379 0.109928824 0.0330982
-0.128026 0.11874347 -0.09609932 0.040128093 -0.14325497 0.020523693 0.034338288 -0.08881497
0.08345385 0.010245455 -0.10132532 -0.08261666 0.03337388 -0.11090798 0.16020598 0.11597559
0.11289669 0.108730875 0.07959777 0.10807174 0.1665952 0.38330182 0.15207341 0.15196414
0.26991907 -0.0018259222 -0.21763648 -0.20297049 0.19433856 0.26383975 0.24021932 0.043324396
0.09005231 0.036341224 0.16115284 0.12022383 0.22695045 0.07666113 0.2151703 0.07981185
0.1214702 -0.047428694 0.24765858 0.037675012 0.075182594 0.057828575 0.14177549 -0.040890973
0.14776129 0.12912393 0.04669369 0.07068183 0.18067181 -0.057816386 0.2493848 -0.03300908
0.1302974 0.1261805 0.091722384 0.18890294 0.2327196 0.009110308 0.057846036 0.17466027
0.2955989 -0.12828691 0.15908174 0.04662707 0.315573 0.082485914 0.04294778 0.0095148515
0.039565053 0.34447533 0.08998181 0.14600204 0.013225402 0.013681085 -0.0413253 -0.040603578
0.23051637 0.05354636 0.03088998 0.012706717 -0.041522235 -0.26343256 -0.22656856 0.06531432
0.1560974 -0.1886842 0.10723129 0.1875268 -0.036696363 -0.12701651 0.048571378 0.1280093
0.29197812 0.37955865 0.054178044 0.22678007 -0.052051455 -0.08204389 0.022762232 0.1677458
0.06537538 0.18677872 0.01595423 0.1279449 0.09302515 -0.027552374 0.009545673 0.18395472
-0.1227359 0.07583291 -0.019745046 0.26996008 0.0994791 0.15099134 0.051603712 0.123477206
-0.13032018 0.098644674 -0.00041688178 -0.18395805 0.13882442 0.14126316 0.18971011 -0.06640834
0.12222287 0.25425658 -0.15885761 -0.051505543 0.103981785 0.025009383 0.09922237 0.12154924
0.014227294 -0.05644078 -0.11612805 -0.15119262 0.11479254 0.17851728 -0.022174472 0.022156209

sequential/dense_3/MatMul;StatefulPartitionedCall/sequential/dense_3/MatMul f4 [34, 102]
00000000: 10f9 2fbe 7a48 9ebd 0f1e b6bd 00f5 4e3e
00000010: 80e0 263d 6388 7ebd a1a4 7abd b14f d03e
00000020: ca97 d8bd ff24 793d 6015 123f 951a f53d
00000030: 3eb6 1f3e db0e 8b3d 2374 8a3e 8943 84be
00000040: c3fe c9bd 1e43 30be 5012 8f3c fce3 b73d
00000050: 2b27 153e fb57 f23d d649 dd3a f88d a0bd
00000060: 3f9c 6d3e 6a47 8bbe 5df2 493d 5d66 7ebe
00000070: 40ac e7bb 81ac 60be 52bc cc3e fd5f 60bc
00000080: 8878 f7bd f07c 103d 1c9c 0dbe 3ae1 fd3d
00000090: 39be 5f3e c52c 08be e635 e43d 47de 263e
000000a0: 937a 103e e33c ccbd fabc 043b f6cd 92bd
000000b0: 038c 22be ea9c d23d 3d1f 0a3e 6e2e 10be
000000c0: 0d5f 5a3e 867b 3a3d b28f 3fbd d5af c93e
000000d0: b422 f03e b0a9 513e cc27 b3bc 2856 5dbe
000000e0: c677 aa3e 6158 cbbd ba96 0cbe 4364 26be
000000f0: c81d 8b3e 0f75 693d 2864 103f ff47 32be
00000100: ea3c 27be 710c a4bd 0a81 0d3e 30bd 033e
00000110: 7654 e43d 02c3 053e cf7f 0a3e 0715 08be
00000120: 9a4f 4e3e 2fbf 143e 1dba a83e f021 d6bd
00000130: fd80 8f3e cacd 2c3e e402 683d 2e2c e03d
00000140: 2858 2bbc 11a3 333e 59af ff3c 10ae 4bbd
00000150: 02a3 2bbe 1047 903a 5c2a 9d3e 746f 72bd
00000160: d758 003f 68ad d53d e497 5b3e 7778 223e
00000170: 054f a83c fa93 cd3e 682d b0bd 339e c7bd
00000180: a8da 113c 3cc5 803e 3027 9bbd 7f51 1bbe
00000190: 4fef 02be 1ac9 be3c 08aa 5e3e b509 83be
000001a0: a769 a53c 4522 623e 7598 01be 585c 3abe
000001b0: 8549 0fbe 6a6f 883e 04ce 98bd eead c8bb
000001c0: 2b7f 783e 8cf5 3abe 2044 aa3e 612e b83d
000001d0: 66dd 82be 51b8 44be d307 2f3e 7f60 743d
000001e0: 0416 773d 5c90 bdbc 9273 97bd 7473 853b
000001f0: 42e3 62be 4318 3ebd 59bd 663e 313c d7bd
00000200: 62a7 81bd 8290 133e 26a1 fc3d d712 2cbc
00000210: e536 ae3e dfe0 513e e380 e6bd 2345 9c3d
00000220: 43fc 1f3e 79e2 8fbd e3f8 65be 97a4 fe3b
00000230: f5c3 173e 169a 5fbe 9f6b c0bd 8c4b 8ebe
00000240: b4a5 d63d 2cc7 e0bd 6dc9 4fbd cb0f a23e
00000250: d8c0 5a3e 0fd8 cabd f54e 803d d2c7 1dbc
00000260: 55bc db3c af9c 823e 05a7 183e 493a e1bd
00000270: e4bb 1cbe 8f88 d3bd bc0d c2bd b7da e73d
00000280: 739c d03d 083a e13d 5753 813c 739d d73d
00000290: c0fd 8f3e 3ed5 4bbe be86 1ebe d226 97bd
000002a0: 40b5 3b3e 0277 943e 001c f7bd 3ab9 48be
000002b0: 382a 963e 33b5 1d3e e8f0 dbbb 6b49 823e
000002c0: c53e 7e3d e378 c3bd 751e 433e 9ad4 e53c
000002d0: f5a7 22be a514 8b3e 09aa 88be df8b 103e
000002e0: 09b8 06be b12b 8a3e 68aa e03d 7596 23be
000002f0: 7e9f fc3d 861c 0ebb 61a0 483d 33af 08bd
00000300: b1d2 39bd 14db 1fbe a43a 56be 5c3b 9dbd
00000310: 2dd3 f9bd de96 ce3d d77a 9c3c de7f 06be
00000320: 2fd4 a7be 0329 533d 7c00 543d 2d06 85be
00000330: 7ce6 9e3e 633d 5dbd 7d35 ef3c 6729 d73e
00000340: 863e f43d ae71 183e f5c3 40be c024 9f3d
00000350: b4db a03d 24e9 4c3e 460e 913d 3484 5cbd
00000360: 50d8 993e bcbd 3dbd 4154 7b3e d513 493e
00000370: 3068 603d 74db bc3d 7525 ef3d d793 653e
00000380: a2de 9ebd 3d20 443d cfb4 18bd 341e 143e
00000390: cf8f 243e 6428 9dbd ea85 57bd 2311 17be
000003a0: e1e9 55be 41ad 9d3d 9344 06be bc77 a63d
000003b0: 292e 013e 655b 3ebe 1f1c 113e 9bbc b43d
000003c0: 90b7 59be 0399 a43d d7e1 8fbe d482 063e
000003d0: 3a48 d33d e51c 723e 4474 033e 2500 333e
000003e0: 9758 4fbe f78a 9e3e afe1 243c d64a 783e
000003f0: 57a1 633e f3a7 273d de58 b93d 5897 813d
-0.17184854 -0.077286676 -0.08892452 0.20210648 0.040741444 -0.062141787 -0.06119216 0.406858
-0.105758265 0.060826298 0.57063866 0.11967961 0.15596864 0.06789943 0.2704173 -0.25832775
-0.09863045 -0.17213103 0.017464787 0.089790314 0.14565723 0.11833187 0.0016882967 -0.078395784
0.23204134 -0.27202922 0.0493034 -0.24843736 -0.0070700943 -0.21940805 0.39987427 -0.01369476
-0.120835364 0.0352754 -0.13829082 0.12396474 0.21849908 -0.13298328 0.11143093 0.1629573
0.14109258 -0.09972551 0.002025424 -0.0716819 -0.15873723 0.10283835 0.13488479 -0.14080212
0.21325321 0.045527957 -0.046767898 0.39391962 0.46901476 0.20474887 -0.021869563 -0.21614897
0.33294505 -0.09928966 -0.13729373 -0.16249184 0.2717116 0.0569964 0.56402826 -0.17410277
-0.1633183 -0.080101855 0.13818756 0.12865138 0.11148922 0.13062671 0.13525318 -0.13289271
0.20147553 0.14526056 0.32954493 -0.10455692 0.28028098 0.16875377 0.05664338 0.109459266
-0.01045803 0.17542674 0.031211542 -0.049726546 -0.16761401 0.0011007506 0.3069638 -0.05918832
0.5013556 0.10433465 0.2144466 0.15866266 0.020545492 0.4015196 -0.086024106 -0.09746971
0.008902229 0.25150478 -0.07575834 -0.15167807 -0.12786601 0.023289252 0.2174455 -0.25593343
0.02019198 0.22083385 -0.12655814 -0.18199289 -0.13992889 0.26647502 -0.07461169 -0.0061242497
0.2426726 -0.18257731 0.332551 0.08993221 -0.2555954 -0.19210936 0.17092828 0.05966234
0.06032373 -0.023140125 -0.0739509 0.004072601 -0.22157004 -0.046409857 0.22533168 -0.105095275
-0.06330754 0.14410594 0.12335424 -0.010502539 0.34026256 0.20495938 -0.11255052 0.07630374
0.15623574 -0.07025618 -0.22458224 0.0077710855 0.14820845 -0.21836123 -0.09395527 -0.27792013
0.10480824 -0.10975489 -0.050729204 0.31652674 0.21362627 -0.09904491 0.0626506 -0.00963016
0.026823202 0.25510165 0.14907463 -0.10997445 -0.1530605 -0.10328781 -0.09475276 0.113210134
0.1018609 0.10997397 0.01578681 0.10528078 0.28123283 -0.19905564 -0.15481088 -0.07380451
0.1833086 0.28997046 -0.120658875 -0.19601908 0.29329085 0.15401153 -0.006712068 0.25446638
0.06207158 -0.09544542 0.19054587 0.028055478 -0.15884383 0.27164188 -0.26692227 0.14115857
-0.13156141 0.2698646 0.109700024 -0.15975364 0.12335108 -0.0021684482 0.048981074 -0.033370208
-0.045366947 -0.15610915 -0.20920807 -0.076773375 -0.12198482 0.100873694 0.019101543 -0.13134715
-0.3277907 0.051552784 0.051758274 -0.25981274 0.3103522 -0.05401362 0.02920031 0.42023775
0.11925988 0.14887115 -0.18824752 0.077706814 0.07854405 0.20010811 0.070828006 -0.053837016
0.30047846 -0.046323523 0.24543859 0.19636472 0.05478686 0.09221545 0.11677066 0.22419678
-0.077573076 0.047882307 -0.037281808 0.14464647 0.16070484 -0.076737195 -0.052617945 -0.14752631
-0.20889999 0.07699061 -0.13112096 0.08128306 0.12615265 -0.18589552 0.14170884 0.08825036
-0.2126143 0.08036997 -0.2810199 0.13135844 0.103165105 0.23643835 0.1283732 0.17480524
-0.20248638 0.30965397 0.010063573 0.24247298 0.22229515 0.040931653 0.09050153 0.06327695

sequential/dense_4/MatMul;StatefulPartitionedCall/sequential/dense_4/MatMul f4 [16, 34]
00000000: 6a9c dc3e 604f e4be 7f20 44be 72bc 6f3e
00000010: 1ec6 8e3e 5d3b f73d 0d62 05bf 45e0 85be
00000020: f8af 1cbd 873b bc3e e873 443e 8b81 823e
00000030: fb39 08bf 27f0 88be 9772 2fbe d410 febe
00000040: ef9d ccbe c44e 0f3e 3bec 0dbf 330f 0fbf
00000050: 906a ee3d 81ef 9ebe c539 0fbf dd93 8b3e
00000060: fef0 013e 0430 abbe 4976 b63d 1d10 e33e
00000070: e65b 1dbe 21cd 2ebf 8901 8a3d 9720 adbe
00000080: 968d babb deee 583e 0c11 15bf e738 f9be
00000090: 1d12 963e 9c68 9e3e 4be1 d83d d1c0 7cbe
000000a0: 294b 953e 5974 1fbf 183f 793d b07b 28be
000000b0: eb6b 8d3e 1aa7 dfbe dd7b 9dbe c089 c63e
000000c0: 142c adbe 417d d9be 9272 1abf fa3c 843e
000000d0: aa8f d23d 804f 2a3e 0035 6e3d 7df3 aebe
000000e0: 9749 ae3e 2bbc 25bf b94f 36bf e5d5 56be
000000f0: ace6 e2bd f0aa 08be 7ead 04bf 70e1 a33e
00000100: 494f 96be dcf1 abbe dc11 d1be aa4b 9c3c
00000110: 06b7 2e3d 1f17 dd3d 736d 0cbf a4c8 f4be
00000120: e14f 3f3c 0afd b33c 843e 11bf e9b7 92bd
00000130: fd2d 3abe 7a89 d8be bc05 9ebe 7c37 563e
00000140: f190 46be 6881 863e ac0c 8f3e cd90 de3d
00000150: df17 e73e eb2e 4cbe bbe1 d23e 228d f9be
00000160: 4bb4 84be 5b8e 38bb 6112 f73d 5b2c 433e
00000170: c188 803e e5d3 81be 4252 32be 7060 07bf
00000180: dcff 6a3e a321 823d c42b a9be f943 91be
00000190: 6b41 3ebf 4fc4 353e c38a 9c3e 1c22 f53e
000001a0: bf95 e73c b5a4 b0bc cd78 e13d a744 16bf
000001b0: 3417 4b3d 5da1 733e 117c 22be 8cf2 a03e
000001c0: ab61 0b3e 60fe 2e3c a559 e53d a01d 153e
000001d0: c62f c4bc 3098 98be 472b a8be 50da acbe
000001e0: 4a70 28bf 3763 55bd 5899 193e 63a6 3abd
000001f0: 64c9 1cbf 6d2b 04bf 7db6 11be da70 083e
00000200: 5c05 15bf c7ba 573d f1e5 413d 5947 543e
00000210: 09a1 7bbe 572c 80be f9a7 b13e 34eb 11bf
00000220: 3a6d 81be cd35 babe b810 11bf d916 6fbf
00000230: 1aba 0abe 51ee 54bf cedc 0ebf 9abc 29bf
00000240: a680 b03e b9e2 a5be 4dcc 70be 75d9 74bf
00000250: 26a4 b7be fed0 61bf c59d 82be 7a4e 67bd
00000260: b24a b9be 8b89 c9be 1eec 27bf a45b 473e
00000270: 9033 26bd a05b c4bd e3e9 8abe 24ed 31bf
00000280: 0b58 51bf fd77 863e 3f88 dfbe 34b3 c63d
00000290: 7e25 5bbe ebb7 3ebf 1208 043e bebd 84be
000002a0: b56f 9dbd f724 ebbe ba2a 1cbf 1cfa 35bf
000002b0: 0eba 32bf 59ba 1dbf 219d 823e 2187 6abf
000002c0: 2866 7dbe c069 2ebf f20b 63be 988d cbbe
000002d0: da02 76bd d50d 1cbf 8571 f2be 1da0 0dbf
000002e0: 9e86 1dbe 6e18 c9be b90e 103d 217d 62bf
000002f0: 7589 ffbe 5262 a73c 78b5 2fbe 645c 553e
00000300: 7bb4 03bf 6cc0 4bbf d637 3ebf 4901 a1bd
00000310: de6a 1fbf f937 163d 5e3c 533e a5c0 ccbe
00000320: cf97 9dbe 51ae 6d3d e0a1 16bd 9839 25bf
00000330: 78c9 6abf 927f e0be edac 95be e5b2 46bf
00000340: da45 273e deee e8be 0ca2 90be 612b 44bf
00000350: 3c2e 3fbe ed16 16bf 5bb0 1abf d53d a5be
00000360: f182 43bf 7b96 b3be d025 b4bd 952f e0bc
00000370: c03d a4be 12e5 4bbf 6037 adbd 50f4 47be
00000380: e411 823d d78d 713d 8bb6 56bf 1707 ffbe
00000390: 2779 53bf f862 6e3e 7bbe 9abe fbc3 093e
000003a0: 4ca5 d8be 66fe 51bf f730 5c3e 0060 a6be
000003b0: 1e28 0f3e 888d 2abf e6d2 bcbe 6d05 24bf
000003c0: 090d 71bf d77e 4dbf 7f6e 363e 9fa7 54bf
000003d0: 17d1 91be 870b 64bf 981e 62bd d6f3 8dbe
000003e0: e6c3 51bd 2560 d9be 0906 2dbf d9b8 77bf
000003f0: b8d7 6b3e 7060 d73c e73c e2be 8f02 91be
0.43088084 -0.44591808 -0.19153021 0.2341173 0.27885526 0.120718695 -0.5210274 -0.26147667
-0.038253754 0.36764166 0.1918484 0.25489458 -0.5321347 -0.26745722 -0.17133556 -0.49622214
-0.39964244 0.1399489 -0.55438584 -0.5588257 0.11641419 -0.31042102 -0.55947524 0.27261248
0.12689587 -0.3343507 0.0890928 0.4434823 -0.15367088 -0.6828175 0.06738574 -0.33813927
-0.005693148 0.2118487 -0.58229136 -0.48676226 0.29310694 0.30939186 0.10589846 -0.24682929
0.29158905 -0.6228691 0.060851187 -0.16453433 0.27621397 -0.43682176 -0.30758563 0.3877697
-0.3382269 -0.42478374 -0.6033107 0.2582777 0.10281308 0.1663189 0.058156013 -0.34170142
0.3404052 -0.64740247 -0.712154 -0.20980032 -0.110791534 -0.13346457 -0.5182723 0.32007933
-0.29357365 -0.33582962 -0.40833938 0.019079048 0.042655014 0.107954256 -0.54854506 -0.47809327
0.011676759 0.021971244 -0.56736016 -0.07163984 -0.18181606 -0.42292386 -0.3086375 0.20919603
-0.19391228 0.26270604 0.27939355 0.10867462 0.451354 -0.19939773 0.41187844 -0.48740488
-0.25918803 -0.0028161022 0.120640524 0.19059889 0.25104335 -0.25356975 -0.17414191 -0.52881527
0.22949165 0.06354072 -0.33041203 -0.28372172 -0.7431857 0.17750667 0.30574617 0.47877586
0.028269647 -0.021562913 0.11009369 -0.58698505 0.049582675 0.23792024 -0.1586764 0.3143505
0.13611476 0.010680765 0.11198739 0.14562082 -0.023948561 -0.2980361 -0.32845518 -0.3376031
-0.6579634 -0.05209657 0.14999902 -0.045568835 -0.612448 -0.5162876 -0.1422977 0.133243
-0.582113 0.05266836 0.04733843 0.20730342 -0.24573149 -0.2503383 0.34698465 -0.56999516
-0.25278646 -0.36369172 -0.56666136 -0.9339424 -0.13547555 -0.8317614 -0.5580567 -0.6630341
0.3447315 -0.32399538 -0.23515435 -0.95644313 -0.35867423 -0.8820952 -0.25510994 -0.056471325
-0.361898 -0.3936275 -0.6559466 0.19468552 -0.040576518 -0.095877886 -0.27131566 -0.6950247
-0.8177497 0.2626342 -0.43658635 0.09702149 -0.21401021 -0.74499387 0.12893704 -0.25926012
-0.07687322 -0.4592664 -0.61002696 -0.7108476 -0.69815147 -0.6161247 0.25510505 -0.9161244
-0.24746001 -0.6813011 -0.22172526 -0.39756465 -0.060061313 -0.60958606 -0.47352234 -0.5532244
-0.15383384 -0.3927645 0.03517029 -0.8847218 -0.4990956 0.020432625 -0.17159069 0.20836025
-0.51447266 -0.7959049 -0.7430395 -0.07861573 -0.6227244 0.036674473 0.20628497 -0.39990726
-0.30779883 0.05802757 -0.03677547 -0.64541006 -0.91713667 -0.43847328 -0.29233494 -0.7761672
0.1633524 -0.4549474 -0.28248632 -0.7662869 -0.18669981 -0.5862873 -0.6042535 -0.32273737
-0.76371676 -0.35075745 -0.08796275 -0.027366439 -0.32078362 -0.7964641 -0.084578276 -0.19526792
0.063510686 0.05897316 -0.8387229 -0.49810097 -0.8260674 0.23279941 -0.3022345 0.13453667
-0.42313612 -0.82028806 0.21503054 -0.32495117 0.13980147 -0.6662221 -0.36879653 -0.6407078
-0.94160515 -0.8027167 0.17815588 -0.8306827 -0.28479835 -0.8908009 -0.055204958 -0.27725095
-0.051212214 -0.42456165 -0.67587334 -0.9676643 0.23031509 0.026291102 -0.4418709 -0.28322265
