python/model.tflite (tflite, 553888 bytes, 10 tensors)

dense_4/bias f4 [6]
000000 a4 d2 b9 bd 1a 09 10 bb f1 a1 30 bf 7e 59 f1 bb
       -0.0907338 -0.0021978081 -0.689971 -0.0073654046
000010 5e 46 91 bd 6f 26 38 be
       -0.070934996 -0.17983411

dense_3/bias f4 [102]
000000 8e cd fd 3c 4d d2 f4 3d 23 e6 bf bc c5 1a 04 3d
       0.030981805 0.11954174 -0.023425167 0.032252092
000010 a0 23 b0 3d cf 22 6e bc a4 57 1d 3d 40 b5 b4 3d
       0.08600545 -0.014534666 0.03841366 0.08823633
000020 2f 10 b2 3b 6b 49 26 bd 98 bd 00 bd 2b 6f 7c 3d
       0.005434058 -0.04059736 -0.03143081 0.061629456
000030 ba 9e 1a 3d 95 5b ae 3c 18 c6 0f 3d bc 59 cd 3c
       0.03774903 0.021283904 0.035101026 0.025067203
000040 11 35 cb bc 49 fb 60 3d 5b 0b 6f 3c 7c e4 92 3c
       -0.024805577 0.054927144 0.01459011 0.017931215
000050 9f 80 30 bc 3a 2b d1 bb 45 36 1e 3c 73 e7 58 3c
       -0.010772853 -0.006383327 0.009656494 0.013238776
000060 8d 4f 33 3e 82 be 55 3d 98 36 a6 3c 35 18 23 3d
       0.17510815 0.052183636 0.020289704 0.039818007
000070 c0 96 89 3d 0b f8 90 bc cc 3c 13 3b ed 6d 3f 3d
       0.067182064 -0.017696401 0.0022466658 0.046735693
000080 2c f2 32 bd f6 81 7d bd 2c 28 95 bc c9 f0 0a bc
       -0.043687984 -0.06189152 -0.018207632 -0.008480259
000090 94 4d 44 bd 49 91 ea 3c be c9 28 3e b8 42 6f 3d
       -0.047925547 0.02863373 0.16483209 0.058413237
0000a0 40 7b 78 bd c2 50 3f 3d bf bf 04 bd 23 c9 cf bd
       -0.060664415 0.046707876 -0.032409426 -0.10145786
0000b0 4b c7 68 3b ba 0e 91 3b eb a1 62 bd d6 9a 5a bd
       0.0035519178 0.0044268044 -0.0553302 -0.05337032
0000c0 82 30 0f 3d 85 6b 17 be 10 03 07 3d 52 dd e7 3d
       0.03495837 -0.14787109 0.032961905 0.113215104
0000d0 4b 55 21 bd 71 f4 cb 3c 00 03 d5 3b 31 86 b5 3d
       -0.039387982 0.024896832 0.006500602 0.088634856
0000e0 2a cd e1 3b 92 1c 6b bd e0 aa 60 bd 3a 1b 0f 3e
       0.0068909125 -0.057400294 -0.05485046 0.1397523
0000f0 d0 c1 36 3d 46 3f 41 3d 5c 18 a3 3c 1f 4b 8e 3d
       0.044618428 0.047179483 0.019909076 0.06947922
000100 14 4c 0f 3d ae 44 87 3d 59 79 28 bc 56 76 57 bc
       0.034984663 0.066048965 -0.010282838 -0.013150772
000110 43 53 c6 3d 70 69 8f bd 39 d5 e4 bb b0 ff 6d 3d
       0.0968385 -0.070025325 -0.006983426 0.05810517
000120 c1 91 45 bc 7c 53 25 3d a0 1f 4f bd 3a 24 ac bd
       -0.012058676 0.04036282 -0.05056727 -0.08405347
000130 7d 0c c0 3d e4 86 e4 bd cd eb 7c 3d 7a 61 19 bd
       0.09377382 -0.11158541 0.061748315 -0.037446477
000140 29 2f ce 3d 3e 6c d1 bc 52 02 85 3d 11 6f f9 bc
       0.10067589 -0.02556431 0.06494583 -0.030448468
000150 38 38 66 3d 0a 4a 3b 3b aa 46 ce bd 38 a9 d7 3c
       0.056205958 0.0028578066 -0.10072072 0.026325807
000160 07 f1 43 3c 65 79 9f 3c b3 4d 8d bc cb 0e 70 bb
       0.011959321 0.019467065 -0.017248964 -0.003662991
000170 8a e8 b3 bb 16 0b 17 3e 16 35 c2 3d 1e 30 96 bd
       -0.0054903673 0.14750323 0.094827816 -0.073333964
000180 6b 85 8e bd 4d b4 81 3d 0e 0b 4e 3d 28 cb 0c bd
       -0.06959041 0.06333218 0.05030351 -0.034373432
000190 10 1e 2e 3e 22 5a 0c 3d
       0.17003655 0.034265645

dense_2/bias f4 [170]
000000 45 6b c8 bc e5 b9 ac 3b 29 d2 8d 3c f8 f4 ed bc
       -0.024465213 0.005271184 0.017312126 -0.029047474
000010 56 c4 99 bc 85 bf 88 3c f5 e5 ac bd 8d 0e ae bc
       -0.018770378 0.016692886 -0.08442298 -0.021247173
000020 0a 8e e9 bc 71 4a 5d bd cc c5 82 3c 11 e5 0f bd
       -0.028510112 -0.05402607 0.015963458 -0.035130564
000030 8e e6 95 bc ac b2 5f bd 10 ff 9e 3d 59 f9 13 bd
       -0.018298414 -0.054613754 0.07763493 -0.03612647
000040 b5 d2 6c 3c 49 e8 53 3c 02 1d 9a 3b 97 f4 45 3d
       0.014454533 0.012933799 0.004703165 0.048328962
000050 b0 86 45 bd 64 41 88 3d 55 0a 22 bd 37 f2 38 3d
       -0.04822415 0.06653097 -0.039560635 0.04515287
000060 c6 0d 98 bd b0 60 8b bb eb 57 28 3d 27 c3 93 3b
       -0.07424502 -0.0042534694 0.04109947 0.004509348
000070 ec 66 de bb af 60 90 3d c4 5a b5 3d b3 f6 a7 bc
       -0.0067871716 0.07049691 0.08855203 -0.020503378
000080 0e 90 66 3d 93 3b 82 bd 88 dd c5 bd fc 51 f3 bc
       0.056289725 -0.06359019 -0.09661394 -0.02970218
000090 a2 b6 c3 3c cd c8 30 3c 69 08 e7 bc 37 af f9 bc
       0.023890797 0.010790062 -0.028202252 -0.030479057
0000a0 38 cf 92 3d 59 a9 e0 bd a4 ca 7f 3d 69 ba 06 3d
       0.0716843 -0.109698005 0.062449113 0.03289262
0000b0 2b be 98 3c 58 78 a3 bc 63 87 27 3b 08 88 e1 bb
       0.018645367 -0.019954845 0.0025562875 -0.0068826713
0000c0 62 43 ba ba 0a a9 c5 bd 18 48 a7 3d b9 29 be 3c
       -0.0014210755 -0.09651382 0.08168048 0.023213254
0000d0 5d 74 5e bd 4f 95 10 3d f9 c0 fb bd 88 32 11 bd
       -0.05431019 0.03529864 -0.12292666 -0.03544858
0000e0 ca 7c 94 3d 0c 43 e6 bc 59 07 4f 3d bc 42 85 bd
       0.07250364 -0.028108142 0.050544117 -0.06506869
0000f0 18 79 ce 3a 02 f2 8b 3d 58 b7 20 bd 34 b5 0a 3c
       0.0015752641 0.06833269 -0.03923735 0.008466054
000100 9e 95 ce 3b 55 f4 b9 bd b8 47 2b 3b 31 04 2b bd
       0.006304457 -0.09079806 0.0026135277 -0.041752044
000110 c1 56 de bc 1a 67 45 bc 59 bc bd bc bc 1c c6 bb
       -0.027140977 -0.012048507 -0.0231611 -0.006045906
000120 c1 33 7b bc 32 d4 a0 bd 0e 86 79 bc 7d 80 7d bd
       -0.015332163 -0.07852973 -0.015229715 -0.061890114
000130 2e 87 ab 3c 69 07 2f 3d 04 44 a3 bc 52 14 af 3d
       0.020938482 0.042731676 -0.019929893 0.08548798
000140 a0 33 29 3c e6 44 b6 bd b8 d4 d2 bc 9d 21 bc bc
       0.01032725 -0.0889986 -0.025736198 -0.022965247
000150 b5 c6 ba bb 33 8c b3 3b 07 2a cb 3c 73 1f c7 bc
       -0.0056999573 0.0054793595 0.024800314 -0.024306988
000160 27 10 14 3c 0d 0b bd bc 04 8c 06 bd 15 da bb bc
       0.009037054 -0.023076558 -0.032848373 -0.022931138
000170 07 09 04 3d 0f 73 bc bc e2 5f 24 bc 1f 84 a4 bd
       0.03223517 -0.023004083 -0.010032626 -0.080330126
000180 e1 24 c0 3c bb 0e 88 3d 5e 9a e5 bc ae 0a 56 bd
       0.023455085 0.066434346 -0.02802771 -0.05225628
000190 49 14 3a bc 97 8a 17 bd 99 1e 4b 3b 52 be c5 bd
       -0.011357375 -0.036997404 0.003099358 -0.09655441
0001a0 23 b5 51 3a ce 2a 58 bc ac 11 04 bd 23 19 60 3d
       0.0007999709 -0.013193799 -0.032243416 0.054711472
0001b0 ca b2 24 3d 91 7e b3 3b b6 4e 6b 3c e5 52 2f 3d
       0.04020957 0.0054777344 0.014362028 0.042803664
0001c0 3c 26 86 bd 4a 85 3d 3b bf d0 a7 bb 7d 30 13 bd
       -0.065502614 0.0028918558 -0.00512132 -0.035934914
0001d0 a7 a9 c6 3c db 2d 8a bc f9 1a 8d bc 3c fd b5 bb
       0.024250818 -0.016867569 -0.017224776 -0.0055538695
0001e0 e2 9a de bd 6c f2 b9 bb 5e 5b 2f bd df 71 42 3d
       -0.10869385 -0.005674651 -0.042811744 0.047471877
0001f0 c1 f2 98 3d 1d 8f 6d bd b4 54 a0 3c e7 cf 9f 3c
       0.07468177 -0.05799781 0.01957164 0.019508315
000200 35 69 94 bd e1 7b 9e bb 38 e2 10 bd 57 43 ca bc
       -0.07246629 -0.004836545 -0.03537199 -0.024690313
000210 16 1a 9a 3c ed c2 90 3c 6e d6 34 3d 57 0c 41 3d
       0.018811267 0.017671073 0.04414981 0.04713091
000220 0d 8f e5 bc 47 a0 14 be 55 75 00 3a 5e c1 3f bd
       -0.028022313 -0.14514266 0.00049002963 -0.04681527
000230 3d 5e 08 bd 95 a8 02 3d 2a c2 8f bd 9c 55 87 3d
       -0.033292998 0.031899054 -0.07019456 0.066081256
000240 2b b3 d6 bc 46 8e 94 3c 5e 7b 2f bd 10 ca 8c bc
       -0.02620848 0.018134248 -0.04284226 -0.017186195
000250 dd 3a 95 bd 84 94 81 3b 5d 7b c1 ba 20 fc ce bc
       -0.07286618 0.003954472 -0.0014761497 -0.025266707
000260 12 7e 32 3d 7b 68 68 bd c6 88 26 3d 9b 68 24 bd
       0.04357726 -0.056740265 0.04065778 -0.040138822
000270 bf cc a0 bd 60 69 3a bc 4c c7 6f bc 15 4e 7e 3d
       -0.07851552 -0.011377662 -0.014634918 0.062086184
000280 d5 70 03 bd 95 4b 00 bd 20 13 d3 bd 1f 33 04 3d
       -0.032090027 -0.03132208 -0.10306382 0.032275315
000290 1f 16 5a 3c f5 1e 11 3e 5a 91 bd bc 42 ee 56 bc
       0.013310938 0.14171965 -0.023140598 -0.0131183285
0002a0 a9 63 2b 3e e2 71 07 bd
       0.16737236 -0.03306759

dense_1/bias f4 [578]
000000 8b 11 c5 3c b4 24 07 bc bb 3b e7 3c 2a d6 04 3d
       0.024056217 -0.008248497 0.028226724 0.032430805
000010 63 d7 f3 3c 57 eb 95 3b 52 b8 8a bc 36 7d 09 3d
       0.02976579 0.004575174 -0.016933594 0.033566676
000020 d5 00 6d bb ba 2e 7d 3c ba 9d 0a 3c fe 15 96 bd
       -0.0036163826 0.015453035 0.0084604565 -0.073284134
000030 d8 97 f7 3b af 3c a0 bd cc 11 9b 3d 3a 54 c8 bc
       0.007555943 -0.078240745 0.07571754 -0.024454225
000040 d1 cf a6 3d 06 7f 1b bc 2d 4d b2 ba 2d 6c 16 3c
       0.081451066 -0.009490734 -0.0013603322 0.009181065
000050 9e 76 c7 bc 21 04 31 3d 4e 81 6e 3b f3 ca 1f 3d
       -0.024348553 0.04321683 0.003639299 0.039011907
000060 86 00 38 3d 15 8d 1b 3d f7 21 8c 3d e1 96 4b bb
       0.044922374 0.037976343 0.06842416 -0.0031065273
000070 37 37 16 3d 77 65 04 bd b4 37 78 bd 40 07 d0 3b
       0.03667375 -0.032323327 -0.060599998 0.0063485205
000080 62 09 eb bc ad 53 73 bc 49 f0 96 3c 31 08 8a 3d
       -0.028690998 -0.014851493 0.018425124 0.06739844
000090 aa 46 22 bd db b0 dc bc df a6 31 bd 92 71 3a 3d
       -0.03961817 -0.0269398 -0.04337203 0.045518465
0000a0 1a a8 2e ba 73 b2 23 bc 50 a1 b1 bc df eb 66 bd
       -0.00066626223 -0.009991276 -0.021683365 -0.056377288
0000b0 cb ee 0b 3d b6 5a 57 3d e4 65 18 bd 11 10 22 bc
       0.034163278 0.052576743 -0.037206545 -0.009891526
0000c0 e7 ff 1d 3c aa fa 62 3c d1 9d 55 bb 12 60 9a bc
       0.009643531 0.013853708 -0.0032595287 -0.018844638
0000d0 4d 65 b3 bc f7 64 8a bc b0 9b 4b bc e0 6d 19 bd
       -0.02189889 -0.016893847 -0.0124272555 -0.0374583
0000e0 dd 07 67 3d 67 38 b9 3c 98 57 b4 3d 79 01 21 3d
       0.056403983 0.022609903 0.0880577 0.039308045
0000f0 78 52 88 3d 5d c2 75 3c b9 07 65 3d 5a 93 3a bd
       0.06656355 0.014999953 0.055915568 -0.04555068
000100 cb 41 9a bc 55 39 bf bc 9e 7d 9d 3c 64 eb 88 3d
       -0.0188302 -0.023342768 0.019224938 0.06685522
000110 b8 80 03 bd 34 a9 6d 3c a6 85 11 3d 4d 65 9a bc
       -0.032105178 0.014505673 0.035527848 -0.018847132
000120 e3 ca a6 bb 8c b5 f4 ba a2 40 94 3c 29 99 43 3c
       -0.005090104 -0.0018669828 0.018097226 0.011938372
000130 b6 ef 54 bd bf 6d 8f 3d fa 51 91 3d b4 19 eb bb
       -0.05198642 0.07003354 0.07095714 -0.007174695
000140 ed db 4b bd 62 b6 5b 3d 25 1f f5 bc d7 0d 44 3d
       -0.049770284 0.05364073 -0.029922077 0.04786476
000150 9f e5 e7 bc 6c 76 1e 3d c5 23 94 bd bd e9 01 bd
       -0.028307734 0.038687155 -0.07233385 -0.03171705
000160 46 38 20 bd ac 2c 4b 3d 74 21 be b9 d3 42 73 bc
       -0.039116167 0.04960315 -0.00036264549 -0.014847475
000170 a9 34 0a 3c ee 26 d3 3c 96 54 94 3c 89 08 3d 3d
       0.008435407 0.025775399 0.01810674 0.046150718
000180 7c 3e e1 3c 6a 6c 08 bc 7c 45 6c bd 00 05 95 ba
       0.027495615 -0.008326629 -0.057683453 -0.0011369288
000190 85 0b a6 3c d5 74 14 bd 45 10 6f 3d 58 f7 cf 3d
       0.020269165 -0.036244232 0.058365125 0.10154599
0001a0 d4 3d 08 bd 2f e8 2d bc 7e ed 18 3d 50 55 b4 bc
       -0.03326209 -0.010614439 0.037335865 -0.022013336
0001b0 d0 22 9b bd 4b 07 f2 3c fc 09 20 3d 5c 27 28 3d
       -0.07574999 0.029544493 0.03907202 0.04105316
0001c0 84 cc 3b bc 0b 94 05 3d f7 53 cd 3b c3 0c 69 bc
       -0.011462335 0.032611888 0.006266113 -0.014224234
0001d0 1e b3 71 3c 6f a8 b3 bc 25 8e 6a bd 42 6e 3b bc
       0.0147521775 -0.021930901 -0.057264466 -0.011439862
0001e0 bc b7 e9 3c 49 e6 71 3d fd ed 73 3c fe 83 e6 bc
       0.028529994 0.059057508 0.014888284 -0.02813911
0001f0 c5 9a 1d 3c 19 4b b7 bc 3c 31 3f bd e6 18 39 bd
       0.009619419 -0.022374677 -0.046677813 -0.04518976
000200 2b 24 a8 3c a4 ca 75 3d e0 37 db 3c 68 4a 2c bd
       0.020525059 0.060007706 0.026760042 -0.042063147
000210 29 c8 15 bc 0f cd 83 3b 0b 00 1f bd 80 c7 0e bd
       -0.00914196 0.0040222476 -0.0388184 -0.034858227
000220 87 c7 2f bd 06 3a d4 3b ee 74 71 3d 9c 0b 47 3c
       -0.042914893 0.0064766435 0.058949403 0.012148764
000230 d5 23 19 bc e7 c0 ea bc 8e d2 35 bd 31 34 c3 3c
       -0.009346922 -0.028656436 -0.044390254 0.023828598
000240 d9 e3 b5 3d 33 56 31 bd a5 bc 9c 3c 87 4b 26 3d
       0.08881349 -0.043295097 0.019132921 0.040599372
000250 28 d6 57 bd d7 ca 6f 3d 12 6a 98 3d b1 69 ec bb
       -0.05269447 0.058543053 0.07442106 -0.007214748
000260 5f 6e 10 3d 8d 3f b2 3d 38 80 33 bc 10 a6 aa bd
       0.035261508 0.087035276 -0.010955863 -0.08332455
000270 93 eb 0b bc 32 ba f3 3c ee 7b 27 bd 4c 36 e7 3d
       -0.008540052 0.02975187 -0.040889673 0.11289653
000280 06 5e ec 3b 34 9e c7 bb 5d 6a 91 3d ed b3 0f bd
       0.007213357 -0.0060918573 0.07100365 -0.0350837
000290 d3 1c 9c bc 4f 75 94 3b 5c 6a 48 3d fb 31 eb 3c
       -0.019056713 0.004530586 0.048929557 0.028710356
0002a0 13 1f 01 3c fd a9 aa bc 46 41 a1 3d 15 de 87 bd
       0.007880944 -0.02083301 0.07873778 -0.06634156
0002b0 36 8a af 3c ed 3a 2f 3d a9 b7 93 3c 16 b4 25 bd
       0.021428209 0.042780805 0.018031912 -0.040454946
0002c0 27 07 99 3b ee bc a3 bc 04 b9 0c 3c ca 57 40 bc
       0.004670042 -0.01998755 0.008589033 -0.011739681
0002d0 1e 2a 73 3d c1 a1 c4 bc 59 3a 34 3d 52 0a 13 bd
       0.059366338 -0.024002912 0.044000957 -0.035898514
0002e0 39 04 7b bc a2 fb d6 3c 41 99 0d 3d 14 f3 58 3c
       -0.015320831 0.026243035 0.034569982 0.013241548
0002f0 73 91 3d bc e1 3d a2 bc e0 d7 b6 bc 0a 01 2b 3c
       -0.011570322 -0.019804897 -0.022319734 0.010437259
000300 ba d1 05 3e 0c 09 be 3c 5c d4 c7 3a df a3 20 bc
       0.13068286 0.023197673 0.0015245783 -0.009804695
000310 05 38 42 3d b9 11 39 3d ae af 41 bd 2f fc 22 bd
       0.047416706 0.045182917 -0.04728668 -0.039791282
000320 67 a4 72 3d 0f 81 b7 3b 0c 3e 94 3b b6 7d f3 bb
       0.059238818 0.005600102 0.004523998 -0.0074307574
000330 60 83 02 bc e0 01 58 bd 63 45 7f bd 81 93 2e 3d
       -0.007965893 -0.052736163 -0.06232203 0.04262114
000340 95 b6 cf 3b 4e c7 81 bd 40 d3 83 bd 52 06 94 3d
       0.006338904 -0.063368425 -0.06436777 0.07227768
000350 33 0a 5b bd d7 2f 0a bb 53 ca 62 bc fd 49 b8 3c
       -0.053476524 -0.0021085644 -0.013842183 0.022496218
000360 de 08 04 bb c1 cc 37 bc 1f d2 f7 3c f8 b9 da 3c
       -0.0020146887 -0.011218251 0.03025156 0.026700005
000370 81 f2 29 bd 38 bd 4f 3c 54 ae a2 3c ed ce bb bc
       -0.041491035 0.012679391 0.019858517 -0.022925818
000380 6a 6c 69 3d ee 4a 76 3d 82 e0 87 3d 04 ef 0c bd
       0.056988157 0.060130052 0.06634618 -0.03440763
000390 62 f7 0e bc 25 52 b0 bc 66 a0 f8 3b 99 e7 aa 3c
       -0.008725973 -0.021523545 0.0075874804 0.020862387
0003a0 2d a8 38 bd f5 61 87 3d 4c 15 3c 3d 01 c0 09 3d
       -0.04508226 0.06610481 0.045918748 0.033630375
0003b0 c0 8e 52 bd 7d b0 0c 3d 2f 64 60 3d a5 41 fd 3c
       -0.05140567 0.034348 0.054783043 0.03091509
0003c0 57 65 fb 3c 40 81 72 3d 00 90 1c bd af 88 9f 3c
       0.030687971 0.059205294 -0.038223267 0.019474356
0003d0 17 df d5 bc e9 15 d2 bc c9 0a cd bd 3b c1 9c 3c
       -0.026107354 -0.025645213 -0.10011823 0.019135108
0003e0 be e2 c7 bc 46 e8 b2 3c ce d3 59 bc a3 10 e2 3b
       -0.024400111 0.021839272 -0.013295127 0.006898956
0003f0 29 4f 9c ba 9e 2c 39 3d 72 fc 19 3c e5 f7 b9 bc
       -0.0011925447 0.045208566 0.009398567 -0.022701213

dense/bias f4 [34]
000000 e4 8d 45 3d d0 42 95 bd 0e a5 66 bc 8f 0a ff 3c
       0.04823102 -0.07288134 -0.014077438 0.031132964
000010 57 33 68 bb 92 c2 e5 3b 99 d9 90 bd db 2c 1e 3c
       -0.0035430992 0.00701172 -0.070727535 0.009654249
000020 30 d1 fe 3b e9 7d 8b 3d 36 74 d1 3c 88 ed 8e 3c
       0.007776402 0.06811125 0.025568109 0.017447248
000030 20 72 d9 bd 4c b6 0a 3d c5 bf c3 bc 7b 4f b5 3d
       -0.10617471 0.033865258 -0.023895154 0.0885305
000040 0c 67 11 3d 54 f4 01 3c d6 a5 18 3d 4d 12 01 3d
       0.035498664 0.0079317875 0.03726753 0.031511594
000050 40 6b d2 bc 0a 1e 60 3c 32 75 94 3d 3c b1 85 3c
       -0.025685906 0.013679037 0.07248916 0.016319863
000060 81 7c 3e bd d9 a0 5e 3d 4c 7b e3 bc 14 09 a2 3c
       -0.046505455 0.054352615 -0.027768753 0.01977972
000070 e8 ad af 3b 5c a2 ca bc 78 9d dd 3a 25 46 80 3c
       0.0053613074 -0.024735622 0.0016907891 0.015658448
000080 8b ea c3 bd 74 7c 52 bd
       -0.0956622 -0.05138822

std.constant f4 [34, 34]
000000 db 7f 95 3b ba 49 63 be 8a 45 17 be 50 57 71 3e
       0.0045623607 -0.22196093 -0.14772621 0.23568463
000010 18 a3 17 bd 3d 5d 8f be 43 01 93 bd d5 4b 1c 3e
       -0.037020773 -0.28000823 -0.07177975 0.15263303
000020 b8 ce ca 3e c3 3d 0a 3e cb 1c 32 be 1b 31 b2 3d
       0.3961084 0.13500123 -0.17393796 0.087007724
000030 06 ed b3 3e 19 14 56 3d 99 e1 c0 3e a0 0b 79 3e
       0.35141772 0.05226526 0.37672117 0.24320841
000040 2a f4 9d bd 50 66 9d be 8e 17 b4 bc 48 32 c6 3c
       -0.07712586 -0.3074212 -0.021983888 0.024193898
000050 eb 73 bc be d0 05 61 3e cb a1 6e be fc a4 14 bd
       -0.36807188 0.21974874 -0.23303907 -0.036290154
000060 cd 78 80 3e 5c 78 f1 3c b8 6c ad 3e 49 2e 46 3b
       0.25092164 0.029476337 0.33872008 0.003023999
000070 6e 1c 38 be be 53 a5 be 84 54 75 bd 8e cf 3a 3d
       -0.17979595 -0.32290453 -0.059895054 0.045608096
000080 98 5e 27 be 50 a5 91 be 62 6e 27 3e ab c8 f9 bd
       -0.16344678 -0.28446436 0.16350701 -0.121964775
000090 46 2a 81 3e 31 c5 9f be 4f d0 e4 3c d9 96 71 3e
       0.25227565 -0.31205133 0.02793136 0.235927
0000a0 fa 9a 3e 3a 23 54 55 3e ca e7 19 be 41 7d 57 3e
       0.0007271018 0.20832877 -0.15029827 0.21043874
0000b0 c8 51 0d bd 48 18 ae 3e 3e fc 46 3e 5e 31 25 be
       -0.03450182 0.340029 0.1943216 -0.16132113
0000c0 63 05 c4 3c a9 1a e8 3d 5d 94 f5 bc 98 5f 28 bd
       0.02392835 0.1133321 -0.029977972 -0.04110679
0000d0 38 29 0a 3d eb 9c 54 3d c7 91 36 3e 4d a5 37 be
       0.033730716 0.05190746 0.17829047 -0.17934151
0000e0 7a 78 e6 bd ab 93 a8 3e c7 8d b5 bd 7b 0b 61 3e
       -0.11253448 0.32925162 -0.088649325 0.21977036
0000f0 b4 d6 7f bd 49 b3 d6 bc 79 00 92 be 4b e7 11 3d
       -0.062460616 -0.026208537 -0.28515986 0.03562097
000100 a6 54 9c 3d e8 22 b5 be ea 31 f1 3c c1 1f c4 be
       0.07633333 -0.35378194 0.029442746 -0.38305476
000110 c6 2b 38 bd 3c 4f b2 3e 4d ed 5c 3e d2 ca c7 3c
       -0.04496362 0.34826076 0.21574898 0.024388704
000120 c7 e7 53 3e bc 56 3c 3e 1c 42 f1 3d 9d 69 55 3d
       0.20693885 0.18392462 0.117801875 0.052102674
000130 68 11 7a 3e 10 0a 12 be 11 16 3a be 30 68 f8 bc
       0.24420702 -0.14261651 -0.1817248 -0.030323118
000140 e9 af 3b 3e bc b7 94 be f4 9a a3 3e cd d6 8f be
       0.18328823 -0.29046428 0.31954157 -0.28093567
000150 69 f2 93 be 5c 3d 88 3d 69 a5 26 bb 66 7c e5 3d
       -0.28895882 0.06652328 -0.0025428182 0.11205368
000160 96 a1 b8 3e 41 08 a7 3d b5 3b 71 3d ec 86 5f be
       0.3606078 0.08155871 0.05889483 -0.21828812
000170 c7 06 07 be 4b 9d 33 3e 35 a0 67 3e 17 fa 21 3e
       -0.13186179 0.17540471 0.22619708 0.15818058
000180 51 83 8f be d6 7d 85 3e b7 ae 5d be 2a 1f 2a be
       -0.28029874 0.26072568 -0.2164868 -0.1661345
000190 fb 3f 85 be f7 23 cd 3d 29 78 5d be ce 4d 2a 3e
       -0.26025376 0.100166254 -0.21627869 0.16631243
0001a0 a1 81 0a be 38 7f 7e be cd e5 67 3e f8 20 f2 bd
       -0.13526012 -0.24853218 0.22646256 -0.118226945
0001b0 c2 ad ae be 18 51 26 3e 62 ef 97 3e 9f 7c 45 3d
       -0.34116942 0.16241872 0.29674822 0.04821455
0001c0 24 ab 56 3e 0e 47 96 bd 49 3f 97 3d 9a c4 30 3c
       0.20963722 -0.07337771 0.073851176 0.010789061
0001d0 5e dc bd 3d 11 31 73 be ea bc fe bd 56 bc 67 be
       0.09270547 -0.23749186 -0.12438376 -0.22630438
0001e0 52 cf ad 3e ad 40 1d be 29 90 90 be 52 da 9e 3e
       0.33947235 -0.15356703 -0.28234985 0.3102594
0001f0 2a 10 9b 3e 6b 10 57 3e 17 f4 97 3d 16 ee 06 be
       0.3028577 0.21002357 0.07419603 -0.1317676
000200 20 33 3a be 97 e8 19 be 44 a0 69 3e 49 f3 5d 3c
       -0.18183565 -0.15030132 0.22815043 0.013546773
000210 b9 94 82 3e 72 43 43 bd 23 68 1f be 8d fd 8b be
       0.2550409 -0.047671743 -0.15567069 -0.2734188
000220 0f d3 8c be 2f 83 c5 bc 19 f9 0f 3e a9 6a 0e be
       -0.27504775 -0.024110405 0.14059867 -0.13907875
000230 00 9a 1b 3d 16 f0 cf 3d 61 df 82 3e 73 18 19 3d
       0.037988663 0.10153215 0.2556105 0.037376832
000240 01 74 82 be ba 07 1f bd 58 73 e7 be ef e5 0a 3e
       -0.2547913 -0.038825728 -0.45205188 0.13564275
000250 fe 9b 2a be ad ca 36 3e 1c ad 01 be 3f d0 12 3e
       -0.16661069 0.17850752 -0.12663692 0.14337252
000260 67 fb c2 be 47 e6 06 3e c4 de c6 bc 05 b0 0e 3e
       -0.3808243 0.13173781 -0.024276145 0.13934334
000270 58 a1 cb bd ad 9a 3d be b5 b5 af bc c1 44 9b be
       -0.09942883 -0.18516035 -0.02144895 -0.30325893
000280 cc 69 2d 3e 75 28 1e be 4e a9 1f 3e 19 7c 19 bd
       0.1693489 -0.1544512 0.15591928 -0.037471864
000290 97 ef ca 3c 70 2d 16 3e 7c 69 37 3b a9 f1 30 be
       0.024772448 0.1466577 0.0027986458 -0.17279686
0002a0 97 8b 86 3e ea ea 19 3e 3f 4e 37 3d 7d fe 59 be
       0.26278374 0.15031019 0.044752356 -0.21288486
0002b0 91 07 60 bd a9 1d 86 3e e3 db 74 3e 5a 3c 27 3e
       -0.054694716 0.26194504 0.23912005 0.16331616
0002c0 65 2d 36 be 69 9f 4d bc b7 5e 98 be 1e a7 b7 3e
       -0.17790754 -0.012550213 -0.29759762 0.35869688
0002d0 26 08 87 3d 25 3e 52 be 80 c6 b6 be df fd b2 3e
       0.06593351 -0.20531519 -0.35698318 0.34959313
0002e0 08 34 73 3e a9 3f ab 3e b5 08 8d 3d a4 f4 75 bd
       0.23750317 0.33447006 0.06886426 -0.06004776
0002f0 35 2a 50 3e 5a 13 41 bd 76 68 1f 3c 74 0d c3 3d
       0.203286 -0.047137596 0.009729495 0.0952405
000300 5a 6a 7a 3e 02 db 9c be 61 b6 28 be 36 23 b9 3e
       0.24454632 -0.3063584 -0.16475822 0.36159676
000310 06 7f 8a bd ea bb 8e be 5b f7 e9 3d 3e 1b 56 be
       -0.06762509 -0.27877742 0.114241324 -0.2090883
000320 ec 6f fa bd 3e c1 ca bd 5f b9 92 bd cd 37 82 be
       -0.12228379 -0.09900139 -0.07164263 -0.25433198
000330 12 38 4f bd 61 fd cf 3d b7 42 27 3e 88 a1 a4 3e
       -0.050590582 0.1015575 0.16334043 0.3215449
000340 a2 91 a6 bd 58 63 a7 3e 15 d7 d7 3d 3c aa 6c bd
       -0.08133246 0.3269298 0.105390705 -0.057779536
000350 5e 8e 84 3e 85 f6 3a 3e af aa 95 3e 98 f4 45 3e
       0.25889868 0.18258102 0.29231784 0.19331586
000360 6c 9e 59 3e 93 01 ae 3c 04 c9 2b 3e ef be 57 be
       0.2125184 0.021240985 0.167759 -0.21068929
000370 4f 0f 87 bd 6d b6 b4 3e 68 c7 3a be a9 34 95 3d
       -0.06594717 0.3529543 -0.1824013 0.07285435
000380 09 a7 8e 3e 00 6a 4c be 02 d8 80 be 22 d3 16 be
       0.27861813 -0.19962311 -0.251648 -0.14728978
000390 ac 39 69 be 04 cd 5f be 40 0e 68 be 80 ed 9d be
       -0.22775906 -0.21855551 -0.22661686 -0.3084526
0003a0 38 3a 2d 3e 6a 74 e9 bd fc c7 57 be 0e 74 b6 3d
       0.1691674 -0.11399157 -0.21072382 0.089088544
0003b0 e5 32 41 3e 38 fe 89 be 70 7b 96 be 00 00 d2 bd
       0.18867071 -0.26951766 -0.2939105 -0.10253906
0003c0 11 e6 b4 be 84 e3 15 be c3 22 db 3d 99 58 6d be
       -0.35331777 -0.14637572 0.1069999 -0.23178329
0003d0 a3 f2 7a be 7a 59 72 be b2 df 95 3d 80 0e 50 3d
       -0.24506621 -0.23666945 0.07318057 0.05079508
0003e0 2b cc 2b bd e1 9f 6b 3e a4 44 6c be 89 e8 87 be
       -0.041942757 0.23010208 -0.2307306 -0.26544598
0003f0 34 40 89 bd a1 81 ef 3d 0b a1 ab 3c e0 20 6a 3e
       -0.06701699 0.116946466 0.020950815 0.22864103

std.constant1 f4 [578, 34]
000000 4c ce af bc 6a bd e0 bd 35 18 91 3c 9d 28 a0 3d
       -0.021460675 -0.10973628 0.017711738 0.07820246
000010 26 7e e5 3d 25 78 da be 6a 00 65 bd 30 cd 70 bb
       0.112057015 -0.42669788 -0.055908598 -0.0036743395
000020 c0 3d 23 3e 30 8a 35 be d7 1a 57 be 7e 9a 9b 3d
       0.15941525 -0.17728496 -0.21006332 0.075978264
000030 3a 1b 24 3e 73 c6 64 3e eb 50 ad 3d 33 a8 b9 bd
       0.16026011 0.22341327 0.084626995 -0.090652846
000040 d7 ec a6 be 9d 11 a3 3d 58 7e f9 bd 5f f6 6e 3e
       -0.3260257 0.07962344 -0.12182301 0.2333617
000050 be d5 18 bd 63 9d bf bc 0b b8 9d 3d 7e ed d2 bd
       -0.037313215 -0.023390478 0.07701119 -0.10299204
000060 61 96 93 3d 21 9d e2 bd 68 8f 85 3e 6c a6 2a bc
       0.07206417 -0.11065126 0.26085973 -0.010415655
000070 06 e9 d6 bd 23 b5 c9 bd b4 ec 9f 3d a3 fe 45 be
       -0.104936644 -0.09849002 0.078088194 -0.19335417
000080 61 30 a2 bd 0e 24 9b bc 54 f1 84 bd e1 dd d6 bd
       -0.07919384 -0.01893809 -0.06491342 -0.10491539
000090 ed dc 62 3c c4 a7 7e bd 80 b1 fc bd b5 28 48 bd
       0.013846618 -0.062171713 -0.12338543 -0.048866946
0000a0 be a7 17 3e 57 e9 f9 bd 0e d5 61 bc ee eb 24 be
       0.14810082 -0.12202709 -0.013783706 -0.16105625
0000b0 7b bd 1f 3e 4e 26 0b bd bf d5 2b bb be 0f a1 3e
       0.15599625 -0.033972077 -0.0026219932 0.31457323
0000c0 8d a6 aa bc cb 30 ee 3d 00 8e d3 bd eb 34 26 3e
       -0.02083137 0.116304 -0.10329819 0.16231124
0000d0 6e 2b ad bd a9 5b c0 3e ea d0 34 be 37 ab 47 3e
       -0.08455549 0.3756993 -0.1765782 0.19498907
0000e0 e3 92 56 bc 40 ad 53 be 23 8b a1 3d a1 41 c7 3c
       -0.013096544 -0.20671558 0.07887866 0.024323286
0000f0 cd 5d c0 bb 7c b8 30 be 93 ed f7 3c c6 e2 3c be
       -0.005870557 -0.17257875 0.030264651 -0.18445882
000100 2a a7 31 3d d8 56 aa 3d 26 f5 22 be 62 3b 7a 3b
       0.04337231 0.083173454 -0.15913829 0.0038182368
000110 f9 e1 43 3e 95 06 e9 3d f4 ee a3 3c d0 cf 71 3e
       0.1912917 0.113782085 0.020011403 0.2361443
000120 4c 09 0a 3e c0 fd 19 be 65 50 04 be c3 de 26 bd
       0.13480109 -0.15038204 -0.12921293 -0.040739786
000130 70 05 d0 bc 94 53 9a bd 83 2d 0e bb 4f 3f 4d be
       -0.025393218 -0.075354725 -0.0021694608 -0.20043682
000140 a5 34 5a be 73 39 08 be c6 d0 f2 3d 73 90 dc 3d
       -0.21309145 -0.13303165 0.118562266 0.10769739
000150 17 3c 1b 3e 7f d6 c7 3d 1d 02 e8 3d 8b 06 34 be
       0.15159641 0.09757709 0.11328528 -0.17580621
000160 28 5d bf bd b1 20 74 be 04 21 19 bc 0f 1d 83 3e
       -0.0934394 -0.23840596 -0.00934625 0.25608107
000170 2c 40 81 3c 3b 1c b1 bd bf e8 63 be 60 95 20 3e
       0.01577767 -0.08647963 -0.22256754 0.15681982
000180 16 91 f6 3d f0 05 f5 3d bf 84 9b be e9 51 86 bd
       0.12039392 0.11964023 -0.30374715 -0.06558592
000190 49 3b 94 bd c2 e3 81 3d d8 36 80 bb 4e 18 86 3d
       -0.0723787 0.063422695 -0.003912788 0.065476045
0001a0 87 b7 fa 3d d5 ea 9c bd 6d 02 1b be d0 a9 a7 3e
       0.12242036 -0.07661978 -0.15137644 0.32746744
0001b0 52 e4 95 3d 56 29 8d 3e db 76 12 3d 92 7e 75 bc
       0.07318939 0.275706 0.03575788 -0.01498379
0001c0 12 16 a3 bd b7 b6 01 3d 59 1b de 3d 3a 91 64 bd
       -0.07963194 0.03166839 0.1084506 -0.05580256
0001d0 24 59 b3 3d 10 29 11 3e 6b 10 18 3d d2 a8 03 3e
       0.087572366 0.1417582 0.037125032 0.12857369
0001e0 32 be f3 bd 92 9f f7 bc f2 16 51 3e e6 1e 39 3d
       -0.11901511 -0.030227456 0.20418909 0.045195483
0001f0 55 2c 37 3d 9f dd b8 bd 56 cb e6 bd 15 a2 22 3e
       0.044720013 -0.09026646 -0.11269252 0.15882142
000200 19 d9 a2 bc cc b9 28 3e e9 23 08 3a 82 99 21 be
       -0.01987891 0.16477126 0.00051933393 -0.15781215
000210 1d 63 8a 3e b6 b9 16 bc 14 6b 67 3d b6 96 a3 be
       0.27028742 -0.00919955 0.056498602 -0.3195092
000220 a6 68 c7 3d 38 56 d6 3d e0 29 33 3e 03 68 11 3e
       0.09736757 0.10465664 0.17496443 0.14199834
000230 ae dd aa 3d 36 73 87 be 3b 5d 1a bd 69 f3 55 3e
       0.08343063 -0.26455086 -0.037686568 0.20893635
000240 8e 2d 1c 3e 62 f3 d7 3a 21 40 7a 3d 27 11 18 be
       0.15251753 0.0016475732 0.061096314 -0.14850293
000250 70 a2 38 be 21 c4 de bd 1e d9 51 3e e0 a8 3d 3d
       -0.18030715 -0.10877252 0.2049298 0.04630363
000260 7d 73 a1 bc 44 17 94 3d b2 43 7c be ee 9f d2 3e
       -0.01970839 0.07231 -0.24635199 0.41137642
000270 0a f1 70 be b3 e5 09 3e f2 f0 65 3d 18 f2 b7 3d
       -0.23529449 0.1346653 0.056137986 0.089817226
000280 5c 6a 5c be df f5 bb 3d 15 3a 8c 3b ad fa 91 be
       -0.21524948 0.091777556 0.004279385 -0.28511563
000290 a2 8a 40 3c 18 d1 d4 bd 15 e5 2f bd db be c0 3d
       0.011751803 -0.10391444 -0.04294308 0.09411403
0002a0 67 ab 0a 3e e4 5b 05 be 55 80 36 be 8b ef 8d bc
       0.13541947 -0.13023335 -0.17822392 -0.017326137
0002b0 79 6b 57 be fa d0 5f 3d 43 62 55 3e 08 5c 7b be
       -0.21037091 0.054642655 0.20838265 -0.24546826
0002c0 89 2f 38 3e 81 a3 86 3e 29 14 54 bd ad 1a cc bc
       0.17986883 0.2629662 -0.05177704 -0.024915064
0002d0 64 7a ff bc fd 45 95 be eb 2d a1 bd 18 6c c3 bb
       -0.03118629 -0.2915496 -0.07870086 -0.0059638135
0002e0 4e e2 24 3e 72 d0 99 3d a1 8e ba bd a9 e5 a5 3b
       0.16101953 0.07510461 -0.091092356 0.005062778
0002f0 88 5e 8c bd 22 99 79 be d3 36 34 3e 16 d8 18 bd
       -0.06853968 -0.24374822 0.17599039 -0.03731545
000300 5c 2e 5b bd 5c 7f 23 bd 0c 81 89 bd 44 28 61 3d
       -0.05351101 -0.03991638 -0.06714067 0.05497004
000310 ec 20 a1 be 05 c3 0f be b6 ea b2 3e 66 de d4 3c
       -0.3147043 -0.14039238 0.34944695 0.025984954
000320 48 0a 02 bd 48 7a 36 3d c9 38 f2 3d 77 6d dd 3d
       -0.031748086 0.04455021 0.11827237 0.108118944
000330 32 10 ab 3d 58 c4 4b 3e 2f 9a 7e 3a 94 52 41 be
       0.083526984 0.19899118 0.0009712306 -0.18879157
000340 be aa f9 3c 88 24 8e 3c 74 0f 21 3d 3e 3b ea 3c
       0.030476924 0.017351404 0.039321378 0.028592702
000350 65 93 98 3d 57 fa 1d bd 29 d8 4e 3e 33 13 9c bd
       0.07449988 -0.03856882 0.20199646 -0.076208495
000360 c0 77 0c 3e bc 43 24 3d 76 20 fb 3c 9f f1 8a be
       0.13717556 0.04010366 0.030655127 -0.27137467
000370 d8 57 c7 bd fe c7 12 3b af 8e a9 3d 34 95 c1 3d
       -0.09733552 0.0022397037 0.08279168 0.09452286
000380 ed ab 4a 3d 86 c8 19 3e 79 52 0f 3e f7 b8 2d be
       0.049480367 0.150179 0.13996305 -0.1696509
000390 aa f9 3d 3e 9f 0d c3 bc c6 a0 38 3e c1 63 b6 bc
       0.1855227 -0.023810206 0.1803008 -0.022264363
0003a0 49 bf 36 bd 14 e8 2e be 51 0b ce 3c 55 c1 16 be
       -0.044616017 -0.17080718 0.02515188 -0.14722188
0003b0 52 61 f8 bc 53 1f 10 3d 3c 30 8e 3d d2 bd ef 3c
       -0.030319843 0.035186123 0.06942794 0.029265318
0003c0 5a 97 88 bd e2 1d 25 be 28 16 e7 bc a3 ff 1f be
       -0.06669493 -0.1612468 -0.028208807 -0.15624861
0003d0 35 dd cc be e8 e5 bd 3e f5 11 60 be 17 a5 bf bd
       -0.40012518 0.37089467 -0.2188185 -0.0935766
0003e0 ce d5 9e 3d 0c 5e 14 3e 69 a9 4b 3e 44 ac 5c bd
       0.07755624 0.14489001 0.19888844 -0.053875223
0003f0 05 1b d2 3d b2 7f a4 be 83 0f a0 3d ed 14 91 3e
       0.1025906 -0.32128674 0.078154586 0.28336278

std.constant2 f4 [170, 578]
000000 b7 f3 42 3d 73 d3 96 3d 2f f4 2c 3d 72 63 fa 3c
       0.047595706 0.073645495 0.04222506 0.030564997
000010 fd f0 9d bd e2 f4 27 3d 8c 06 45 3d 91 4c 58 bc
       -0.077119805 0.041005023 0.048101947 -0.013201849
000020 da 6d 53 3d c0 d4 e4 bc 20 6d 9a bd 88 96 57 bc
       0.051618434 -0.027933478 -0.07540345 -0.013158448
000030 bf 2f bd 3c b1 51 7e bd 43 d4 0b 3d a4 b9 50 3a
       0.023094056 -0.062089626 0.034137975 0.0007962233
000040 2e d2 04 3b 03 1f eb 3c b6 53 cb bd b9 49 45 bd
       0.0020266878 0.028701311 -0.09928076 -0.04816601
000050 7e dc 8e bd 07 0e bf bd ec fd 1c bd 42 62 3a bd
       -0.06975649 -0.093288474 -0.038328096 -0.045503862
000060 74 a3 55 3d e6 ee 89 bd 9d 33 a1 3b 6a f1 77 bd
       0.052157834 -0.067350194 0.004919483 -0.060532965
000070 af 27 98 3c b4 39 60 bd dd 87 b0 bc f6 25 57 bd
       0.01857361 -0.05474253 -0.02154916 -0.052526437
000080 a3 d3 77 3d 62 44 b9 bd 22 30 d5 bc 84 9e 44 3d
       0.060504567 -0.09046246 -0.026023928 0.048002735
000090 a9 ff 52 3b 88 21 9a 3c a0 c1 09 bb 6a d3 53 bb
       0.0032195842 0.018814817 -0.002101995 -0.0032322058
0000a0 c2 6f 35 3d a9 5b c5 bd 5d 65 8a bb 0d fb 0c bd
       0.044296034 -0.096366234 -0.004223509 -0.03441911
0000b0 36 19 7a bc 70 71 b9 bd f6 01 bd 3b d5 a3 9e bc
       -0.0152648 -0.090548396 0.005768056 -0.01936523
0000c0 56 14 85 3c a0 7c d1 3b 58 f3 52 bd aa 4f 59 3c
       0.016245048 0.0063930303 -0.051501602 0.013263622
0000d0 77 43 9a bd 0e 26 19 3d 68 52 53 bd 73 84 43 bd
       -0.07532399 0.037389807 -0.05159226 -0.047733735
0000e0 28 9f 70 3d 3d 21 4b bd cd 31 98 bd 6c b8 96 3c
       0.058745533 -0.049592245 -0.07431374 0.018398486
0000f0 31 ff 1b 3c 58 16 66 bd 26 22 16 bd 2c 20 dc bc
       0.009521292 -0.056173652 -0.03665366 -0.02687081
000100 b1 c0 3f 3c aa fd 1a bd 7a 4b a8 bd f0 f1 30 3c
       0.011703656 -0.03783957 -0.08217521 0.01079987
000110 a0 07 ad bc 3d 96 d1 3c 7b fa 4a bd f7 c6 c3 bd
       -0.0211218 0.025584335 -0.049555283 -0.09559434
000120 5b cc 8f 3b 7d 12 ba 3c 10 5a 72 3d 71 a1 30 3d
       0.0043883747 0.022713894 0.05916792 0.043122713
000130 c4 86 43 3d eb 70 31 bd b5 4e a5 3c ad ba 79 3d
       0.047735944 -0.043320578 0.020179132 0.060969044
000140 fb 61 7a bc 3f 72 2d bc ca 4f 2d bd ba e8 e1 bc
       -0.015282149 -0.01058632 -0.04231242 -0.027576793
000150 bb d2 c5 bd f9 1d 64 3d 52 60 f2 bb 93 cc 58 bc
       -0.09659334 0.055692647 -0.007396736 -0.013232368
000160 d2 5e 40 bd a4 57 54 3d 38 a9 e4 bc b8 f8 98 3c
       -0.046965428 0.051841393 -0.027912721 0.018673286
000170 fe 9c 65 3d cb 3e 00 bd 4a 31 8f bd af 23 79 3d
       0.056057923 -0.031309884 -0.06991823 0.060825046
000180 56 a5 b6 bd f4 46 c1 bd 6c 8c 80 bd 95 f9 b7 3c
       -0.08918254 -0.09437361 -0.06276783 0.022457877
000190 4a 87 3b bd 95 0e 5f 3b 4e 41 93 bd 7c f8 2d ba
       -0.04578332 0.0034035791 -0.0719019 -0.00066364533
0001a0 22 ef 33 bd 42 8f fd 3c 53 91 b2 bd 9c 29 c4 bd
       -0.043929227 0.0309521 -0.08719125 -0.09578249
0001b0 30 b5 0f 3b 53 be 94 39 50 17 69 bd 8d 06 97 3d
       0.0021928065 0.00028370562 -0.056907 0.07374296
0001c0 b8 7d 8b 3d 26 2d 82 3b d4 96 31 3d f1 2e 56 bd
       0.06811088 0.0039726673 0.04335673 -0.05229086
0001d0 07 82 9d bd f7 03 6e 3d 41 83 57 3d d6 16 5d bd
       -0.076908164 0.05810925 0.052615408 -0.053976856
0001e0 18 14 66 3d f7 d6 85 bd a5 50 89 3d 4a 3d 97 bd
       0.056171507 -0.06535142 0.06704835 -0.07384737
0001f0 1d 02 7b 3d 9b 53 03 bd df 09 84 bd 00 27 11 3d
       0.061281312 -0.032062154 -0.06447195 0.035437584
000200 50 02 d8 3b b6 94 14 3d be ad 02 3d c6 98 2d 3d
       0.0065920725 0.036274634 0.031903975 0.042382024
000210 94 79 9f 3d 91 2a 8d bd a6 b0 78 3d f3 d0 e3 3c
       0.07786861 -0.068928845 0.06071534 0.027809596
000220 66 58 5c bd 11 ab 86 3d be a7 26 bd f6 9a 9b bb
       -0.05379524 0.06575597 -0.040687315 -0.0047486974
000230 d8 12 6d 3d 1e b6 86 3d d5 43 05 bc c2 5a 93 3c
       0.0578793 0.06577705 -0.008133848 0.017987613
000240 f2 43 b5 bd 38 f8 53 3d 24 56 aa bc 6e 2d 7a bd
       -0.0885085 0.05175039 -0.020793028 -0.06107848
000250 83 95 dc ba 7c 3a 28 3c f5 24 a4 bd 28 f3 8d 3d
       -0.0016829226 0.01026785 -0.080148615 0.06931144
000260 10 82 dc 39 a2 48 c9 bd a5 d2 65 3d 60 f6 ad bd
       0.00042058574 -0.09828307 0.05610909 -0.08494258
000270 d9 64 a3 3d 33 b8 ba bd 17 37 2b 3d c8 d7 3b 3d
       0.079782195 -0.091171645 0.041800585 0.045860082
000280 0e e4 34 3d b6 d1 46 3d 68 5a 9e bd 98 a0 24 bd
       0.044162802 0.04853984 -0.077320874 -0.040192217
000290 f9 dd a7 bb 98 00 07 3d ff a0 64 3d 5e a8 85 3d
       -0.0051228967 0.03295955 0.0558176 0.06526254
0002a0 1d c4 83 bc 6b ee be bd a9 16 dc bb d2 62 88 3d
       -0.016084725 -0.09322818 -0.0067165685 0.066594735
0002b0 60 f2 ab 3d 6b 52 01 bd bc ac f7 bb c4 c9 3c bd
       0.08395839 -0.03157274 -0.0075584333 -0.046090856
0002c0 2b f6 cf 3c 4c d1 b6 bd cb d3 9e bd f0 5f 97 bb
       0.025385937 -0.08926639 -0.0775524 -0.004619591
0002d0 a7 65 e8 bd ba b6 64 3d b8 98 26 bc d9 9e 2b 3d
       -0.11347514 0.055838324 -0.010168247 0.041899536
0002e0 36 90 81 3d aa df 9c bd aa 42 24 bd e0 00 a1 3d
       0.06326334 -0.07659848 -0.04010264 0.07861495
0002f0 07 66 a2 3d 0f 12 c3 3c 6c a4 f4 3c 47 0f c2 3b
       0.079296164 0.023812322 0.029863559 0.0059222314
000300 de 8a 50 bd 4e f4 cc bd c4 fb 98 bc 7c bb 59 bc
       -0.050913684 -0.10007535 -0.018674739 -0.013289329
000310 b3 d1 79 3d 91 67 c0 bc d5 30 78 bd 78 ea ec 3c
       0.060991 -0.023486884 -0.060593445 0.028920397
000320 19 49 a6 bd b1 2a 8a bd 7e 2f 65 bc c9 d3 80 bd
       -0.08119411 -0.06746424 -0.013988374 -0.06290395
000330 99 8e 91 3d 3d 8e 2c 3d 14 75 d8 bb 21 5e 92 3d
       0.071072765 0.042127836 -0.0066057537 0.0714686
000340 cb 9e 68 bd f0 b1 d0 3c 9d cf 01 3d 4f 93 2a bd
       -0.05679206 0.025475472 0.031692136 -0.04164439
000350 f3 15 49 3c ac e7 29 bd 87 3a 81 bb 28 6d c1 bc
       0.0122732995 -0.041480705 -0.0039437446 -0.02361162
000360 0d 4f 47 bd 4a 45 0c bd 2e ce 9d bd 68 2c 8d 3d
       -0.048659373 -0.034245767 -0.07705341 0.068932354
000370 15 52 87 bd 22 a1 3c 3d 7a e1 c0 bd d2 0b f3 bc
       -0.06607453 0.046052106 -0.09418006 -0.029668722
000380 f8 a8 ba 3c f9 5e ad bd 42 65 5a 3d e6 ee d6 bd
       0.022785649 -0.0846538 0.053319223 -0.10494785
000390 06 e5 0f bd 71 ce a0 ba fb a5 b4 bd 8f 19 90 3d
       -0.035130523 -0.0012268556 -0.08820721 0.07036125
0003a0 cf 90 b3 bc ab a5 9e 3c 0d 8d a6 3d 41 4f 5d 3d
       -0.021919636 0.019366106 0.08132372 0.05403066
0003b0 0a db 20 3c 9b ff c2 3c 50 60 c8 bb 0a 57 be bd
       0.009817848 0.023803523 -0.006114997 -0.09293945
0003c0 21 17 0a bd b3 de 6e bd 88 28 93 3c 1f 59 8b bd
       -0.033713464 -0.05831785 0.017963663 -0.06804108
0003d0 be 76 46 3c ef 0f 23 3d cf 42 4c bd 42 12 2f 3d
       0.012113271 0.039810117 -0.0498684 0.04274202
0003e0 32 a2 91 bd 61 b2 b4 3c cd 0c 0b 3d 32 73 6c bc
       -0.071110144 0.022057714 0.033947755 -0.014431762
0003f0 fb d3 3a 3d d6 4e a0 bc b8 89 34 3d ee 30 d2 3b
       0.045612317 -0.019568842 0.04407665 0.0064145243

std.constant3 f4 [102, 170]
000000 6b 8d 0c bd 0c ca 3c be 43 e0 3b be 08 81 03 3e
       -0.034314554 -0.1843645 -0.18347268 0.1284219
000010 2c 20 aa bb bf b8 ef bd 60 0e ad 3d ae 07 e7 3d
       -0.0051918235 -0.117051594 0.084500074 0.11280762
000020 fc 6e c0 bd 10 d2 ef bb df 8a bf 3d 71 2e 27 bd
       -0.093961686 -0.0073187426 0.093526594 -0.040815774
000030 05 43 fc 3d fe 98 55 3e b5 7d 0c 3e ca 96 5e be
       0.123174705 0.20859143 0.13719828 -0.21737209
000040 6e 20 ec bd b2 e1 0a 3e d2 9e 6a 3e 69 d2 39 bc
       -0.11529623 0.13562658 0.22912148 -0.01134167
000050 38 8b fe 3d 53 23 01 be 25 6d 95 bd f8 4d 33 3e
       0.124288976 -0.12611131 -0.07296208 0.17510211
000060 b0 e4 f3 3c 74 9b 6f 3e 43 87 cc 3d 0b 05 df 3c
       0.029772133 0.23399144 0.099867366 0.027224084
000070 52 15 05 3d 88 a5 54 3e fd f7 87 3d 43 6b 01 be
       0.032491036 0.2076627 0.06639097 -0.12638573
000080 86 8a 71 3e e2 f7 b6 bd 30 8c 7c 3d fa bf b7 be
       0.23587999 -0.08933999 0.06165713 -0.35888654
000090 dc ee 6b 3d 09 37 29 3d a9 25 dd bc 3c 30 bf 3e
       0.05760084 0.04131225 -0.026995497 0.37341487
0000a0 5c 41 eb 3c a4 39 a5 bc 3a 94 46 be ec e4 6f be
       0.02871769 -0.020169087 -0.19392481 -0.2342717
0000b0 33 f5 8c 3e a8 c6 c0 bd fd 3a 24 3e f6 72 a2 3d
       0.27530822 -0.09412891 0.16038127 0.07932083
0000c0 ef 79 96 bc 2d d3 ef bd 89 97 2c 3e e6 b8 91 3d
       -0.01836869 -0.117102005 0.16854681 0.07115345
0000d0 98 53 c7 3d a9 0c c0 bc 5e 36 d8 3e 80 e6 c4 bd
       0.09732741 -0.023443537 0.4222898 -0.09614277
0000e0 c4 82 47 be 1f 2c c3 bd 79 5c 33 3e 77 7e 18 3d
       -0.19483477 -0.095299 0.17515744 0.03722998
0000f0 c1 57 a0 bd df 65 00 3e 9d bc d3 bd 8d 89 90 bd
       -0.07829238 0.1253886 -0.103387095 -0.07057486
000100 2d fe 6e 3d ef 9e f4 3d c0 02 12 bc 37 20 b0 3e
       0.05834787 0.11944377 -0.008911788 0.34399578
000110 48 40 40 3e fb 89 96 3e 7c 92 a1 bd 7b 31 f9 bc
       0.18774521 0.29402146 -0.07889268 -0.030419102
000120 2c 81 f7 3c 43 93 07 3f d1 47 3f be 51 69 fa 3e
       0.030212961 0.5295908 -0.1867974 0.48908475
000130 b2 01 9d 3e aa f5 6e 3d 58 db 0d 3b a4 88 dd bd
       0.30665356 0.058339752 0.0021645632 -0.10817078
000140 76 f5 eb bd cc c0 00 3e ab 9f 44 3e 0e 99 5f be
       -0.11521427 0.12573546 0.19201533 -0.2183573
000150 75 a0 c8 3e d8 9f 5c 3c 83 13 0f 3e 5a b2 a8 3e
       0.3918492 0.013465844 0.13972287 0.3294857
000160 db 77 33 3e ed 83 14 3e e5 f1 a5 3e 36 94 10 3e
       0.1752619 0.1450345 0.32411113 0.14119038
000170 ea 3c c9 3e a2 42 09 3d ef 89 94 3e 8b 91 7b 3d
       0.39304286 0.03351081 0.29011485 0.061418097
000180 d1 a0 04 3e e7 01 dc ba 6a 7b 28 3e bb 57 f0 3e
       0.12951972 -0.0016785235 0.16453329 0.46941933
000190 0a 6c c2 3d ce b5 17 be ba 96 9d 3e 9b a1 4b 3d
       0.09493263 -0.14815447 0.30779058 0.049714666
0001a0 d7 82 3d 3d e8 64 a3 bd ec 12 ee bd 36 4d f9 3e
       0.046267357 -0.07978231 -0.11624703 0.4869172
0001b0 81 13 4f 3e 54 0d bb 3e 1c b7 84 3d 0a dc 09 3d
       0.20222284 0.36533606 0.06480238 0.03365711
0001c0 99 24 dc bd a6 7d e9 3e 75 28 0d 3e 44 9e ec 3d
       -0.10749168 0.45603675 0.13784964 0.11553624
0001d0 88 92 4d be 35 ae a1 bd a3 1a fe 3d 15 28 67 3d
       -0.20075428 -0.078945555 0.12407424 0.05643471
0001e0 02 16 b2 3e 33 88 70 3d 72 3c 9d bc a5 8d 11 3f
       0.34782416 0.05872364 -0.019193862 0.5685676
0001f0 90 13 bd bd 0c dd b2 bd 68 3c bb 3e 03 0c 59 be
       -0.09232247 -0.087335676 0.36569524 -0.21195988
000200 49 f4 91 3e c4 73 f9 3d 53 40 01 3e c9 84 0c bd
       0.28506687 0.12180284 0.12622194 -0.03430632
000210 84 4e 82 be bb d3 53 3e 25 c0 72 be b5 ee 0f bd
       -0.25450528 0.20686238 -0.2370611 -0.03513976
000220 0d bc 5e 3b 13 fe b5 3d 56 59 cd 3e 73 16 81 3d
       0.0033986599 0.088863514 0.4010722 0.0630311
000230 f2 c5 78 3e 07 b5 56 3c c4 4e 87 be 16 7c 8d be
       0.2429426 0.013104684 -0.2642728 -0.27633733
000240 84 9e 2d 3e ad 7c 38 3d ae e4 3f 3e 0e 22 8c be
       0.16955 0.045040775 0.18739578 -0.27369732
000250 06 63 9a 3e e2 97 0f be 53 ed 82 bc 43 66 9a 3e
       0.30153674 -0.14022782 -0.015982306 0.30156144
000260 81 40 d1 bd 92 79 15 3e 3b ff 2b 3e ad 3f 7b bd
       -0.10217381 0.14597157 0.16796581 -0.061340023
000270 a0 e1 d5 3e 1d ae 82 3e 30 52 60 3d 45 9f 34 bd
       0.417737 0.25523463 0.05476588 -0.044097204
000280 d1 b0 7d 3e 48 a6 47 3d 9b c9 a9 3d 7f 44 9c bc
       0.24774481 0.048742563 0.08290406 -0.01907563
000290 73 11 51 bb 1e fc 63 be b4 33 62 3e 07 dd 27 3e
       -0.003190127 -0.22264144 0.22090036 0.16392909
0002a0 01 86 9c bd 7a c3 57 be 4c 44 21 bd 75 f4 19 3e
       -0.07642747 -0.21070662 -0.039371774 0.15034659
0002b0 6e 81 41 be cd 91 c3 3d f6 ab a8 3c 87 c4 33 3d
       -0.1889703 0.09549294 0.02058981 0.043888595
0002c0 c5 b8 02 3e 6b 01 6c 3e da a3 7a 3e 33 52 9e bd
       0.12765796 0.23047416 0.24476567 -0.07730522
0002d0 45 4e e8 bd 51 7f fe 3d 36 85 03 be d1 2a 0e 3e
       -0.11343054 0.124266274 -0.12843785 0.1388352
0002e0 d5 29 c8 3e ef 68 83 3d 74 89 81 be d1 32 ef 3d
       0.39094415 0.06416499 -0.2530018 0.11679614
0002f0 ab ca 49 bd 93 20 4f 3d 04 8d f0 3d e1 2d c0 3e
       -0.049265545 0.050568175 0.117456466 0.37535003
000300 fe a5 1c 3e e4 64 03 3e fb 6f 61 3b f3 3d 8b 3e
       0.15297696 0.12831455 0.003439902 0.271957
000310 10 ad 87 3e 25 67 23 3e ec 56 47 bd f4 08 fa 3d
       0.26499224 0.15957315 -0.04866688 0.12208739
000320 01 f3 4a 3e fe 0b a8 bd c0 f8 8e 3e 83 ca a2 bc
       0.19819261 -0.08205412 0.27924156 -0.019871956
000330 31 6c c4 bc 73 11 00 bd 4d 1f 21 be 42 df d6 bd
       -0.023977371 -0.03126664 -0.15734597 -0.10491802
000340 ba 12 59 3e cb 39 05 be a5 2a 83 3e 2c 10 00 bd
       0.2119855 -0.13010328 0.25618473 -0.031265423
000350 b6 85 18 bd 81 c9 30 bd f4 e7 39 3e 85 7d 1a be
       -0.03723689 -0.04316092 0.1815489 -0.15086944
000360 7e 39 f5 3d 0a 45 84 bc 4e d6 6f 3e 49 d7 b5 bd
       0.119738564 -0.016146202 0.23421595 -0.08878953
000370 5b c4 37 3e 9d 1f fb 3d 65 37 43 be ee e2 fd 3c
       0.17945997 0.12261889 -0.190641 0.030991998
000380 21 9e e5 3d e0 bd db 3d 03 c2 eb 3d 39 01 aa 3e
       0.11211801 0.10729575 0.11511614 0.33204058
000390 40 63 ad 3d 0c 68 c7 3d 69 5a ea 3d c4 0e 5b 3e
       0.08466196 0.09736642 0.114430256 0.21392351
0003a0 ec 01 ca 3e be c6 12 be 4a 76 03 be 70 ea 08 3e
       0.3945459 -0.14333627 -0.12838092 0.13370681
0003b0 95 ad 43 3d dc 9b cc 3e ba 8e a1 3e 94 02 3a 3c
       0.047772963 0.3996266 0.31554204 0.011353154
0003c0 dc ce 42 3c 7a 60 a1 3e 85 cf cc 3d 9a fb 8d 3c
       0.011890139 0.31518918 0.10000519 0.017331887
0003d0 3c 78 d6 bb 34 e7 cd bd 38 f0 96 be 89 51 82 3e
       -0.006545095 -0.10053864 -0.29480147 0.2545283
0003e0 09 78 a1 bc 47 b4 7e 3d 21 52 f1 bd a7 ec 66 bd
       -0.019710558 0.062183645 -0.11783243 -0.056378033
0003f0 63 c6 8a 3e aa a4 1a 3e 15 8a bf 3e 6b 05 8c 3d
       0.27104482 0.15101877 0.37410036 0.06836971
